…
momentum: 0.9
weight_decay: 0.0005
snapshot: 10000
snapshot_prefix: "snaps/net_multi_snapshot"
solver_mode: GPU
random_seed: 831486
type: "Nesterov"
I0427 00:24:29.959842  5311 solver.cpp:81] Creating training net from train_net file: prototxt/net_multi_train.prototxt
I0427 00:24:29.960535  5311 net.cpp:49] Initializing net from parameters: 
state {
  phase: TRAIN
}
layer {
  name: "data"
  type: "HDF5Data"
  top: "data"
  top: "label"
  hdf5_data_param {
    source: "/mnt/scratch/pierre/caffe-sandbox/mnist/mnist_train_hdf5/h5list"
    batch_size: 64
  }
}
layer {
  name: "conv1"
  type: "Convolution"
  bottom: "data"
  top: "conv1"
  convolution_param {
    num_output: 50
    kernel_size: 5
    weight_filler {
      type: "xavier"
    }
  }
}
layer {
  name: "pool1"
  type: "Pooling"
  bottom: "conv1"
  top: "pool1"
  pooling_param {
    pool: MAX
    kernel_size: 2
    stride: 2
  }
}
layer {
  name: "relu1"
  type: "ReLU"
  bottom: "pool1"
  top: "pool1"
}
layer {
  name: "conv2"
  type: "Convolution"
  bottom: "pool1"
  top: "conv2"
  convolution_param {
    num_output: 50
    kernel_size: 5
    weight_filler {
      type: "xavier"
    }
  }
}
layer {
  name: "pool2"
  type: "Pooling"
  bottom: "conv2"
  top: "pool2"
  pooling_param {
    pool: MAX
    kernel_size: 2
    stride: 2
  }
}
layer {
  name: "relu2"
  type: "ReLU"
  bottom: "pool2"
  top: "pool2"
}
layer {
  name: "fc1"
  type: "InnerProduct"
  bottom: "pool2"
  top: "fc1"
  inner_product_param {
    num_output: 500
    weight_filler {
      type: "xavier"
    }
  }
}
layer {
  name: "score"
  type: "InnerProduct"
  bottom: "fc1"
  top: "score"
  inner_product_param {
    num_output: 10
    weight_filler {
      type: "xavier"
    }
  }
}
layer {
  name: "loss"
  type: "SigmoidCrossEntropyLoss"
  bottom: "score"
  bottom: "label"
  top: "loss"
}
I0427 00:24:29.960610  5311 layer_factory.hpp:77] Creating layer data
I0427 00:24:29.960638  5311 net.cpp:91] Creating Layer data
I0427 00:24:29.960650  5311 net.cpp:399] data -> data
I0427 00:24:29.960675  5311 net.cpp:399] data -> label
I0427 00:24:29.960691  5311 hdf5_data_layer.cpp:79] Loading list of HDF5 filenames from: /mnt/scratch/pierre/caffe-sandbox/mnist/mnist_train_hdf5/h5list
I0427 00:24:29.960724  5311 hdf5_data_layer.cpp:93] Number of HDF5 files: 1
I0427 00:24:29.961468  5311 hdf5.cpp:32] Datatype class: H5T_FLOAT
I0427 00:24:30.184185  5311 net.cpp:141] Setting up data
I0427 00:24:30.184227  5311 net.cpp:148] Top shape: 64 1 28 28 (50176)
I0427 00:24:30.184237  5311 net.cpp:148] Top shape: 64 10 (640)
I0427 00:24:30.184242  5311 net.cpp:156] Memory required for data: 203264
I0427 00:24:30.184254  5311 layer_factory.hpp:77] Creating layer conv1
I0427 00:24:30.184293  5311 net.cpp:91] Creating Layer conv1
I0427 00:24:30.184304  5311 net.cpp:425] conv1 <- data
I0427 00:24:30.184319  5311 net.cpp:399] conv1 -> conv1
I0427 00:24:30.186138  5311 net.cpp:141] Setting up conv1
I0427 00:24:30.186156  5311 net.cpp:148] Top shape: 64 50 24 24 (1843200)
I0427 00:24:30.186162  5311 net.cpp:156] Memory required for data: 7576064
I0427 00:24:30.186190  5311 layer_factory.hpp:77] Creating layer pool1
I0427 00:24:30.186203  5311 net.cpp:91] Creating Layer pool1
I0427 00:24:30.186210  5311 net.cpp:425] pool1 <- conv1
I0427 00:24:30.186219  5311 net.cpp:399] pool1 -> pool1
I0427 00:24:30.186281  5311 net.cpp:141] Setting up pool1
I0427 00:24:30.186293  5311 net.cpp:148] Top shape: 64 50 12 12 (460800)
I0427 00:24:30.186298  5311 net.cpp:156] Memory required for data: 9419264
I0427 00:24:30.186305  5311 layer_factory.hpp:77] Creating layer relu1
I0427 00:24:30.186314  5311 net.cpp:91] Creating Layer relu1
I0427 00:24:30.186321  5311 net.cpp:425] relu1 <- pool1
I0427 00:24:30.186329  5311 net.cpp:386] relu1 -> pool1 (in-place)
I0427 00:24:30.186342  5311 net.cpp:141] Setting up relu1
I0427 00:24:30.186350  5311 net.cpp:148] Top shape: 64 50 12 12 (460800)
I0427 00:24:30.186357  5311 net.cpp:156] Memory required for data: 11262464
I0427 00:24:30.186362  5311 layer_factory.hpp:77] Creating layer conv2
I0427 00:24:30.186374  5311 net.cpp:91] Creating Layer conv2
I0427 00:24:30.186380  5311 net.cpp:425] conv2 <- pool1
I0427 00:24:30.186389  5311 net.cpp:399] conv2 -> conv2
I0427 00:24:30.188185  5311 net.cpp:141] Setting up conv2
I0427 00:24:30.188205  5311 net.cpp:148] Top shape: 64 50 8 8 (204800)
I0427 00:24:30.188211  5311 net.cpp:156] Memory required for data: 12081664
I0427 00:24:30.188226  5311 layer_factory.hpp:77] Creating layer pool2
I0427 00:24:30.188237  5311 net.cpp:91] Creating Layer pool2
I0427 00:24:30.188243  5311 net.cpp:425] pool2 <- conv2
I0427 00:24:30.188252  5311 net.cpp:399] pool2 -> pool2
I0427 00:24:30.188307  5311 net.cpp:141] Setting up pool2
I0427 00:24:30.188318  5311 net.cpp:148] Top shape: 64 50 4 4 (51200)
I0427 00:24:30.188323  5311 net.cpp:156] Memory required for data: 12286464
I0427 00:24:30.188329  5311 layer_factory.hpp:77] Creating layer relu2
I0427 00:24:30.188338  5311 net.cpp:91] Creating Layer relu2
I0427 00:24:30.188344  5311 net.cpp:425] relu2 <- pool2
I0427 00:24:30.188352  5311 net.cpp:386] relu2 -> pool2 (in-place)
I0427 00:24:30.188361  5311 net.cpp:141] Setting up relu2
I0427 00:24:30.188369  5311 net.cpp:148] Top shape: 64 50 4 4 (51200)
I0427 00:24:30.188375  5311 net.cpp:156] Memory required for data: 12491264
I0427 00:24:30.188381  5311 layer_factory.hpp:77] Creating layer fc1
I0427 00:24:30.188396  5311 net.cpp:91] Creating Layer fc1
I0427 00:24:30.188402  5311 net.cpp:425] fc1 <- pool2
I0427 00:24:30.188411  5311 net.cpp:399] fc1 -> fc1
I0427 00:24:30.194386  5311 net.cpp:141] Setting up fc1
I0427 00:24:30.194407  5311 net.cpp:148] Top shape: 64 500 (32000)
I0427 00:24:30.194413  5311 net.cpp:156] Memory required for data: 12619264
I0427 00:24:30.194432  5311 layer_factory.hpp:77] Creating layer score
I0427 00:24:30.194445  5311 net.cpp:91] Creating Layer score
I0427 00:24:30.194453  5311 net.cpp:425] score <- fc1
I0427 00:24:30.194463  5311 net.cpp:399] score -> score
I0427 00:24:30.195413  5311 net.cpp:141] Setting up score
I0427 00:24:30.195430  5311 net.cpp:148] Top shape: 64 10 (640)
I0427 00:24:30.195438  5311 net.cpp:156] Memory required for data: 12621824
I0427 00:24:30.195454  5311 layer_factory.hpp:77] Creating layer loss
I0427 00:24:30.195477  5311 net.cpp:91] Creating Layer loss
I0427 00:24:30.195487  5311 net.cpp:425] loss <- score
I0427 00:24:30.195497  5311 net.cpp:425] loss <- label
I0427 00:24:30.195507  5311 net.cpp:399] loss -> loss
I0427 00:24:30.195595  5311 net.cpp:141] Setting up loss
…
I0427 00:24:30.195708  5311 net.cpp:261] This network produces output loss
I0427 00:24:30.195719  5311 net.cpp:274] Network initialization done.
I0427 00:24:30.196367  5311 solver.cpp:181] Creating test net (#0) specified by test_net file: prototxt/net_multi_test.prototxt
I0427 00:24:30.196558  5311 net.cpp:49] Initializing net from parameters: 
state {
  phase: TEST
}
layer {
  name: "data"
  type: "HDF5Data"
  top: "data"
  top: "label"
  hdf5_data_param {
    source: "/mnt/scratch/pierre/caffe-sandbox/mnist/mnist_test_hdf5/h5list"
    batch_size: 100
  }
}
layer {
  name: "conv1"
  type: "Convolution"
  bottom: "data"
  top: "conv1"
  convolution_param {
    num_output: 50
    kernel_size: 5
    weight_filler {
      type: "xavier"
    }
  }
}
layer {
  name: "pool1"
  type: "Pooling"
  bottom: "conv1"
  top: "pool1"
  pooling_param {
    pool: MAX
    kernel_size: 2
    stride: 2
  }
}
layer {
  name: "relu1"
  type: "ReLU"
  bottom: "pool1"
  top: "pool1"
}
layer {
  name: "conv2"
  type: "Convolution"
  bottom: "pool1"
  top: "conv2"
  convolution_param {
    num_output: 50
    kernel_size: 5
    weight_filler {
      type: "xavier"
    }
  }
}
layer {
  name: "pool2"
  type: "Pooling"
  bottom: "conv2"
  top: "pool2"
  pooling_param {
    pool: MAX
    kernel_size: 2
    stride: 2
  }
}
layer {
  name: "relu2"
  type: "ReLU"
  bottom: "pool2"
  top: "pool2"
}
layer {
  name: "fc1"
  type: "InnerProduct"
  bottom: "pool2"
  top: "fc1"
  inner_product_param {
    num_output: 500
    weight_filler {
      type: "xavier"
    }
  }
}
layer {
  name: "score"
  type: "InnerProduct"
  bottom: "fc1"
  top: "score"
  inner_product_param {
    num_output: 10
    weight_filler {
      type: "xavier"
    }
  }
}
layer {
  name: "loss"
  type: "SigmoidCrossEntropyLoss"
  bottom: "score"
  bottom: "label"
  top: "loss"
}
I0427 00:24:30.196622  5311 layer_factory.hpp:77] Creating layer data
I0427 00:24:30.196635  5311 net.cpp:91] Creating Layer data
I0427 00:24:30.196642  5311 net.cpp:399] data -> data
I0427 00:24:30.196655  5311 net.cpp:399] data -> label
I0427 00:24:30.196666  5311 hdf5_data_layer.cpp:79] Loading list of HDF5 filenames from: /mnt/scratch/pierre/caffe-sandbox/mnist/mnist_test_hdf5/h5list
I0427 00:24:30.196702  5311 hdf5_data_layer.cpp:93] Number of HDF5 files: 1
I0427 00:24:30.231003  5311 net.cpp:141] Setting up data
I0427 00:24:30.231035  5311 net.cpp:148] Top shape: 100 1 28 28 (78400)
I0427 00:24:30.231041  5311 net.cpp:148] Top shape: 100 10 (1000)
I0427 00:24:30.231045  5311 net.cpp:156] Memory required for data: 317600
I0427 00:24:30.231055  5311 layer_factory.hpp:77] Creating layer conv1
I0427 00:24:30.231077  5311 net.cpp:91] Creating Layer conv1
I0427 00:24:30.231082  5311 net.cpp:425] conv1 <- data
I0427 00:24:30.231091  5311 net.cpp:399] conv1 -> conv1
I0427 00:24:30.231366  5311 net.cpp:141] Setting up conv1
I0427 00:24:30.231376  5311 net.cpp:148] Top shape: 100 50 24 24 (2880000)
I0427 00:24:30.231379  5311 net.cpp:156] Memory required for data: 11837600
I0427 00:24:30.231395  5311 layer_factory.hpp:77] Creating layer pool1
I0427 00:24:30.231403  5311 net.cpp:91] Creating Layer pool1
I0427 00:24:30.231406  5311 net.cpp:425] pool1 <- conv1
I0427 00:24:30.231412  5311 net.cpp:399] pool1 -> pool1
I0427 00:24:30.231452  5311 net.cpp:141] Setting up pool1
I0427 00:24:30.231461  5311 net.cpp:148] Top shape: 100 50 12 12 (720000)
I0427 00:24:30.231463  5311 net.cpp:156] Memory required for data: 14717600
I0427 00:24:30.231467  5311 layer_factory.hpp:77] Creating layer relu1
I0427 00:24:30.231473  5311 net.cpp:91] Creating Layer relu1
I0427 00:24:30.231477  5311 net.cpp:425] relu1 <- pool1
I0427 00:24:30.231482  5311 net.cpp:386] relu1 -> pool1 (in-place)
I0427 00:24:30.231489  5311 net.cpp:141] Setting up relu1
I0427 00:24:30.231494  5311 net.cpp:148] Top shape: 100 50 12 12 (720000)
I0427 00:24:30.231498  5311 net.cpp:156] Memory required for data: 17597600
I0427 00:24:30.231501  5311 layer_factory.hpp:77] Creating layer conv2
I0427 00:24:30.231509  5311 net.cpp:91] Creating Layer conv2
I0427 00:24:30.231513  5311 net.cpp:425] conv2 <- pool1
I0427 00:24:30.231519  5311 net.cpp:399] conv2 -> conv2
I0427 00:24:30.232180  5311 net.cpp:141] Setting up conv2
I0427 00:24:30.232192  5311 net.cpp:148] Top shape: 100 50 8 8 (320000)
I0427 00:24:30.232194  5311 net.cpp:156] Memory required for data: 18877600
I0427 00:24:30.232203  5311 layer_factory.hpp:77] Creating layer pool2
I0427 00:24:30.232210  5311 net.cpp:91] Creating Layer pool2
I0427 00:24:30.232214  5311 net.cpp:425] pool2 <- conv2
I0427 00:24:30.232220  5311 net.cpp:399] pool2 -> pool2
I0427 00:24:30.232256  5311 net.cpp:141] Setting up pool2
I0427 00:24:30.232264  5311 net.cpp:148] Top shape: 100 50 4 4 (80000)
I0427 00:24:30.232267  5311 net.cpp:156] Memory required for data: 19197600
I0427 00:24:30.232271  5311 layer_factory.hpp:77] Creating layer relu2
I0427 00:24:30.232276  5311 net.cpp:91] Creating Layer relu2
I0427 00:24:30.232280  5311 net.cpp:425] relu2 <- pool2
I0427 00:24:30.232285  5311 net.cpp:386] relu2 -> pool2 (in-place)
I0427 00:24:30.232290  5311 net.cpp:141] Setting up relu2
I0427 00:24:30.232295  5311 net.cpp:148] Top shape: 100 50 4 4 (80000)
I0427 00:24:30.232297  5311 net.cpp:156] Memory required for data: 19517600
I0427 00:24:30.232301  5311 layer_factory.hpp:77] Creating layer fc1
I0427 00:24:30.232308  5311 net.cpp:91] Creating Layer fc1
I0427 00:24:30.232312  5311 net.cpp:425] fc1 <- pool2
I0427 00:24:30.232317  5311 net.cpp:399] fc1 -> fc1
I0427 00:24:30.236116  5311 net.cpp:141] Setting up fc1
I0427 00:24:30.236132  5311 net.cpp:148] Top shape: 100 500 (50000)
I0427 00:24:30.236136  5311 net.cpp:156] Memory required for data: 19717600
I0427 00:24:30.236146  5311 layer_factory.hpp:77] Creating layer score
I0427 00:24:30.236155  5311 net.cpp:91] Creating Layer score
I0427 00:24:30.236160  5311 net.cpp:425] score <- fc1
I0427 00:24:30.236166  5311 net.cpp:399] score -> score
I0427 00:24:30.236306  5311 net.cpp:141] Setting up score
I0427 00:24:30.236315  5311 net.cpp:148] Top shape: 100 10 (1000)
I0427 00:24:30.236317  5311 net.cpp:156] Memory required for data: 19721600
I0427 00:24:30.236325  5311 layer_factory.hpp:77] Creating layer loss
I0427 00:24:30.236333  5311 net.cpp:91] Creating Layer loss
I0427 00:24:30.236336  5311 net.cpp:425] loss <- score
I0427 00:24:30.236340  5311 net.cpp:425] loss <- label
I0427 00:24:30.236346  5311 net.cpp:399] loss -> loss
I0427 00:24:30.236385  5311 net.cpp:141] Setting up loss
…
