…
I0425 09:36:30.412045 18669 solver.cpp:81] Creating training net from train_net file: prototxt/net_single_train.prototxt
I0425 09:36:30.412956 18669 net.cpp:313] The NetState phase (0) differed from the phase (1) specified by a rule in layer accuracy
I0425 09:36:30.413117 18669 net.cpp:49] Initializing net from parameters: 
state {
  phase: TRAIN
}
layer {
  name: "data"
  type: "Data"
  top: "data"
  top: "label"
  transform_param {
    scale: 0.0039215689
  }
  data_param {
    source: "../mnist/mnist_train_lmdb"
    batch_size: 64
    backend: LMDB
  }
}
layer {
  name: "conv1"
  type: "Convolution"
  bottom: "data"
  top: "conv1"
  convolution_param {
    num_output: 50
    kernel_size: 5
    weight_filler {
      type: "xavier"
    }
  }
}
layer {
  name: "pool1"
  type: "Pooling"
  bottom: "conv1"
  top: "pool1"
  pooling_param {
    pool: MAX
    kernel_size: 2
    stride: 2
  }
}
layer {
  name: "relu1"
  type: "ReLU"
  bottom: "pool1"
  top: "pool1"
}
layer {
  name: "conv2"
  type: "Convolution"
  bottom: "pool1"
  top: "conv2"
  convolution_param {
    num_output: 50
    kernel_size: 5
    weight_filler {
      type: "xavier"
    }
  }
}
layer {
  name: "pool2"
  type: "Pooling"
  bottom: "conv2"
  top: "pool2"
  pooling_param {
    pool: MAX
    kernel_size: 2
    stride: 2
  }
}
layer {
  name: "relu2"
  type: "ReLU"
  bottom: "pool2"
  top: "pool2"
}
layer {
  name: "fc1"
  type: "InnerProduct"
  bottom: "pool2"
  top: "fc1"
  inner_product_param {
    num_output: 500
    weight_filler {
      type: "xavier"
    }
  }
}
layer {
  name: "score"
  type: "InnerProduct"
  bottom: "fc1"
  top: "score"
  inner_product_param {
    num_output: 10
    weight_filler {
      type: "xavier"
    }
  }
}
layer {
  name: "loss"
  type: "SoftmaxWithLoss"
  bottom: "score"
  bottom: "label"
  top: "loss"
}
I0425 09:36:30.413215 18669 layer_factory.hpp:77] Creating layer data
I0425 09:36:30.413390 18669 net.cpp:91] Creating Layer data
I0425 09:36:30.413409 18669 net.cpp:399] data -> data
I0425 09:36:30.413437 18669 net.cpp:399] data -> label
I0425 09:36:30.418566 18700 db_lmdb.cpp:38] Opened lmdb ../mnist/mnist_train_lmdb
I0425 09:36:30.439262 18669 data_layer.cpp:41] output data size: 64,1,28,28
I0425 09:36:30.440502 18669 net.cpp:141] Setting up data
I0425 09:36:30.440552 18669 net.cpp:148] Top shape: 64 1 28 28 (50176)
I0425 09:36:30.440560 18669 net.cpp:148] Top shape: 64 (64)
I0425 09:36:30.440563 18669 net.cpp:156] Memory required for data: 200960
I0425 09:36:30.440572 18669 layer_factory.hpp:77] Creating layer conv1
I0425 09:36:30.440593 18669 net.cpp:91] Creating Layer conv1
I0425 09:36:30.440598 18669 net.cpp:425] conv1 <- data
I0425 09:36:30.440608 18669 net.cpp:399] conv1 -> conv1
I0425 09:36:30.442108 18669 net.cpp:141] Setting up conv1
I0425 09:36:30.442121 18669 net.cpp:148] Top shape: 64 50 24 24 (1843200)
I0425 09:36:30.442124 18669 net.cpp:156] Memory required for data: 7573760
I0425 09:36:30.442143 18669 layer_factory.hpp:77] Creating layer pool1
I0425 09:36:30.442155 18669 net.cpp:91] Creating Layer pool1
I0425 09:36:30.442159 18669 net.cpp:425] pool1 <- conv1
I0425 09:36:30.442165 18669 net.cpp:399] pool1 -> pool1
I0425 09:36:30.442296 18669 net.cpp:141] Setting up pool1
I0425 09:36:30.442312 18669 net.cpp:148] Top shape: 64 50 12 12 (460800)
I0425 09:36:30.442317 18669 net.cpp:156] Memory required for data: 9416960
I0425 09:36:30.442323 18669 layer_factory.hpp:77] Creating layer relu1
I0425 09:36:30.442337 18669 net.cpp:91] Creating Layer relu1
I0425 09:36:30.442340 18669 net.cpp:425] relu1 <- pool1
I0425 09:36:30.442347 18669 net.cpp:386] relu1 -> pool1 (in-place)
I0425 09:36:30.442356 18669 net.cpp:141] Setting up relu1
I0425 09:36:30.442371 18669 net.cpp:148] Top shape: 64 50 12 12 (460800)
I0425 09:36:30.442375 18669 net.cpp:156] Memory required for data: 11260160
I0425 09:36:30.442378 18669 layer_factory.hpp:77] Creating layer conv2
I0425 09:36:30.442390 18669 net.cpp:91] Creating Layer conv2
I0425 09:36:30.442394 18669 net.cpp:425] conv2 <- pool1
I0425 09:36:30.442402 18669 net.cpp:399] conv2 -> conv2
I0425 09:36:30.443254 18669 net.cpp:141] Setting up conv2
I0425 09:36:30.443267 18669 net.cpp:148] Top shape: 64 50 8 8 (204800)
I0425 09:36:30.443270 18669 net.cpp:156] Memory required for data: 12079360
I0425 09:36:30.443280 18669 layer_factory.hpp:77] Creating layer pool2
I0425 09:36:30.443290 18669 net.cpp:91] Creating Layer pool2
I0425 09:36:30.443295 18669 net.cpp:425] pool2 <- conv2
I0425 09:36:30.443301 18669 net.cpp:399] pool2 -> pool2
I0425 09:36:30.443348 18669 net.cpp:141] Setting up pool2
I0425 09:36:30.443357 18669 net.cpp:148] Top shape: 64 50 4 4 (51200)
I0425 09:36:30.443369 18669 net.cpp:156] Memory required for data: 12284160
I0425 09:36:30.443373 18669 layer_factory.hpp:77] Creating layer relu2
I0425 09:36:30.443379 18669 net.cpp:91] Creating Layer relu2
I0425 09:36:30.443382 18669 net.cpp:425] relu2 <- pool2
I0425 09:36:30.443390 18669 net.cpp:386] relu2 -> pool2 (in-place)
I0425 09:36:30.443397 18669 net.cpp:141] Setting up relu2
I0425 09:36:30.443403 18669 net.cpp:148] Top shape: 64 50 4 4 (51200)
I0425 09:36:30.443406 18669 net.cpp:156] Memory required for data: 12488960
I0425 09:36:30.443410 18669 layer_factory.hpp:77] Creating layer fc1
I0425 09:36:30.443420 18669 net.cpp:91] Creating Layer fc1
I0425 09:36:30.443424 18669 net.cpp:425] fc1 <- pool2
I0425 09:36:30.443430 18669 net.cpp:399] fc1 -> fc1
I0425 09:36:30.447340 18669 net.cpp:141] Setting up fc1
I0425 09:36:30.447353 18669 net.cpp:148] Top shape: 64 500 (32000)
I0425 09:36:30.447356 18669 net.cpp:156] Memory required for data: 12616960
I0425 09:36:30.447367 18669 layer_factory.hpp:77] Creating layer score
I0425 09:36:30.447381 18669 net.cpp:91] Creating Layer score
I0425 09:36:30.447386 18669 net.cpp:425] score <- fc1
I0425 09:36:30.447393 18669 net.cpp:399] score -> score
I0425 09:36:30.448150 18669 net.cpp:141] Setting up score
I0425 09:36:30.448163 18669 net.cpp:148] Top shape: 64 10 (640)
I0425 09:36:30.448166 18669 net.cpp:156] Memory required for data: 12619520
I0425 09:36:30.448174 18669 layer_factory.hpp:77] Creating layer loss
I0425 09:36:30.448184 18669 net.cpp:91] Creating Layer loss
I0425 09:36:30.448189 18669 net.cpp:425] loss <- score
I0425 09:36:30.448194 18669 net.cpp:425] loss <- label
I0425 09:36:30.448201 18669 net.cpp:399] loss -> loss
I0425 09:36:30.448216 18669 layer_factory.hpp:77] Creating layer loss
…
I0425 09:36:30.448390 18669 net.cpp:261] This network produces output loss
I0425 09:36:30.448400 18669 net.cpp:274] Network initialization done.
I0425 09:36:30.474553 18669 solver.cpp:181] Creating test net (#0) specified by test_net file: prototxt/net_single_test.prototxt
I0425 09:36:30.474787 18669 net.cpp:49] Initializing net from parameters: 
state {
  phase: TEST
}
layer {
  name: "data"
  type: "Data"
  top: "data"
  top: "label"
  transform_param {
    scale: 0.0039215689
  }
  data_param {
    source: "../mnist/mnist_test_lmdb"
    batch_size: 100
    backend: LMDB
  }
}
layer {
  name: "conv1"
  type: "Convolution"
  bottom: "data"
  top: "conv1"
  convolution_param {
    num_output: 50
    kernel_size: 5
    weight_filler {
      type: "xavier"
    }
  }
}
layer {
  name: "pool1"
  type: "Pooling"
  bottom: "conv1"
  top: "pool1"
  pooling_param {
    pool: MAX
    kernel_size: 2
    stride: 2
  }
}
layer {
  name: "relu1"
  type: "ReLU"
  bottom: "pool1"
  top: "pool1"
}
layer {
  name: "conv2"
  type: "Convolution"
  bottom: "pool1"
  top: "conv2"
  convolution_param {
    num_output: 50
    kernel_size: 5
    weight_filler {
      type: "xavier"
    }
  }
}
layer {
  name: "pool2"
  type: "Pooling"
  bottom: "conv2"
  top: "pool2"
  pooling_param {
    pool: MAX
    kernel_size: 2
    stride: 2
  }
}
layer {
  name: "relu2"
  type: "ReLU"
  bottom: "pool2"
  top: "pool2"
}
layer {
  name: "fc1"
  type: "InnerProduct"
  bottom: "pool2"
  top: "fc1"
  inner_product_param {
    num_output: 500
    weight_filler {
      type: "xavier"
    }
  }
}
layer {
  name: "score"
  type: "InnerProduct"
  bottom: "fc1"
  top: "score"
  inner_product_param {
    num_output: 10
    weight_filler {
      type: "xavier"
    }
  }
}
layer {
  name: "accuracy"
  type: "Accuracy"
  bottom: "score"
  bottom: "label"
  top: "accuracy"
  include {
    phase: TEST
  }
}
layer {
  name: "loss"
  type: "SoftmaxWithLoss"
  bottom: "score"
  bottom: "label"
  top: "loss"
}
I0425 09:36:30.474921 18669 layer_factory.hpp:77] Creating layer data
I0425 09:36:30.475121 18669 net.cpp:91] Creating Layer data
I0425 09:36:30.475142 18669 net.cpp:399] data -> data
I0425 09:36:30.475159 18669 net.cpp:399] data -> label
I0425 09:36:30.480758 18702 db_lmdb.cpp:38] Opened lmdb ../mnist/mnist_test_lmdb
I0425 09:36:30.481294 18669 data_layer.cpp:41] output data size: 100,1,28,28
I0425 09:36:30.483243 18669 net.cpp:141] Setting up data
I0425 09:36:30.483263 18669 net.cpp:148] Top shape: 100 1 28 28 (78400)
I0425 09:36:30.483273 18669 net.cpp:148] Top shape: 100 (100)
I0425 09:36:30.483278 18669 net.cpp:156] Memory required for data: 314000
I0425 09:36:30.483285 18669 layer_factory.hpp:77] Creating layer label_data_1_split
I0425 09:36:30.483302 18669 net.cpp:91] Creating Layer label_data_1_split
I0425 09:36:30.483309 18669 net.cpp:425] label_data_1_split <- label
I0425 09:36:30.483319 18669 net.cpp:399] label_data_1_split -> label_data_1_split_0
I0425 09:36:30.483332 18669 net.cpp:399] label_data_1_split -> label_data_1_split_1
I0425 09:36:30.483501 18669 net.cpp:141] Setting up label_data_1_split
I0425 09:36:30.483515 18669 net.cpp:148] Top shape: 100 (100)
I0425 09:36:30.483520 18669 net.cpp:148] Top shape: 100 (100)
I0425 09:36:30.483523 18669 net.cpp:156] Memory required for data: 314800
I0425 09:36:30.483527 18669 layer_factory.hpp:77] Creating layer conv1
I0425 09:36:30.483541 18669 net.cpp:91] Creating Layer conv1
I0425 09:36:30.483544 18669 net.cpp:425] conv1 <- data
I0425 09:36:30.483553 18669 net.cpp:399] conv1 -> conv1
I0425 09:36:30.483834 18669 net.cpp:141] Setting up conv1
I0425 09:36:30.483844 18669 net.cpp:148] Top shape: 100 50 24 24 (2880000)
I0425 09:36:30.483847 18669 net.cpp:156] Memory required for data: 11834800
I0425 09:36:30.483858 18669 layer_factory.hpp:77] Creating layer pool1
I0425 09:36:30.483868 18669 net.cpp:91] Creating Layer pool1
I0425 09:36:30.483872 18669 net.cpp:425] pool1 <- conv1
I0425 09:36:30.483878 18669 net.cpp:399] pool1 -> pool1
I0425 09:36:30.483923 18669 net.cpp:141] Setting up pool1
I0425 09:36:30.483932 18669 net.cpp:148] Top shape: 100 50 12 12 (720000)
I0425 09:36:30.483934 18669 net.cpp:156] Memory required for data: 14714800
I0425 09:36:30.483938 18669 layer_factory.hpp:77] Creating layer relu1
I0425 09:36:30.483945 18669 net.cpp:91] Creating Layer relu1
I0425 09:36:30.483949 18669 net.cpp:425] relu1 <- pool1
I0425 09:36:30.483954 18669 net.cpp:386] relu1 -> pool1 (in-place)
I0425 09:36:30.483961 18669 net.cpp:141] Setting up relu1
I0425 09:36:30.483966 18669 net.cpp:148] Top shape: 100 50 12 12 (720000)
I0425 09:36:30.483969 18669 net.cpp:156] Memory required for data: 17594800
I0425 09:36:30.483973 18669 layer_factory.hpp:77] Creating layer conv2
I0425 09:36:30.483983 18669 net.cpp:91] Creating Layer conv2
I0425 09:36:30.483986 18669 net.cpp:425] conv2 <- pool1
I0425 09:36:30.483994 18669 net.cpp:399] conv2 -> conv2
I0425 09:36:30.485613 18669 net.cpp:141] Setting up conv2
I0425 09:36:30.485635 18669 net.cpp:148] Top shape: 100 50 8 8 (320000)
I0425 09:36:30.485637 18669 net.cpp:156] Memory required for data: 18874800
I0425 09:36:30.485648 18669 layer_factory.hpp:77] Creating layer pool2
I0425 09:36:30.485658 18669 net.cpp:91] Creating Layer pool2
I0425 09:36:30.485663 18669 net.cpp:425] pool2 <- conv2
I0425 09:36:30.485669 18669 net.cpp:399] pool2 -> pool2
I0425 09:36:30.485716 18669 net.cpp:141] Setting up pool2
I0425 09:36:30.485724 18669 net.cpp:148] Top shape: 100 50 4 4 (80000)
I0425 09:36:30.485728 18669 net.cpp:156] Memory required for data: 19194800
I0425 09:36:30.485731 18669 layer_factory.hpp:77] Creating layer relu2
I0425 09:36:30.485736 18669 net.cpp:91] Creating Layer relu2
I0425 09:36:30.485740 18669 net.cpp:425] relu2 <- pool2
I0425 09:36:30.485745 18669 net.cpp:386] relu2 -> pool2 (in-place)
I0425 09:36:30.485752 18669 net.cpp:141] Setting up relu2
I0425 09:36:30.485757 18669 net.cpp:148] Top shape: 100 50 4 4 (80000)
I0425 09:36:30.485761 18669 net.cpp:156] Memory required for data: 19514800
I0425 09:36:30.485765 18669 layer_factory.hpp:77] Creating layer fc1
I0425 09:36:30.485775 18669 net.cpp:91] Creating Layer fc1
I0425 09:36:30.485780 18669 net.cpp:425] fc1 <- pool2
I0425 09:36:30.485785 18669 net.cpp:399] fc1 -> fc1
I0425 09:36:30.491760 18669 net.cpp:141] Setting up fc1
I0425 09:36:30.491780 18669 net.cpp:148] Top shape: 100 500 (50000)
I0425 09:36:30.491786 18669 net.cpp:156] Memory required for data: 19714800
I0425 09:36:30.491802 18669 layer_factory.hpp:77] Creating layer score
I0425 09:36:30.491822 18669 net.cpp:91] Creating Layer score
I0425 09:36:30.491829 18669 net.cpp:425] score <- fc1
I0425 09:36:30.491840 18669 net.cpp:399] score -> score
I0425 09:36:30.492084 18669 net.cpp:141] Setting up score
I0425 09:36:30.492099 18669 net.cpp:148] Top shape: 100 10 (1000)
I0425 09:36:30.492103 18669 net.cpp:156] Memory required for data: 19718800
I0425 09:36:30.492115 18669 layer_factory.hpp:77] Creating layer score_score_0_split
I0425 09:36:30.492125 18669 net.cpp:91] Creating Layer score_score_0_split
I0425 09:36:30.492131 18669 net.cpp:425] score_score_0_split <- score
I0425 09:36:30.492141 18669 net.cpp:399] score_score_0_split -> score_score_0_split_0
I0425 09:36:30.492152 18669 net.cpp:399] score_score_0_split -> score_score_0_split_1
I0425 09:36:30.492219 18669 net.cpp:141] Setting up score_score_0_split
I0425 09:36:30.492230 18669 net.cpp:148] Top shape: 100 10 (1000)
I0425 09:36:30.492238 18669 net.cpp:148] Top shape: 100 10 (1000)
I0425 09:36:30.492244 18669 net.cpp:156] Memory required for data: 19726800
I0425 09:36:30.492249 18669 layer_factory.hpp:77] Creating layer accuracy
I0425 09:36:30.492264 18669 net.cpp:91] Creating Layer accuracy
I0425 09:36:30.492271 18669 net.cpp:425] accuracy <- score_score_0_split_0
I0425 09:36:30.492280 18669 net.cpp:425] accuracy <- label_data_1_split_0
I0425 09:36:30.492292 18669 net.cpp:399] accuracy -> accuracy
…
