…
I0315 15:59:58.597882 17529 solver.cpp:81] Creating training net from train_net file: prototxt/net2_train.prototxt
I0315 15:59:58.598312 17529 net.cpp:313] The NetState phase (0) differed from the phase (1) specified by a rule in layer accuracy
I0315 15:59:58.598491 17529 net.cpp:49] Initializing net from parameters: 
state {
  phase: TRAIN
}
layer {
  name: "data"
  type: "Data"
  top: "data"
  top: "label"
  transform_param {
    scale: 0.0039215689
  }
  data_param {
    source: "../mnist/mnist_train_lmdb"
    batch_size: 64
    backend: LMDB
  }
}
layer {
  name: "conv1"
  type: "Convolution"
  bottom: "data"
  top: "conv1"
  convolution_param {
    num_output: 50
    kernel_size: 5
    weight_filler {
      type: "xavier"
    }
  }
}
layer {
  name: "pool1"
  type: "Pooling"
  bottom: "conv1"
  top: "pool1"
  pooling_param {
    pool: MAX
    kernel_size: 2
    stride: 2
  }
}
layer {
  name: "relu1"
  type: "ReLU"
  bottom: "pool1"
  top: "pool1"
}
layer {
  name: "conv2"
  type: "Convolution"
  bottom: "pool1"
  top: "conv2"
  convolution_param {
    num_output: 50
    kernel_size: 5
    weight_filler {
      type: "xavier"
    }
  }
}
layer {
  name: "pool2"
  type: "Pooling"
  bottom: "conv2"
  top: "pool2"
  pooling_param {
    pool: MAX
    kernel_size: 2
    stride: 2
  }
}
layer {
  name: "relu2"
  type: "ReLU"
  bottom: "pool2"
  top: "pool2"
}
layer {
  name: "fc1"
  type: "InnerProduct"
  bottom: "pool2"
  top: "fc1"
  inner_product_param {
    num_output: 500
    weight_filler {
      type: "xavier"
    }
  }
}
layer {
  name: "score"
  type: "InnerProduct"
  bottom: "fc1"
  top: "score"
  inner_product_param {
    num_output: 10
    weight_filler {
      type: "xavier"
    }
  }
}
layer {
  name: "loss"
  type: "SoftmaxWithLoss"
  bottom: "score"
  bottom: "label"
  top: "loss"
}
I0315 15:59:58.598947 17529 layer_factory.hpp:77] Creating layer data
I0315 15:59:58.599165 17529 net.cpp:91] Creating Layer data
I0315 15:59:58.599277 17529 net.cpp:399] data -> data
I0315 15:59:58.599397 17529 net.cpp:399] data -> label
I0315 15:59:58.600137 17556 db_lmdb.cpp:38] Opened lmdb ../mnist/mnist_train_lmdb
I0315 15:59:58.616719 17529 data_layer.cpp:41] output data size: 64,1,28,28
I0315 15:59:58.617921 17529 net.cpp:141] Setting up data
I0315 15:59:58.618003 17529 net.cpp:148] Top shape: 64 1 28 28 (50176)
I0315 15:59:58.618018 17529 net.cpp:148] Top shape: 64 (64)
I0315 15:59:58.618029 17529 net.cpp:156] Memory required for data: 200960
I0315 15:59:58.618046 17529 layer_factory.hpp:77] Creating layer conv1
I0315 15:59:58.618077 17529 net.cpp:91] Creating Layer conv1
I0315 15:59:58.618098 17529 net.cpp:425] conv1 <- data
I0315 15:59:58.618124 17529 net.cpp:399] conv1 -> conv1
I0315 15:59:58.619633 17529 net.cpp:141] Setting up conv1
I0315 15:59:58.619671 17529 net.cpp:148] Top shape: 64 50 24 24 (1843200)
I0315 15:59:58.619683 17529 net.cpp:156] Memory required for data: 7573760
I0315 15:59:58.619709 17529 layer_factory.hpp:77] Creating layer pool1
I0315 15:59:58.619726 17529 net.cpp:91] Creating Layer pool1
I0315 15:59:58.619738 17529 net.cpp:425] pool1 <- conv1
I0315 15:59:58.619755 17529 net.cpp:399] pool1 -> pool1
I0315 15:59:58.619848 17529 net.cpp:141] Setting up pool1
I0315 15:59:58.619891 17529 net.cpp:148] Top shape: 64 50 12 12 (460800)
I0315 15:59:58.619902 17529 net.cpp:156] Memory required for data: 9416960
I0315 15:59:58.619915 17529 layer_factory.hpp:77] Creating layer relu1
I0315 15:59:58.619931 17529 net.cpp:91] Creating Layer relu1
I0315 15:59:58.619942 17529 net.cpp:425] relu1 <- pool1
I0315 15:59:58.619956 17529 net.cpp:386] relu1 -> pool1 (in-place)
I0315 15:59:58.620002 17529 net.cpp:141] Setting up relu1
I0315 15:59:58.620017 17529 net.cpp:148] Top shape: 64 50 12 12 (460800)
I0315 15:59:58.620026 17529 net.cpp:156] Memory required for data: 11260160
I0315 15:59:58.620038 17529 layer_factory.hpp:77] Creating layer conv2
I0315 15:59:58.620057 17529 net.cpp:91] Creating Layer conv2
I0315 15:59:58.620080 17529 net.cpp:425] conv2 <- pool1
I0315 15:59:58.620095 17529 net.cpp:399] conv2 -> conv2
I0315 15:59:58.620856 17529 net.cpp:141] Setting up conv2
I0315 15:59:58.620924 17529 net.cpp:148] Top shape: 64 50 8 8 (204800)
I0315 15:59:58.620936 17529 net.cpp:156] Memory required for data: 12079360
I0315 15:59:58.620955 17529 layer_factory.hpp:77] Creating layer pool2
I0315 15:59:58.620973 17529 net.cpp:91] Creating Layer pool2
I0315 15:59:58.620985 17529 net.cpp:425] pool2 <- conv2
I0315 15:59:58.621001 17529 net.cpp:399] pool2 -> pool2
I0315 15:59:58.621067 17529 net.cpp:141] Setting up pool2
I0315 15:59:58.621150 17529 net.cpp:148] Top shape: 64 50 4 4 (51200)
I0315 15:59:58.621160 17529 net.cpp:156] Memory required for data: 12284160
I0315 15:59:58.621172 17529 layer_factory.hpp:77] Creating layer relu2
I0315 15:59:58.621186 17529 net.cpp:91] Creating Layer relu2
I0315 15:59:58.621198 17529 net.cpp:425] relu2 <- pool2
I0315 15:59:58.621212 17529 net.cpp:386] relu2 -> pool2 (in-place)
I0315 15:59:58.621225 17529 net.cpp:141] Setting up relu2
I0315 15:59:58.621243 17529 net.cpp:148] Top shape: 64 50 4 4 (51200)
I0315 15:59:58.621256 17529 net.cpp:156] Memory required for data: 12488960
I0315 15:59:58.621268 17529 layer_factory.hpp:77] Creating layer fc1
I0315 15:59:58.621289 17529 net.cpp:91] Creating Layer fc1
I0315 15:59:58.621302 17529 net.cpp:425] fc1 <- pool2
I0315 15:59:58.621315 17529 net.cpp:399] fc1 -> fc1
I0315 15:59:58.625176 17529 net.cpp:141] Setting up fc1
I0315 15:59:58.625241 17529 net.cpp:148] Top shape: 64 500 (32000)
I0315 15:59:58.625252 17529 net.cpp:156] Memory required for data: 12616960
I0315 15:59:58.625268 17529 layer_factory.hpp:77] Creating layer score
I0315 15:59:58.625286 17529 net.cpp:91] Creating Layer score
I0315 15:59:58.625298 17529 net.cpp:425] score <- fc1
I0315 15:59:58.625310 17529 net.cpp:399] score -> score
I0315 15:59:58.626034 17529 net.cpp:141] Setting up score
I0315 15:59:58.626103 17529 net.cpp:148] Top shape: 64 10 (640)
I0315 15:59:58.626114 17529 net.cpp:156] Memory required for data: 12619520
I0315 15:59:58.626129 17529 layer_factory.hpp:77] Creating layer loss
I0315 15:59:58.626145 17529 net.cpp:91] Creating Layer loss
I0315 15:59:58.626157 17529 net.cpp:425] loss <- score
I0315 15:59:58.626168 17529 net.cpp:425] loss <- label
I0315 15:59:58.626185 17529 net.cpp:399] loss -> loss
I0315 15:59:58.626215 17529 layer_factory.hpp:77] Creating layer loss
…
I0315 15:59:58.626525 17529 net.cpp:261] This network produces output loss
I0315 15:59:58.626543 17529 net.cpp:274] Network initialization done.
I0315 15:59:58.626834 17529 solver.cpp:181] Creating test net (#0) specified by test_net file: prototxt/net2_test.prototxt
I0315 15:59:58.627035 17529 net.cpp:49] Initializing net from parameters: 
state {
  phase: TEST
}
layer {
  name: "data"
  type: "Data"
  top: "data"
  top: "label"
  transform_param {
    scale: 0.0039215689
  }
  data_param {
    source: "../mnist/mnist_test_lmdb"
    batch_size: 100
    backend: LMDB
  }
}
layer {
  name: "conv1"
  type: "Convolution"
  bottom: "data"
  top: "conv1"
  convolution_param {
    num_output: 50
    kernel_size: 5
    weight_filler {
      type: "xavier"
    }
  }
}
layer {
  name: "pool1"
  type: "Pooling"
  bottom: "conv1"
  top: "pool1"
  pooling_param {
    pool: MAX
    kernel_size: 2
    stride: 2
  }
}
layer {
  name: "relu1"
  type: "ReLU"
  bottom: "pool1"
  top: "pool1"
}
layer {
  name: "conv2"
  type: "Convolution"
  bottom: "pool1"
  top: "conv2"
  convolution_param {
    num_output: 50
    kernel_size: 5
    weight_filler {
      type: "xavier"
    }
  }
}
layer {
  name: "pool2"
  type: "Pooling"
  bottom: "conv2"
  top: "pool2"
  pooling_param {
    pool: MAX
    kernel_size: 2
    stride: 2
  }
}
layer {
  name: "relu2"
  type: "ReLU"
  bottom: "pool2"
  top: "pool2"
}
layer {
  name: "fc1"
  type: "InnerProduct"
  bottom: "pool2"
  top: "fc1"
  inner_product_param {
    num_output: 500
    weight_filler {
      type: "xavier"
    }
  }
}
layer {
  name: "score"
  type: "InnerProduct"
  bottom: "fc1"
  top: "score"
  inner_product_param {
    num_output: 10
    weight_filler {
      type: "xavier"
    }
  }
}
layer {
  name: "accuracy"
  type: "Accuracy"
  bottom: "score"
  bottom: "label"
  top: "accuracy"
  include {
    phase: TEST
  }
}
layer {
  name: "loss"
  type: "SoftmaxWithLoss"
  bottom: "score"
  bottom: "label"
  top: "loss"
}
I0315 15:59:58.627532 17529 layer_factory.hpp:77] Creating layer data
I0315 15:59:58.627655 17529 net.cpp:91] Creating Layer data
I0315 15:59:58.627676 17529 net.cpp:399] data -> data
I0315 15:59:58.627693 17529 net.cpp:399] data -> label
I0315 15:59:58.628365 17558 db_lmdb.cpp:38] Opened lmdb ../mnist/mnist_test_lmdb
I0315 15:59:58.628608 17529 data_layer.cpp:41] output data size: 100,1,28,28
I0315 15:59:58.629832 17529 net.cpp:141] Setting up data
I0315 15:59:58.629884 17529 net.cpp:148] Top shape: 100 1 28 28 (78400)
I0315 15:59:58.629900 17529 net.cpp:148] Top shape: 100 (100)
I0315 15:59:58.629910 17529 net.cpp:156] Memory required for data: 314000
I0315 15:59:58.629923 17529 layer_factory.hpp:77] Creating layer label_data_1_split
I0315 15:59:58.629942 17529 net.cpp:91] Creating Layer label_data_1_split
I0315 15:59:58.629954 17529 net.cpp:425] label_data_1_split <- label
I0315 15:59:58.629967 17529 net.cpp:399] label_data_1_split -> label_data_1_split_0
I0315 15:59:58.629994 17529 net.cpp:399] label_data_1_split -> label_data_1_split_1
I0315 15:59:58.630056 17529 net.cpp:141] Setting up label_data_1_split
I0315 15:59:58.630106 17529 net.cpp:148] Top shape: 100 (100)
I0315 15:59:58.630118 17529 net.cpp:148] Top shape: 100 (100)
I0315 15:59:58.630127 17529 net.cpp:156] Memory required for data: 314800
I0315 15:59:58.630138 17529 layer_factory.hpp:77] Creating layer conv1
I0315 15:59:58.630156 17529 net.cpp:91] Creating Layer conv1
I0315 15:59:58.630168 17529 net.cpp:425] conv1 <- data
I0315 15:59:58.630182 17529 net.cpp:399] conv1 -> conv1
I0315 15:59:58.630452 17529 net.cpp:141] Setting up conv1
I0315 15:59:58.630498 17529 net.cpp:148] Top shape: 100 50 24 24 (2880000)
I0315 15:59:58.630511 17529 net.cpp:156] Memory required for data: 11834800
I0315 15:59:58.630533 17529 layer_factory.hpp:77] Creating layer pool1
I0315 15:59:58.630548 17529 net.cpp:91] Creating Layer pool1
I0315 15:59:58.630558 17529 net.cpp:425] pool1 <- conv1
I0315 15:59:58.630573 17529 net.cpp:399] pool1 -> pool1
I0315 15:59:58.630658 17529 net.cpp:141] Setting up pool1
I0315 15:59:58.630681 17529 net.cpp:148] Top shape: 100 50 12 12 (720000)
I0315 15:59:58.630692 17529 net.cpp:156] Memory required for data: 14714800
I0315 15:59:58.630704 17529 layer_factory.hpp:77] Creating layer relu1
I0315 15:59:58.630719 17529 net.cpp:91] Creating Layer relu1
I0315 15:59:58.630756 17529 net.cpp:425] relu1 <- pool1
I0315 15:59:58.630770 17529 net.cpp:386] relu1 -> pool1 (in-place)
I0315 15:59:58.630784 17529 net.cpp:141] Setting up relu1
I0315 15:59:58.630797 17529 net.cpp:148] Top shape: 100 50 12 12 (720000)
I0315 15:59:58.630807 17529 net.cpp:156] Memory required for data: 17594800
I0315 15:59:58.630818 17529 layer_factory.hpp:77] Creating layer conv2
I0315 15:59:58.630837 17529 net.cpp:91] Creating Layer conv2
I0315 15:59:58.630851 17529 net.cpp:425] conv2 <- pool1
I0315 15:59:58.630867 17529 net.cpp:399] conv2 -> conv2
I0315 15:59:58.632153 17529 net.cpp:141] Setting up conv2
I0315 15:59:58.632210 17529 net.cpp:148] Top shape: 100 50 8 8 (320000)
I0315 15:59:58.632222 17529 net.cpp:156] Memory required for data: 18874800
I0315 15:59:58.632239 17529 layer_factory.hpp:77] Creating layer pool2
I0315 15:59:58.632253 17529 net.cpp:91] Creating Layer pool2
I0315 15:59:58.632264 17529 net.cpp:425] pool2 <- conv2
I0315 15:59:58.632280 17529 net.cpp:399] pool2 -> pool2
I0315 15:59:58.632338 17529 net.cpp:141] Setting up pool2
I0315 15:59:58.632375 17529 net.cpp:148] Top shape: 100 50 4 4 (80000)
I0315 15:59:58.632386 17529 net.cpp:156] Memory required for data: 19194800
I0315 15:59:58.632396 17529 layer_factory.hpp:77] Creating layer relu2
I0315 15:59:58.632413 17529 net.cpp:91] Creating Layer relu2
I0315 15:59:58.632424 17529 net.cpp:425] relu2 <- pool2
I0315 15:59:58.632438 17529 net.cpp:386] relu2 -> pool2 (in-place)
I0315 15:59:58.632453 17529 net.cpp:141] Setting up relu2
I0315 15:59:58.632467 17529 net.cpp:148] Top shape: 100 50 4 4 (80000)
I0315 15:59:58.632478 17529 net.cpp:156] Memory required for data: 19514800
I0315 15:59:58.632490 17529 layer_factory.hpp:77] Creating layer fc1
I0315 15:59:58.632508 17529 net.cpp:91] Creating Layer fc1
I0315 15:59:58.632520 17529 net.cpp:425] fc1 <- pool2
I0315 15:59:58.632534 17529 net.cpp:399] fc1 -> fc1
I0315 15:59:58.636399 17529 net.cpp:141] Setting up fc1
I0315 15:59:58.636451 17529 net.cpp:148] Top shape: 100 500 (50000)
I0315 15:59:58.636462 17529 net.cpp:156] Memory required for data: 19714800
I0315 15:59:58.636481 17529 layer_factory.hpp:77] Creating layer score
I0315 15:59:58.636497 17529 net.cpp:91] Creating Layer score
I0315 15:59:58.636509 17529 net.cpp:425] score <- fc1
I0315 15:59:58.636523 17529 net.cpp:399] score -> score
I0315 15:59:58.636696 17529 net.cpp:141] Setting up score
I0315 15:59:58.636744 17529 net.cpp:148] Top shape: 100 10 (1000)
I0315 15:59:58.636757 17529 net.cpp:156] Memory required for data: 19718800
I0315 15:59:58.636772 17529 layer_factory.hpp:77] Creating layer score_score_0_split
I0315 15:59:58.636785 17529 net.cpp:91] Creating Layer score_score_0_split
I0315 15:59:58.636796 17529 net.cpp:425] score_score_0_split <- score
I0315 15:59:58.636811 17529 net.cpp:399] score_score_0_split -> score_score_0_split_0
I0315 15:59:58.636834 17529 net.cpp:399] score_score_0_split -> score_score_0_split_1
I0315 15:59:58.636888 17529 net.cpp:141] Setting up score_score_0_split
I0315 15:59:58.636906 17529 net.cpp:148] Top shape: 100 10 (1000)
I0315 15:59:58.636919 17529 net.cpp:148] Top shape: 100 10 (1000)
I0315 15:59:58.636929 17529 net.cpp:156] Memory required for data: 19726800
I0315 15:59:58.636940 17529 layer_factory.hpp:77] Creating layer accuracy
I0315 15:59:58.636957 17529 net.cpp:91] Creating Layer accuracy
I0315 15:59:58.636970 17529 net.cpp:425] accuracy <- score_score_0_split_0
I0315 15:59:58.636984 17529 net.cpp:425] accuracy <- label_data_1_split_0
I0315 15:59:58.636999 17529 net.cpp:399] accuracy -> accuracy
…
