…
I0324 21:44:41.910573 29878 solver.cpp:81] Creating training net from train_net file: prototxt/net0_train.prototxt
I0324 21:44:41.910887 29878 net.cpp:313] The NetState phase (0) differed from the phase (1) specified by a rule in layer accuracy
I0324 21:44:41.910996 29878 net.cpp:49] Initializing net from parameters: 
state {
  phase: TRAIN
}
layer {
  name: "data"
  type: "Data"
  top: "data"
  top: "label"
  transform_param {
    scale: 0.0039215689
  }
  data_param {
    source: "../mnist/mnist_train_lmdb"
    batch_size: 64
    backend: LMDB
  }
}
layer {
  name: "fc1"
  type: "InnerProduct"
  bottom: "data"
  top: "fc1"
  inner_product_param {
    num_output: 50
    weight_filler {
      type: "xavier"
    }
  }
}
layer {
  name: "sig1"
  type: "Sigmoid"
  bottom: "fc1"
  top: "sig1"
}
layer {
  name: "fc2"
  type: "InnerProduct"
  bottom: "sig1"
  top: "fc2"
  inner_product_param {
    num_output: 50
    weight_filler {
      type: "xavier"
    }
  }
}
layer {
  name: "sig2"
  type: "Sigmoid"
  bottom: "fc2"
  top: "sig2"
}
layer {
  name: "score"
  type: "InnerProduct"
  bottom: "sig2"
  top: "score"
  inner_product_param {
    num_output: 10
    weight_filler {
      type: "xavier"
    }
  }
}
layer {
  name: "loss"
  type: "SoftmaxWithLoss"
  bottom: "score"
  bottom: "label"
  top: "loss"
}
I0324 21:44:41.911330 29878 layer_factory.hpp:77] Creating layer data
I0324 21:44:41.911576 29878 net.cpp:91] Creating Layer data
I0324 21:44:41.911610 29878 net.cpp:399] data -> data
I0324 21:44:41.911782 29878 net.cpp:399] data -> label
I0324 21:44:41.912675 29905 db_lmdb.cpp:38] Opened lmdb ../mnist/mnist_train_lmdb
I0324 21:44:41.933439 29878 data_layer.cpp:41] output data size: 64,1,28,28
I0324 21:44:41.935436 29878 net.cpp:141] Setting up data
I0324 21:44:41.935530 29878 net.cpp:148] Top shape: 64 1 28 28 (50176)
I0324 21:44:41.935549 29878 net.cpp:148] Top shape: 64 (64)
I0324 21:44:41.935559 29878 net.cpp:156] Memory required for data: 200960
I0324 21:44:41.935582 29878 layer_factory.hpp:77] Creating layer fc1
I0324 21:44:41.935618 29878 net.cpp:91] Creating Layer fc1
I0324 21:44:41.935638 29878 net.cpp:425] fc1 <- data
I0324 21:44:41.935670 29878 net.cpp:399] fc1 -> fc1
I0324 21:44:41.936178 29878 net.cpp:141] Setting up fc1
I0324 21:44:41.936213 29878 net.cpp:148] Top shape: 64 50 (3200)
I0324 21:44:41.936225 29878 net.cpp:156] Memory required for data: 213760
I0324 21:44:41.936282 29878 layer_factory.hpp:77] Creating layer sig1
I0324 21:44:41.936312 29878 net.cpp:91] Creating Layer sig1
I0324 21:44:41.936326 29878 net.cpp:425] sig1 <- fc1
I0324 21:44:41.936345 29878 net.cpp:399] sig1 -> sig1
I0324 21:44:41.936408 29878 net.cpp:141] Setting up sig1
I0324 21:44:41.936435 29878 net.cpp:148] Top shape: 64 50 (3200)
I0324 21:44:41.936451 29878 net.cpp:156] Memory required for data: 226560
I0324 21:44:41.936471 29878 layer_factory.hpp:77] Creating layer fc2
I0324 21:44:41.936496 29878 net.cpp:91] Creating Layer fc2
I0324 21:44:41.936512 29878 net.cpp:425] fc2 <- sig1
I0324 21:44:41.936535 29878 net.cpp:399] fc2 -> fc2
I0324 21:44:41.937677 29878 net.cpp:141] Setting up fc2
I0324 21:44:41.937734 29878 net.cpp:148] Top shape: 64 50 (3200)
I0324 21:44:41.937747 29878 net.cpp:156] Memory required for data: 239360
I0324 21:44:41.937780 29878 layer_factory.hpp:77] Creating layer sig2
I0324 21:44:41.937805 29878 net.cpp:91] Creating Layer sig2
I0324 21:44:41.937822 29878 net.cpp:425] sig2 <- fc2
I0324 21:44:41.937849 29878 net.cpp:399] sig2 -> sig2
I0324 21:44:41.937896 29878 net.cpp:141] Setting up sig2
I0324 21:44:41.937925 29878 net.cpp:148] Top shape: 64 50 (3200)
I0324 21:44:41.937937 29878 net.cpp:156] Memory required for data: 252160
I0324 21:44:41.938005 29878 layer_factory.hpp:77] Creating layer score
I0324 21:44:41.938031 29878 net.cpp:91] Creating Layer score
I0324 21:44:41.938045 29878 net.cpp:425] score <- sig2
I0324 21:44:41.938063 29878 net.cpp:399] score -> score
I0324 21:44:41.939168 29878 net.cpp:141] Setting up score
I0324 21:44:41.939218 29878 net.cpp:148] Top shape: 64 10 (640)
I0324 21:44:41.939229 29878 net.cpp:156] Memory required for data: 254720
I0324 21:44:41.939254 29878 layer_factory.hpp:77] Creating layer loss
I0324 21:44:41.939282 29878 net.cpp:91] Creating Layer loss
I0324 21:44:41.939297 29878 net.cpp:425] loss <- score
I0324 21:44:41.939311 29878 net.cpp:425] loss <- label
I0324 21:44:41.939329 29878 net.cpp:399] loss -> loss
I0324 21:44:41.939360 29878 layer_factory.hpp:77] Creating layer loss
…
I0324 21:44:41.939656 29878 net.cpp:261] This network produces output loss
I0324 21:44:41.939673 29878 net.cpp:274] Network initialization done.
I0324 21:44:41.939939 29878 solver.cpp:181] Creating test net (#0) specified by test_net file: prototxt/net0_test.prototxt
I0324 21:44:41.940085 29878 net.cpp:49] Initializing net from parameters: 
state {
  phase: TEST
}
layer {
  name: "data"
  type: "Data"
  top: "data"
  top: "label"
  transform_param {
    scale: 0.0039215689
  }
  data_param {
    source: "../mnist/mnist_test_lmdb"
    batch_size: 100
    backend: LMDB
  }
}
layer {
  name: "fc1"
  type: "InnerProduct"
  bottom: "data"
  top: "fc1"
  inner_product_param {
    num_output: 50
    weight_filler {
      type: "xavier"
    }
  }
}
layer {
  name: "sig1"
  type: "Sigmoid"
  bottom: "fc1"
  top: "sig1"
}
layer {
  name: "fc2"
  type: "InnerProduct"
  bottom: "sig1"
  top: "fc2"
  inner_product_param {
    num_output: 50
    weight_filler {
      type: "xavier"
    }
  }
}
layer {
  name: "sig2"
  type: "Sigmoid"
  bottom: "fc2"
  top: "sig2"
}
layer {
  name: "score"
  type: "InnerProduct"
  bottom: "sig2"
  top: "score"
  inner_product_param {
    num_output: 10
    weight_filler {
      type: "xavier"
    }
  }
}
layer {
  name: "accuracy"
  type: "Accuracy"
  bottom: "score"
  bottom: "label"
  top: "accuracy"
  include {
    phase: TEST
  }
}
layer {
  name: "loss"
  type: "SoftmaxWithLoss"
  bottom: "score"
  bottom: "label"
  top: "loss"
}
I0324 21:44:41.940404 29878 layer_factory.hpp:77] Creating layer data
I0324 21:44:41.940593 29878 net.cpp:91] Creating Layer data
I0324 21:44:41.940615 29878 net.cpp:399] data -> data
I0324 21:44:41.940636 29878 net.cpp:399] data -> label
I0324 21:44:41.941537 29907 db_lmdb.cpp:38] Opened lmdb ../mnist/mnist_test_lmdb
I0324 21:44:41.941823 29878 data_layer.cpp:41] output data size: 100,1,28,28
I0324 21:44:41.943984 29878 net.cpp:141] Setting up data
I0324 21:44:41.944046 29878 net.cpp:148] Top shape: 100 1 28 28 (78400)
I0324 21:44:41.944061 29878 net.cpp:148] Top shape: 100 (100)
I0324 21:44:41.944077 29878 net.cpp:156] Memory required for data: 314000
I0324 21:44:41.944093 29878 layer_factory.hpp:77] Creating layer label_data_1_split
I0324 21:44:41.944126 29878 net.cpp:91] Creating Layer label_data_1_split
I0324 21:44:41.944142 29878 net.cpp:425] label_data_1_split <- label
I0324 21:44:41.944164 29878 net.cpp:399] label_data_1_split -> label_data_1_split_0
I0324 21:44:41.944187 29878 net.cpp:399] label_data_1_split -> label_data_1_split_1
I0324 21:44:41.944339 29878 net.cpp:141] Setting up label_data_1_split
I0324 21:44:41.944367 29878 net.cpp:148] Top shape: 100 (100)
I0324 21:44:41.944382 29878 net.cpp:148] Top shape: 100 (100)
I0324 21:44:41.944393 29878 net.cpp:156] Memory required for data: 314800
I0324 21:44:41.944412 29878 layer_factory.hpp:77] Creating layer fc1
I0324 21:44:41.944440 29878 net.cpp:91] Creating Layer fc1
I0324 21:44:41.944453 29878 net.cpp:425] fc1 <- data
I0324 21:44:41.944468 29878 net.cpp:399] fc1 -> fc1
I0324 21:44:41.945003 29878 net.cpp:141] Setting up fc1
I0324 21:44:41.945041 29878 net.cpp:148] Top shape: 100 50 (5000)
I0324 21:44:41.945052 29878 net.cpp:156] Memory required for data: 334800
I0324 21:44:41.945078 29878 layer_factory.hpp:77] Creating layer sig1
I0324 21:44:41.945098 29878 net.cpp:91] Creating Layer sig1
I0324 21:44:41.945114 29878 net.cpp:425] sig1 <- fc1
I0324 21:44:41.945134 29878 net.cpp:399] sig1 -> sig1
I0324 21:44:41.945185 29878 net.cpp:141] Setting up sig1
I0324 21:44:41.945206 29878 net.cpp:148] Top shape: 100 50 (5000)
I0324 21:44:41.945216 29878 net.cpp:156] Memory required for data: 354800
I0324 21:44:41.945228 29878 layer_factory.hpp:77] Creating layer fc2
I0324 21:44:41.945251 29878 net.cpp:91] Creating Layer fc2
I0324 21:44:41.945266 29878 net.cpp:425] fc2 <- sig1
I0324 21:44:41.945284 29878 net.cpp:399] fc2 -> fc2
I0324 21:44:41.945441 29878 net.cpp:141] Setting up fc2
I0324 21:44:41.945475 29878 net.cpp:148] Top shape: 100 50 (5000)
I0324 21:44:41.945487 29878 net.cpp:156] Memory required for data: 374800
I0324 21:44:41.945503 29878 layer_factory.hpp:77] Creating layer sig2
I0324 21:44:41.945520 29878 net.cpp:91] Creating Layer sig2
I0324 21:44:41.945531 29878 net.cpp:425] sig2 <- fc2
I0324 21:44:41.945550 29878 net.cpp:399] sig2 -> sig2
I0324 21:44:41.945595 29878 net.cpp:141] Setting up sig2
I0324 21:44:41.945616 29878 net.cpp:148] Top shape: 100 50 (5000)
I0324 21:44:41.945628 29878 net.cpp:156] Memory required for data: 394800
I0324 21:44:41.945641 29878 layer_factory.hpp:77] Creating layer score
I0324 21:44:41.945662 29878 net.cpp:91] Creating Layer score
I0324 21:44:41.945677 29878 net.cpp:425] score <- sig2
I0324 21:44:41.945698 29878 net.cpp:399] score -> score
I0324 21:44:41.945839 29878 net.cpp:141] Setting up score
I0324 21:44:41.945868 29878 net.cpp:148] Top shape: 100 10 (1000)
I0324 21:44:41.945880 29878 net.cpp:156] Memory required for data: 398800
I0324 21:44:41.945900 29878 layer_factory.hpp:77] Creating layer score_score_0_split
I0324 21:44:41.945920 29878 net.cpp:91] Creating Layer score_score_0_split
I0324 21:44:41.945936 29878 net.cpp:425] score_score_0_split <- score
I0324 21:44:41.945955 29878 net.cpp:399] score_score_0_split -> score_score_0_split_0
I0324 21:44:41.945976 29878 net.cpp:399] score_score_0_split -> score_score_0_split_1
I0324 21:44:41.946043 29878 net.cpp:141] Setting up score_score_0_split
I0324 21:44:41.946065 29878 net.cpp:148] Top shape: 100 10 (1000)
I0324 21:44:41.946077 29878 net.cpp:148] Top shape: 100 10 (1000)
I0324 21:44:41.946089 29878 net.cpp:156] Memory required for data: 406800
I0324 21:44:41.946106 29878 layer_factory.hpp:77] Creating layer accuracy
I0324 21:44:41.946151 29878 net.cpp:91] Creating Layer accuracy
I0324 21:44:41.946166 29878 net.cpp:425] accuracy <- score_score_0_split_0
I0324 21:44:41.946187 29878 net.cpp:425] accuracy <- label_data_1_split_0
I0324 21:44:41.946202 29878 net.cpp:399] accuracy -> accuracy
…
