…
I0325 17:17:51.596745  3167 solver.cpp:81] Creating training net from train_net file: prototxt/net2_train.prototxt
I0325 17:17:51.597054  3167 net.cpp:313] The NetState phase (0) differed from the phase (1) specified by a rule in layer accuracy
I0325 17:17:51.597147  3167 net.cpp:49] Initializing net from parameters: 
state {
  phase: TRAIN
}
layer {
  name: "data"
  type: "Data"
  top: "data"
  top: "label"
  transform_param {
    scale: 0.0039215689
  }
  data_param {
    source: "../mnist/mnist_train_lmdb"
    batch_size: 64
    backend: LMDB
  }
}
layer {
  name: "conv1"
  type: "Convolution"
  bottom: "data"
  top: "conv1"
  convolution_param {
    num_output: 50
    kernel_size: 5
    weight_filler {
      type: "xavier"
    }
  }
}
layer {
  name: "pool1"
  type: "Pooling"
  bottom: "conv1"
  top: "pool1"
  pooling_param {
    pool: MAX
    kernel_size: 2
    stride: 2
  }
}
layer {
  name: "relu1"
  type: "ReLU"
  bottom: "pool1"
  top: "pool1"
}
layer {
  name: "conv2"
  type: "Convolution"
  bottom: "pool1"
  top: "conv2"
  convolution_param {
    num_output: 50
    kernel_size: 5
    weight_filler {
      type: "xavier"
    }
  }
}
layer {
  name: "pool2"
  type: "Pooling"
  bottom: "conv2"
  top: "pool2"
  pooling_param {
    pool: MAX
    kernel_size: 2
    stride: 2
  }
}
layer {
  name: "relu2"
  type: "ReLU"
  bottom: "pool2"
  top: "pool2"
}
layer {
  name: "fc1"
  type: "InnerProduct"
  bottom: "pool2"
  top: "fc1"
  inner_product_param {
    num_output: 500
    weight_filler {
      type: "xavier"
    }
  }
}
layer {
  name: "score"
  type: "InnerProduct"
  bottom: "fc1"
  top: "score"
  inner_product_param {
    num_output: 10
    weight_filler {
      type: "xavier"
    }
  }
}
layer {
  name: "loss"
  type: "SoftmaxWithLoss"
  bottom: "score"
  bottom: "label"
  top: "loss"
}
I0325 17:17:51.597194  3167 layer_factory.hpp:77] Creating layer data
I0325 17:17:51.597298  3167 net.cpp:91] Creating Layer data
I0325 17:17:51.597307  3167 net.cpp:399] data -> data
I0325 17:17:51.597323  3167 net.cpp:399] data -> label
I0325 17:17:51.598317  3221 db_lmdb.cpp:38] Opened lmdb ../mnist/mnist_train_lmdb
I0325 17:17:51.599230  3167 data_layer.cpp:41] output data size: 64,1,28,28
I0325 17:17:51.600457  3167 net.cpp:141] Setting up data
I0325 17:17:51.600476  3167 net.cpp:148] Top shape: 64 1 28 28 (50176)
I0325 17:17:51.600483  3167 net.cpp:148] Top shape: 64 (64)
I0325 17:17:51.600488  3167 net.cpp:156] Memory required for data: 200960
I0325 17:17:51.600498  3167 layer_factory.hpp:77] Creating layer conv1
I0325 17:17:51.600522  3167 net.cpp:91] Creating Layer conv1
I0325 17:17:51.600528  3167 net.cpp:425] conv1 <- data
I0325 17:17:51.600539  3167 net.cpp:399] conv1 -> conv1
I0325 17:17:51.602203  3167 net.cpp:141] Setting up conv1
I0325 17:17:51.602218  3167 net.cpp:148] Top shape: 64 50 24 24 (1843200)
I0325 17:17:51.602223  3167 net.cpp:156] Memory required for data: 7573760
I0325 17:17:51.602237  3167 layer_factory.hpp:77] Creating layer pool1
I0325 17:17:51.602246  3167 net.cpp:91] Creating Layer pool1
I0325 17:17:51.602251  3167 net.cpp:425] pool1 <- conv1
I0325 17:17:51.602257  3167 net.cpp:399] pool1 -> pool1
I0325 17:17:51.602306  3167 net.cpp:141] Setting up pool1
I0325 17:17:51.602314  3167 net.cpp:148] Top shape: 64 50 12 12 (460800)
I0325 17:17:51.602318  3167 net.cpp:156] Memory required for data: 9416960
I0325 17:17:51.602321  3167 layer_factory.hpp:77] Creating layer relu1
I0325 17:17:51.602327  3167 net.cpp:91] Creating Layer relu1
I0325 17:17:51.602330  3167 net.cpp:425] relu1 <- pool1
I0325 17:17:51.602335  3167 net.cpp:386] relu1 -> pool1 (in-place)
I0325 17:17:51.602342  3167 net.cpp:141] Setting up relu1
I0325 17:17:51.602355  3167 net.cpp:148] Top shape: 64 50 12 12 (460800)
I0325 17:17:51.602360  3167 net.cpp:156] Memory required for data: 11260160
I0325 17:17:51.602362  3167 layer_factory.hpp:77] Creating layer conv2
I0325 17:17:51.602371  3167 net.cpp:91] Creating Layer conv2
I0325 17:17:51.602375  3167 net.cpp:425] conv2 <- pool1
I0325 17:17:51.602380  3167 net.cpp:399] conv2 -> conv2
I0325 17:17:51.603271  3167 net.cpp:141] Setting up conv2
I0325 17:17:51.603294  3167 net.cpp:148] Top shape: 64 50 8 8 (204800)
I0325 17:17:51.603302  3167 net.cpp:156] Memory required for data: 12079360
I0325 17:17:51.603317  3167 layer_factory.hpp:77] Creating layer pool2
I0325 17:17:51.603328  3167 net.cpp:91] Creating Layer pool2
I0325 17:17:51.603335  3167 net.cpp:425] pool2 <- conv2
I0325 17:17:51.603350  3167 net.cpp:399] pool2 -> pool2
I0325 17:17:51.603411  3167 net.cpp:141] Setting up pool2
I0325 17:17:51.603421  3167 net.cpp:148] Top shape: 64 50 4 4 (51200)
I0325 17:17:51.603425  3167 net.cpp:156] Memory required for data: 12284160
I0325 17:17:51.603428  3167 layer_factory.hpp:77] Creating layer relu2
I0325 17:17:51.603435  3167 net.cpp:91] Creating Layer relu2
I0325 17:17:51.603437  3167 net.cpp:425] relu2 <- pool2
I0325 17:17:51.603443  3167 net.cpp:386] relu2 -> pool2 (in-place)
I0325 17:17:51.603451  3167 net.cpp:141] Setting up relu2
I0325 17:17:51.603456  3167 net.cpp:148] Top shape: 64 50 4 4 (51200)
I0325 17:17:51.603458  3167 net.cpp:156] Memory required for data: 12488960
I0325 17:17:51.603461  3167 layer_factory.hpp:77] Creating layer fc1
I0325 17:17:51.603468  3167 net.cpp:91] Creating Layer fc1
I0325 17:17:51.603471  3167 net.cpp:425] fc1 <- pool2
I0325 17:17:51.603477  3167 net.cpp:399] fc1 -> fc1
I0325 17:17:51.607087  3167 net.cpp:141] Setting up fc1
I0325 17:17:51.607100  3167 net.cpp:148] Top shape: 64 500 (32000)
I0325 17:17:51.607102  3167 net.cpp:156] Memory required for data: 12616960
I0325 17:17:51.607112  3167 layer_factory.hpp:77] Creating layer score
I0325 17:17:51.607121  3167 net.cpp:91] Creating Layer score
I0325 17:17:51.607125  3167 net.cpp:425] score <- fc1
I0325 17:17:51.607131  3167 net.cpp:399] score -> score
I0325 17:17:51.607890  3167 net.cpp:141] Setting up score
I0325 17:17:51.607902  3167 net.cpp:148] Top shape: 64 10 (640)
I0325 17:17:51.607904  3167 net.cpp:156] Memory required for data: 12619520
I0325 17:17:51.607913  3167 layer_factory.hpp:77] Creating layer loss
I0325 17:17:51.607919  3167 net.cpp:91] Creating Layer loss
I0325 17:17:51.607923  3167 net.cpp:425] loss <- score
I0325 17:17:51.607928  3167 net.cpp:425] loss <- label
I0325 17:17:51.607933  3167 net.cpp:399] loss -> loss
I0325 17:17:51.607944  3167 layer_factory.hpp:77] Creating layer loss
…
I0325 17:17:51.608088  3167 net.cpp:261] This network produces output loss
I0325 17:17:51.608096  3167 net.cpp:274] Network initialization done.
I0325 17:17:51.608321  3167 solver.cpp:181] Creating test net (#0) specified by test_net file: prototxt/net2_test.prototxt
I0325 17:17:51.608440  3167 net.cpp:49] Initializing net from parameters: 
state {
  phase: TEST
}
layer {
  name: "data"
  type: "Data"
  top: "data"
  top: "label"
  transform_param {
    scale: 0.0039215689
  }
  data_param {
    source: "../mnist/mnist_test_lmdb"
    batch_size: 100
    backend: LMDB
  }
}
layer {
  name: "conv1"
  type: "Convolution"
  bottom: "data"
  top: "conv1"
  convolution_param {
    num_output: 50
    kernel_size: 5
    weight_filler {
      type: "xavier"
    }
  }
}
layer {
  name: "pool1"
  type: "Pooling"
  bottom: "conv1"
  top: "pool1"
  pooling_param {
    pool: MAX
    kernel_size: 2
    stride: 2
  }
}
layer {
  name: "relu1"
  type: "ReLU"
  bottom: "pool1"
  top: "pool1"
}
layer {
  name: "conv2"
  type: "Convolution"
  bottom: "pool1"
  top: "conv2"
  convolution_param {
    num_output: 50
    kernel_size: 5
    weight_filler {
      type: "xavier"
    }
  }
}
layer {
  name: "pool2"
  type: "Pooling"
  bottom: "conv2"
  top: "pool2"
  pooling_param {
    pool: MAX
    kernel_size: 2
    stride: 2
  }
}
layer {
  name: "relu2"
  type: "ReLU"
  bottom: "pool2"
  top: "pool2"
}
layer {
  name: "fc1"
  type: "InnerProduct"
  bottom: "pool2"
  top: "fc1"
  inner_product_param {
    num_output: 500
    weight_filler {
      type: "xavier"
    }
  }
}
layer {
  name: "score"
  type: "InnerProduct"
  bottom: "fc1"
  top: "score"
  inner_product_param {
    num_output: 10
    weight_filler {
      type: "xavier"
    }
  }
}
layer {
  name: "accuracy"
  type: "Accuracy"
  bottom: "score"
  bottom: "label"
  top: "accuracy"
  include {
    phase: TEST
  }
}
layer {
  name: "loss"
  type: "SoftmaxWithLoss"
  bottom: "score"
  bottom: "label"
  top: "loss"
}
I0325 17:17:51.608502  3167 layer_factory.hpp:77] Creating layer data
I0325 17:17:51.608594  3167 net.cpp:91] Creating Layer data
I0325 17:17:51.608602  3167 net.cpp:399] data -> data
I0325 17:17:51.608610  3167 net.cpp:399] data -> label
I0325 17:17:51.609314  3223 db_lmdb.cpp:38] Opened lmdb ../mnist/mnist_test_lmdb
I0325 17:17:51.609411  3167 data_layer.cpp:41] output data size: 100,1,28,28
I0325 17:17:51.610687  3167 net.cpp:141] Setting up data
I0325 17:17:51.610697  3167 net.cpp:148] Top shape: 100 1 28 28 (78400)
I0325 17:17:51.610702  3167 net.cpp:148] Top shape: 100 (100)
I0325 17:17:51.610707  3167 net.cpp:156] Memory required for data: 314000
I0325 17:17:51.610712  3167 layer_factory.hpp:77] Creating layer label_data_1_split
I0325 17:17:51.610718  3167 net.cpp:91] Creating Layer label_data_1_split
I0325 17:17:51.610723  3167 net.cpp:425] label_data_1_split <- label
I0325 17:17:51.610728  3167 net.cpp:399] label_data_1_split -> label_data_1_split_0
I0325 17:17:51.610736  3167 net.cpp:399] label_data_1_split -> label_data_1_split_1
I0325 17:17:51.610795  3167 net.cpp:141] Setting up label_data_1_split
I0325 17:17:51.610802  3167 net.cpp:148] Top shape: 100 (100)
I0325 17:17:51.610807  3167 net.cpp:148] Top shape: 100 (100)
I0325 17:17:51.610810  3167 net.cpp:156] Memory required for data: 314800
I0325 17:17:51.610815  3167 layer_factory.hpp:77] Creating layer conv1
I0325 17:17:51.610823  3167 net.cpp:91] Creating Layer conv1
I0325 17:17:51.610826  3167 net.cpp:425] conv1 <- data
I0325 17:17:51.610833  3167 net.cpp:399] conv1 -> conv1
I0325 17:17:51.611071  3167 net.cpp:141] Setting up conv1
I0325 17:17:51.611084  3167 net.cpp:148] Top shape: 100 50 24 24 (2880000)
I0325 17:17:51.611090  3167 net.cpp:156] Memory required for data: 11834800
I0325 17:17:51.611104  3167 layer_factory.hpp:77] Creating layer pool1
I0325 17:17:51.611112  3167 net.cpp:91] Creating Layer pool1
I0325 17:17:51.611116  3167 net.cpp:425] pool1 <- conv1
I0325 17:17:51.611121  3167 net.cpp:399] pool1 -> pool1
I0325 17:17:51.611161  3167 net.cpp:141] Setting up pool1
I0325 17:17:51.611168  3167 net.cpp:148] Top shape: 100 50 12 12 (720000)
I0325 17:17:51.611172  3167 net.cpp:156] Memory required for data: 14714800
I0325 17:17:51.611176  3167 layer_factory.hpp:77] Creating layer relu1
I0325 17:17:51.611182  3167 net.cpp:91] Creating Layer relu1
I0325 17:17:51.611186  3167 net.cpp:425] relu1 <- pool1
I0325 17:17:51.611192  3167 net.cpp:386] relu1 -> pool1 (in-place)
I0325 17:17:51.611198  3167 net.cpp:141] Setting up relu1
I0325 17:17:51.611203  3167 net.cpp:148] Top shape: 100 50 12 12 (720000)
I0325 17:17:51.611207  3167 net.cpp:156] Memory required for data: 17594800
I0325 17:17:51.611209  3167 layer_factory.hpp:77] Creating layer conv2
I0325 17:17:51.611217  3167 net.cpp:91] Creating Layer conv2
I0325 17:17:51.611220  3167 net.cpp:425] conv2 <- pool1
I0325 17:17:51.611227  3167 net.cpp:399] conv2 -> conv2
I0325 17:17:51.612536  3167 net.cpp:141] Setting up conv2
I0325 17:17:51.612547  3167 net.cpp:148] Top shape: 100 50 8 8 (320000)
I0325 17:17:51.612551  3167 net.cpp:156] Memory required for data: 18874800
I0325 17:17:51.612560  3167 layer_factory.hpp:77] Creating layer pool2
I0325 17:17:51.612567  3167 net.cpp:91] Creating Layer pool2
I0325 17:17:51.612571  3167 net.cpp:425] pool2 <- conv2
I0325 17:17:51.612576  3167 net.cpp:399] pool2 -> pool2
I0325 17:17:51.612617  3167 net.cpp:141] Setting up pool2
I0325 17:17:51.612624  3167 net.cpp:148] Top shape: 100 50 4 4 (80000)
I0325 17:17:51.612627  3167 net.cpp:156] Memory required for data: 19194800
I0325 17:17:51.612632  3167 layer_factory.hpp:77] Creating layer relu2
I0325 17:17:51.612637  3167 net.cpp:91] Creating Layer relu2
I0325 17:17:51.612639  3167 net.cpp:425] relu2 <- pool2
I0325 17:17:51.612644  3167 net.cpp:386] relu2 -> pool2 (in-place)
I0325 17:17:51.612650  3167 net.cpp:141] Setting up relu2
I0325 17:17:51.612655  3167 net.cpp:148] Top shape: 100 50 4 4 (80000)
I0325 17:17:51.612658  3167 net.cpp:156] Memory required for data: 19514800
I0325 17:17:51.612661  3167 layer_factory.hpp:77] Creating layer fc1
I0325 17:17:51.612668  3167 net.cpp:91] Creating Layer fc1
I0325 17:17:51.612673  3167 net.cpp:425] fc1 <- pool2
I0325 17:17:51.612678  3167 net.cpp:399] fc1 -> fc1
I0325 17:17:51.616405  3167 net.cpp:141] Setting up fc1
I0325 17:17:51.616417  3167 net.cpp:148] Top shape: 100 500 (50000)
I0325 17:17:51.616420  3167 net.cpp:156] Memory required for data: 19714800
I0325 17:17:51.616430  3167 layer_factory.hpp:77] Creating layer score
I0325 17:17:51.616438  3167 net.cpp:91] Creating Layer score
I0325 17:17:51.616441  3167 net.cpp:425] score <- fc1
I0325 17:17:51.616448  3167 net.cpp:399] score -> score
I0325 17:17:51.616580  3167 net.cpp:141] Setting up score
I0325 17:17:51.616588  3167 net.cpp:148] Top shape: 100 10 (1000)
I0325 17:17:51.616591  3167 net.cpp:156] Memory required for data: 19718800
I0325 17:17:51.616598  3167 layer_factory.hpp:77] Creating layer score_score_0_split
I0325 17:17:51.616605  3167 net.cpp:91] Creating Layer score_score_0_split
I0325 17:17:51.616607  3167 net.cpp:425] score_score_0_split <- score
I0325 17:17:51.616612  3167 net.cpp:399] score_score_0_split -> score_score_0_split_0
I0325 17:17:51.616619  3167 net.cpp:399] score_score_0_split -> score_score_0_split_1
I0325 17:17:51.616653  3167 net.cpp:141] Setting up score_score_0_split
I0325 17:17:51.616659  3167 net.cpp:148] Top shape: 100 10 (1000)
I0325 17:17:51.616664  3167 net.cpp:148] Top shape: 100 10 (1000)
I0325 17:17:51.616667  3167 net.cpp:156] Memory required for data: 19726800
I0325 17:17:51.616670  3167 layer_factory.hpp:77] Creating layer accuracy
I0325 17:17:51.616677  3167 net.cpp:91] Creating Layer accuracy
I0325 17:17:51.616680  3167 net.cpp:425] accuracy <- score_score_0_split_0
I0325 17:17:51.616684  3167 net.cpp:425] accuracy <- label_data_1_split_0
I0325 17:17:51.616690  3167 net.cpp:399] accuracy -> accuracy
…
