…
lr_policy: "inv"
gamma: 0.0001
power: 0.75
momentum: 0.9
weight_decay: 0.0005
solver_mode: GPU
device_id: 0
random_seed: 831486
type: "Nesterov"
I0324 15:53:30.193645 26181 solver.cpp:81] Creating training net from train_net file: prototxt/net_hdf5_train.prototxt
I0324 15:53:30.194041 26181 net.cpp:49] Initializing net from parameters: 
state {
  phase: TRAIN
}
layer {
  name: "data"
  type: "HDF5Data"
  top: "data"
  top: "label"
  hdf5_data_param {
    source: "/mnt/scratch/pierre/caffe_sandbox_tryouts/mnist/mnist_train_hdf5/h5list"
    batch_size: 64
  }
}
layer {
  name: "conv1"
  type: "Convolution"
  bottom: "data"
  top: "conv1"
  convolution_param {
    num_output: 50
    kernel_size: 5
    weight_filler {
      type: "xavier"
    }
  }
}
layer {
  name: "pool1"
  type: "Pooling"
  bottom: "conv1"
  top: "pool1"
  pooling_param {
    pool: MAX
    kernel_size: 2
    stride: 2
  }
}
layer {
  name: "relu1"
  type: "ReLU"
  bottom: "pool1"
  top: "pool1"
}
layer {
  name: "conv2"
  type: "Convolution"
  bottom: "pool1"
  top: "conv2"
  convolution_param {
    num_output: 50
    kernel_size: 5
    weight_filler {
      type: "xavier"
    }
  }
}
layer {
  name: "pool2"
  type: "Pooling"
  bottom: "conv2"
  top: "pool2"
  pooling_param {
    pool: MAX
    kernel_size: 2
    stride: 2
  }
}
layer {
  name: "relu2"
  type: "ReLU"
  bottom: "pool2"
  top: "pool2"
}
layer {
  name: "fc1"
  type: "InnerProduct"
  bottom: "pool2"
  top: "fc1"
  inner_product_param {
    num_output: 500
    weight_filler {
      type: "xavier"
    }
  }
}
layer {
  name: "score"
  type: "InnerProduct"
  bottom: "fc1"
  top: "score"
  inner_product_param {
    num_output: 10
    weight_filler {
      type: "xavier"
    }
  }
}
layer {
  name: "loss"
  type: "SigmoidCrossEntropyLoss"
  bottom: "score"
  bottom: "label"
  top: "loss"
}
I0324 15:53:30.194421 26181 layer_factory.hpp:77] Creating layer data
I0324 15:53:30.194444 26181 net.cpp:91] Creating Layer data
I0324 15:53:30.194460 26181 net.cpp:399] data -> data
I0324 15:53:30.194491 26181 net.cpp:399] data -> label
I0324 15:53:30.194514 26181 hdf5_data_layer.cpp:79] Loading list of HDF5 filenames from: /mnt/scratch/pierre/caffe_sandbox_tryouts/mnist/mnist_train_hdf5/h5list
I0324 15:53:30.194581 26181 hdf5_data_layer.cpp:93] Number of HDF5 files: 1
I0324 15:53:30.195955 26181 hdf5.cpp:32] Datatype class: H5T_FLOAT
I0324 15:53:30.354568 26181 net.cpp:141] Setting up data
I0324 15:53:30.354624 26181 net.cpp:148] Top shape: 64 1 28 28 (50176)
I0324 15:53:30.354640 26181 net.cpp:148] Top shape: 64 10 (640)
I0324 15:53:30.354650 26181 net.cpp:156] Memory required for data: 203264
I0324 15:53:30.354665 26181 layer_factory.hpp:77] Creating layer conv1
I0324 15:53:30.354698 26181 net.cpp:91] Creating Layer conv1
I0324 15:53:30.354712 26181 net.cpp:425] conv1 <- data
I0324 15:53:30.354729 26181 net.cpp:399] conv1 -> conv1
I0324 15:53:30.356108 26181 net.cpp:141] Setting up conv1
I0324 15:53:30.356133 26181 net.cpp:148] Top shape: 64 50 24 24 (1843200)
I0324 15:53:30.356143 26181 net.cpp:156] Memory required for data: 7576064
I0324 15:53:30.356168 26181 layer_factory.hpp:77] Creating layer pool1
I0324 15:53:30.356184 26181 net.cpp:91] Creating Layer pool1
I0324 15:53:30.356194 26181 net.cpp:425] pool1 <- conv1
I0324 15:53:30.356207 26181 net.cpp:399] pool1 -> pool1
I0324 15:53:30.356268 26181 net.cpp:141] Setting up pool1
I0324 15:53:30.356288 26181 net.cpp:148] Top shape: 64 50 12 12 (460800)
I0324 15:53:30.356297 26181 net.cpp:156] Memory required for data: 9419264
I0324 15:53:30.356308 26181 layer_factory.hpp:77] Creating layer relu1
I0324 15:53:30.356322 26181 net.cpp:91] Creating Layer relu1
I0324 15:53:30.356331 26181 net.cpp:425] relu1 <- pool1
I0324 15:53:30.356343 26181 net.cpp:386] relu1 -> pool1 (in-place)
I0324 15:53:30.356394 26181 net.cpp:141] Setting up relu1
I0324 15:53:30.356412 26181 net.cpp:148] Top shape: 64 50 12 12 (460800)
I0324 15:53:30.356421 26181 net.cpp:156] Memory required for data: 11262464
I0324 15:53:30.356431 26181 layer_factory.hpp:77] Creating layer conv2
I0324 15:53:30.356447 26181 net.cpp:91] Creating Layer conv2
I0324 15:53:30.356462 26181 net.cpp:425] conv2 <- pool1
I0324 15:53:30.356474 26181 net.cpp:399] conv2 -> conv2
I0324 15:53:30.357692 26181 net.cpp:141] Setting up conv2
I0324 15:53:30.357717 26181 net.cpp:148] Top shape: 64 50 8 8 (204800)
I0324 15:53:30.357727 26181 net.cpp:156] Memory required for data: 12081664
I0324 15:53:30.357743 26181 layer_factory.hpp:77] Creating layer pool2
I0324 15:53:30.357756 26181 net.cpp:91] Creating Layer pool2
I0324 15:53:30.357767 26181 net.cpp:425] pool2 <- conv2
I0324 15:53:30.357779 26181 net.cpp:399] pool2 -> pool2
I0324 15:53:30.357826 26181 net.cpp:141] Setting up pool2
I0324 15:53:30.357843 26181 net.cpp:148] Top shape: 64 50 4 4 (51200)
I0324 15:53:30.357853 26181 net.cpp:156] Memory required for data: 12286464
I0324 15:53:30.357863 26181 layer_factory.hpp:77] Creating layer relu2
I0324 15:53:30.357875 26181 net.cpp:91] Creating Layer relu2
I0324 15:53:30.357885 26181 net.cpp:425] relu2 <- pool2
I0324 15:53:30.357897 26181 net.cpp:386] relu2 -> pool2 (in-place)
I0324 15:53:30.357911 26181 net.cpp:141] Setting up relu2
I0324 15:53:30.357923 26181 net.cpp:148] Top shape: 64 50 4 4 (51200)
I0324 15:53:30.357933 26181 net.cpp:156] Memory required for data: 12491264
I0324 15:53:30.357941 26181 layer_factory.hpp:77] Creating layer fc1
I0324 15:53:30.357959 26181 net.cpp:91] Creating Layer fc1
I0324 15:53:30.357969 26181 net.cpp:425] fc1 <- pool2
I0324 15:53:30.357982 26181 net.cpp:399] fc1 -> fc1
I0324 15:53:30.361699 26181 net.cpp:141] Setting up fc1
I0324 15:53:30.361723 26181 net.cpp:148] Top shape: 64 500 (32000)
I0324 15:53:30.361734 26181 net.cpp:156] Memory required for data: 12619264
I0324 15:53:30.361752 26181 layer_factory.hpp:77] Creating layer score
I0324 15:53:30.361766 26181 net.cpp:91] Creating Layer score
I0324 15:53:30.361778 26181 net.cpp:425] score <- fc1
I0324 15:53:30.361790 26181 net.cpp:399] score -> score
I0324 15:53:30.362473 26181 net.cpp:141] Setting up score
I0324 15:53:30.362495 26181 net.cpp:148] Top shape: 64 10 (640)
I0324 15:53:30.362506 26181 net.cpp:156] Memory required for data: 12621824
I0324 15:53:30.362520 26181 layer_factory.hpp:77] Creating layer loss
I0324 15:53:30.362539 26181 net.cpp:91] Creating Layer loss
I0324 15:53:30.362550 26181 net.cpp:425] loss <- score
I0324 15:53:30.362562 26181 net.cpp:425] loss <- label
I0324 15:53:30.362576 26181 net.cpp:399] loss -> loss
I0324 15:53:30.362633 26181 net.cpp:141] Setting up loss
…
I0324 15:53:30.362809 26181 net.cpp:261] This network produces output loss
I0324 15:53:30.362825 26181 net.cpp:274] Network initialization done.
I0324 15:53:30.363095 26181 solver.cpp:181] Creating test net (#0) specified by test_net file: prototxt/net_hdf5_test.prototxt
I0324 15:53:30.363231 26181 net.cpp:49] Initializing net from parameters: 
state {
  phase: TEST
}
layer {
  name: "data"
  type: "HDF5Data"
  top: "data"
  top: "label"
  hdf5_data_param {
    source: "/mnt/scratch/pierre/caffe_sandbox_tryouts/mnist/mnist_test_hdf5/h5list"
    batch_size: 100
  }
}
layer {
  name: "conv1"
  type: "Convolution"
  bottom: "data"
  top: "conv1"
  convolution_param {
    num_output: 50
    kernel_size: 5
    weight_filler {
      type: "xavier"
    }
  }
}
layer {
  name: "pool1"
  type: "Pooling"
  bottom: "conv1"
  top: "pool1"
  pooling_param {
    pool: MAX
    kernel_size: 2
    stride: 2
  }
}
layer {
  name: "relu1"
  type: "ReLU"
  bottom: "pool1"
  top: "pool1"
}
layer {
  name: "conv2"
  type: "Convolution"
  bottom: "pool1"
  top: "conv2"
  convolution_param {
    num_output: 50
    kernel_size: 5
    weight_filler {
      type: "xavier"
    }
  }
}
layer {
  name: "pool2"
  type: "Pooling"
  bottom: "conv2"
  top: "pool2"
  pooling_param {
    pool: MAX
    kernel_size: 2
    stride: 2
  }
}
layer {
  name: "relu2"
  type: "ReLU"
  bottom: "pool2"
  top: "pool2"
}
layer {
  name: "fc1"
  type: "InnerProduct"
  bottom: "pool2"
  top: "fc1"
  inner_product_param {
    num_output: 500
    weight_filler {
      type: "xavier"
    }
  }
}
layer {
  name: "score"
  type: "InnerProduct"
  bottom: "fc1"
  top: "score"
  inner_product_param {
    num_output: 10
    weight_filler {
      type: "xavier"
    }
  }
}
layer {
  name: "loss"
  type: "SigmoidCrossEntropyLoss"
  bottom: "score"
  bottom: "label"
  top: "loss"
}
I0324 15:53:30.363579 26181 layer_factory.hpp:77] Creating layer data
I0324 15:53:30.363598 26181 net.cpp:91] Creating Layer data
I0324 15:53:30.363610 26181 net.cpp:399] data -> data
I0324 15:53:30.363625 26181 net.cpp:399] data -> label
I0324 15:53:30.363639 26181 hdf5_data_layer.cpp:79] Loading list of HDF5 filenames from: /mnt/scratch/pierre/caffe_sandbox_tryouts/mnist/mnist_test_hdf5/h5list
I0324 15:53:30.363674 26181 hdf5_data_layer.cpp:93] Number of HDF5 files: 1
I0324 15:53:30.389166 26181 net.cpp:141] Setting up data
I0324 15:53:30.389214 26181 net.cpp:148] Top shape: 100 1 28 28 (78400)
I0324 15:53:30.389227 26181 net.cpp:148] Top shape: 100 10 (1000)
I0324 15:53:30.389236 26181 net.cpp:156] Memory required for data: 317600
I0324 15:53:30.389251 26181 layer_factory.hpp:77] Creating layer conv1
I0324 15:53:30.389277 26181 net.cpp:91] Creating Layer conv1
I0324 15:53:30.389289 26181 net.cpp:425] conv1 <- data
I0324 15:53:30.389304 26181 net.cpp:399] conv1 -> conv1
I0324 15:53:30.389595 26181 net.cpp:141] Setting up conv1
I0324 15:53:30.389616 26181 net.cpp:148] Top shape: 100 50 24 24 (2880000)
I0324 15:53:30.389626 26181 net.cpp:156] Memory required for data: 11837600
I0324 15:53:30.389647 26181 layer_factory.hpp:77] Creating layer pool1
I0324 15:53:30.389662 26181 net.cpp:91] Creating Layer pool1
I0324 15:53:30.389672 26181 net.cpp:425] pool1 <- conv1
I0324 15:53:30.389684 26181 net.cpp:399] pool1 -> pool1
I0324 15:53:30.389734 26181 net.cpp:141] Setting up pool1
I0324 15:53:30.389752 26181 net.cpp:148] Top shape: 100 50 12 12 (720000)
I0324 15:53:30.389762 26181 net.cpp:156] Memory required for data: 14717600
I0324 15:53:30.389772 26181 layer_factory.hpp:77] Creating layer relu1
I0324 15:53:30.389785 26181 net.cpp:91] Creating Layer relu1
I0324 15:53:30.389794 26181 net.cpp:425] relu1 <- pool1
I0324 15:53:30.389806 26181 net.cpp:386] relu1 -> pool1 (in-place)
I0324 15:53:30.389819 26181 net.cpp:141] Setting up relu1
I0324 15:53:30.389832 26181 net.cpp:148] Top shape: 100 50 12 12 (720000)
I0324 15:53:30.389840 26181 net.cpp:156] Memory required for data: 17597600
I0324 15:53:30.389850 26181 layer_factory.hpp:77] Creating layer conv2
I0324 15:53:30.389865 26181 net.cpp:91] Creating Layer conv2
I0324 15:53:30.389881 26181 net.cpp:425] conv2 <- pool1
I0324 15:53:30.389894 26181 net.cpp:399] conv2 -> conv2
I0324 15:53:30.390614 26181 net.cpp:141] Setting up conv2
I0324 15:53:30.390636 26181 net.cpp:148] Top shape: 100 50 8 8 (320000)
I0324 15:53:30.390647 26181 net.cpp:156] Memory required for data: 18877600
I0324 15:53:30.390662 26181 layer_factory.hpp:77] Creating layer pool2
I0324 15:53:30.390707 26181 net.cpp:91] Creating Layer pool2
I0324 15:53:30.390717 26181 net.cpp:425] pool2 <- conv2
I0324 15:53:30.390730 26181 net.cpp:399] pool2 -> pool2
I0324 15:53:30.390779 26181 net.cpp:141] Setting up pool2
I0324 15:53:30.390797 26181 net.cpp:148] Top shape: 100 50 4 4 (80000)
I0324 15:53:30.390807 26181 net.cpp:156] Memory required for data: 19197600
I0324 15:53:30.390817 26181 layer_factory.hpp:77] Creating layer relu2
I0324 15:53:30.390830 26181 net.cpp:91] Creating Layer relu2
I0324 15:53:30.390839 26181 net.cpp:425] relu2 <- pool2
I0324 15:53:30.390851 26181 net.cpp:386] relu2 -> pool2 (in-place)
I0324 15:53:30.390864 26181 net.cpp:141] Setting up relu2
I0324 15:53:30.390875 26181 net.cpp:148] Top shape: 100 50 4 4 (80000)
I0324 15:53:30.390885 26181 net.cpp:156] Memory required for data: 19517600
I0324 15:53:30.390895 26181 layer_factory.hpp:77] Creating layer fc1
I0324 15:53:30.390910 26181 net.cpp:91] Creating Layer fc1
I0324 15:53:30.390924 26181 net.cpp:425] fc1 <- pool2
I0324 15:53:30.390938 26181 net.cpp:399] fc1 -> fc1
I0324 15:53:30.394662 26181 net.cpp:141] Setting up fc1
I0324 15:53:30.394686 26181 net.cpp:148] Top shape: 100 500 (50000)
I0324 15:53:30.394696 26181 net.cpp:156] Memory required for data: 19717600
I0324 15:53:30.394713 26181 layer_factory.hpp:77] Creating layer score
I0324 15:53:30.394728 26181 net.cpp:91] Creating Layer score
I0324 15:53:30.394739 26181 net.cpp:425] score <- fc1
I0324 15:53:30.394752 26181 net.cpp:399] score -> score
I0324 15:53:30.394906 26181 net.cpp:141] Setting up score
I0324 15:53:30.394925 26181 net.cpp:148] Top shape: 100 10 (1000)
I0324 15:53:30.394934 26181 net.cpp:156] Memory required for data: 19721600
I0324 15:53:30.394948 26181 layer_factory.hpp:77] Creating layer loss
I0324 15:53:30.394963 26181 net.cpp:91] Creating Layer loss
I0324 15:53:30.394973 26181 net.cpp:425] loss <- score
I0324 15:53:30.394984 26181 net.cpp:425] loss <- label
I0324 15:53:30.394995 26181 net.cpp:399] loss -> loss
I0324 15:53:30.395045 26181 net.cpp:141] Setting up loss
…
