…
I0315 15:35:41.173250 17368 solver.cpp:81] Creating training net from train_net file: prototxt/net0_train.prototxt
I0315 15:35:41.173537 17368 net.cpp:313] The NetState phase (0) differed from the phase (1) specified by a rule in layer accuracy
I0315 15:35:41.173635 17368 net.cpp:49] Initializing net from parameters: 
state {
  phase: TRAIN
}
layer {
  name: "data"
  type: "Data"
  top: "data"
  top: "label"
  transform_param {
    scale: 0.0039215689
  }
  data_param {
    source: "../mnist/mnist_train_lmdb"
    batch_size: 64
    backend: LMDB
  }
}
layer {
  name: "fc1"
  type: "InnerProduct"
  bottom: "data"
  top: "fc1"
  inner_product_param {
    num_output: 50
    weight_filler {
      type: "xavier"
    }
  }
}
layer {
  name: "sig1"
  type: "Sigmoid"
  bottom: "fc1"
  top: "sig1"
}
layer {
  name: "fc2"
  type: "InnerProduct"
  bottom: "sig1"
  top: "fc2"
  inner_product_param {
    num_output: 50
    weight_filler {
      type: "xavier"
    }
  }
}
layer {
  name: "sig2"
  type: "Sigmoid"
  bottom: "fc2"
  top: "sig2"
}
layer {
  name: "score"
  type: "InnerProduct"
  bottom: "sig2"
  top: "score"
  inner_product_param {
    num_output: 10
    weight_filler {
      type: "xavier"
    }
  }
}
layer {
  name: "loss"
  type: "SoftmaxWithLoss"
  bottom: "score"
  bottom: "label"
  top: "loss"
}
I0315 15:35:41.173923 17368 layer_factory.hpp:77] Creating layer data
I0315 15:35:41.174096 17368 net.cpp:91] Creating Layer data
I0315 15:35:41.174119 17368 net.cpp:399] data -> data
I0315 15:35:41.174159 17368 net.cpp:399] data -> label
I0315 15:35:41.175099 17395 db_lmdb.cpp:38] Opened lmdb ../mnist/mnist_train_lmdb
I0315 15:35:41.192548 17368 data_layer.cpp:41] output data size: 64,1,28,28
I0315 15:35:41.193688 17368 net.cpp:141] Setting up data
I0315 15:35:41.193723 17368 net.cpp:148] Top shape: 64 1 28 28 (50176)
I0315 15:35:41.193737 17368 net.cpp:148] Top shape: 64 (64)
I0315 15:35:41.193747 17368 net.cpp:156] Memory required for data: 200960
I0315 15:35:41.193765 17368 layer_factory.hpp:77] Creating layer fc1
I0315 15:35:41.193790 17368 net.cpp:91] Creating Layer fc1
I0315 15:35:41.193810 17368 net.cpp:425] fc1 <- data
I0315 15:35:41.193833 17368 net.cpp:399] fc1 -> fc1
I0315 15:35:41.194355 17368 net.cpp:141] Setting up fc1
I0315 15:35:41.194378 17368 net.cpp:148] Top shape: 64 50 (3200)
I0315 15:35:41.194388 17368 net.cpp:156] Memory required for data: 213760
I0315 15:35:41.194413 17368 layer_factory.hpp:77] Creating layer sig1
I0315 15:35:41.194432 17368 net.cpp:91] Creating Layer sig1
I0315 15:35:41.194442 17368 net.cpp:425] sig1 <- fc1
I0315 15:35:41.194456 17368 net.cpp:399] sig1 -> sig1
I0315 15:35:41.194492 17368 net.cpp:141] Setting up sig1
I0315 15:35:41.194509 17368 net.cpp:148] Top shape: 64 50 (3200)
I0315 15:35:41.194520 17368 net.cpp:156] Memory required for data: 226560
I0315 15:35:41.194530 17368 layer_factory.hpp:77] Creating layer fc2
I0315 15:35:41.194545 17368 net.cpp:91] Creating Layer fc2
I0315 15:35:41.194556 17368 net.cpp:425] fc2 <- sig1
I0315 15:35:41.194571 17368 net.cpp:399] fc2 -> fc2
I0315 15:35:41.195538 17368 net.cpp:141] Setting up fc2
I0315 15:35:41.195564 17368 net.cpp:148] Top shape: 64 50 (3200)
I0315 15:35:41.195574 17368 net.cpp:156] Memory required for data: 239360
I0315 15:35:41.195590 17368 layer_factory.hpp:77] Creating layer sig2
I0315 15:35:41.195608 17368 net.cpp:91] Creating Layer sig2
I0315 15:35:41.195619 17368 net.cpp:425] sig2 <- fc2
I0315 15:35:41.195631 17368 net.cpp:399] sig2 -> sig2
I0315 15:35:41.195708 17368 net.cpp:141] Setting up sig2
I0315 15:35:41.195740 17368 net.cpp:148] Top shape: 64 50 (3200)
I0315 15:35:41.195783 17368 net.cpp:156] Memory required for data: 252160
I0315 15:35:41.195796 17368 layer_factory.hpp:77] Creating layer score
I0315 15:35:41.195809 17368 net.cpp:91] Creating Layer score
I0315 15:35:41.195819 17368 net.cpp:425] score <- sig2
I0315 15:35:41.195834 17368 net.cpp:399] score -> score
I0315 15:35:41.196558 17368 net.cpp:141] Setting up score
I0315 15:35:41.196579 17368 net.cpp:148] Top shape: 64 10 (640)
I0315 15:35:41.196590 17368 net.cpp:156] Memory required for data: 254720
I0315 15:35:41.196606 17368 layer_factory.hpp:77] Creating layer loss
I0315 15:35:41.196625 17368 net.cpp:91] Creating Layer loss
I0315 15:35:41.196636 17368 net.cpp:425] loss <- score
I0315 15:35:41.196647 17368 net.cpp:425] loss <- label
I0315 15:35:41.196662 17368 net.cpp:399] loss -> loss
I0315 15:35:41.196686 17368 layer_factory.hpp:77] Creating layer loss
…
I0315 15:35:41.196948 17368 net.cpp:261] This network produces output loss
I0315 15:35:41.196964 17368 net.cpp:274] Network initialization done.
I0315 15:35:41.197242 17368 solver.cpp:181] Creating test net (#0) specified by test_net file: prototxt/net0_test.prototxt
I0315 15:35:41.197373 17368 net.cpp:49] Initializing net from parameters: 
state {
  phase: TEST
}
layer {
  name: "data"
  type: "Data"
  top: "data"
  top: "label"
  transform_param {
    scale: 0.0039215689
  }
  data_param {
    source: "../mnist/mnist_test_lmdb"
    batch_size: 100
    backend: LMDB
  }
}
layer {
  name: "fc1"
  type: "InnerProduct"
  bottom: "data"
  top: "fc1"
  inner_product_param {
    num_output: 50
    weight_filler {
      type: "xavier"
    }
  }
}
layer {
  name: "sig1"
  type: "Sigmoid"
  bottom: "fc1"
  top: "sig1"
}
layer {
  name: "fc2"
  type: "InnerProduct"
  bottom: "sig1"
  top: "fc2"
  inner_product_param {
    num_output: 50
    weight_filler {
      type: "xavier"
    }
  }
}
layer {
  name: "sig2"
  type: "Sigmoid"
  bottom: "fc2"
  top: "sig2"
}
layer {
  name: "score"
  type: "InnerProduct"
  bottom: "sig2"
  top: "score"
  inner_product_param {
    num_output: 10
    weight_filler {
      type: "xavier"
    }
  }
}
layer {
  name: "accuracy"
  type: "Accuracy"
  bottom: "score"
  bottom: "label"
  top: "accuracy"
  include {
    phase: TEST
  }
}
layer {
  name: "loss"
  type: "SoftmaxWithLoss"
  bottom: "score"
  bottom: "label"
  top: "loss"
}
I0315 15:35:41.197674 17368 layer_factory.hpp:77] Creating layer data
I0315 15:35:41.197799 17368 net.cpp:91] Creating Layer data
I0315 15:35:41.197818 17368 net.cpp:399] data -> data
I0315 15:35:41.197834 17368 net.cpp:399] data -> label
I0315 15:35:41.198572 17397 db_lmdb.cpp:38] Opened lmdb ../mnist/mnist_test_lmdb
I0315 15:35:41.198835 17368 data_layer.cpp:41] output data size: 100,1,28,28
I0315 15:35:41.200165 17368 net.cpp:141] Setting up data
I0315 15:35:41.200188 17368 net.cpp:148] Top shape: 100 1 28 28 (78400)
I0315 15:35:41.200201 17368 net.cpp:148] Top shape: 100 (100)
I0315 15:35:41.200212 17368 net.cpp:156] Memory required for data: 314000
I0315 15:35:41.200222 17368 layer_factory.hpp:77] Creating layer label_data_1_split
I0315 15:35:41.200240 17368 net.cpp:91] Creating Layer label_data_1_split
I0315 15:35:41.200251 17368 net.cpp:425] label_data_1_split <- label
I0315 15:35:41.200263 17368 net.cpp:399] label_data_1_split -> label_data_1_split_0
I0315 15:35:41.200295 17368 net.cpp:399] label_data_1_split -> label_data_1_split_1
I0315 15:35:41.200382 17368 net.cpp:141] Setting up label_data_1_split
I0315 15:35:41.200404 17368 net.cpp:148] Top shape: 100 (100)
I0315 15:35:41.200417 17368 net.cpp:148] Top shape: 100 (100)
I0315 15:35:41.200428 17368 net.cpp:156] Memory required for data: 314800
I0315 15:35:41.200438 17368 layer_factory.hpp:77] Creating layer fc1
I0315 15:35:41.200453 17368 net.cpp:91] Creating Layer fc1
I0315 15:35:41.200464 17368 net.cpp:425] fc1 <- data
I0315 15:35:41.200476 17368 net.cpp:399] fc1 -> fc1
I0315 15:35:41.200922 17368 net.cpp:141] Setting up fc1
I0315 15:35:41.200943 17368 net.cpp:148] Top shape: 100 50 (5000)
I0315 15:35:41.200953 17368 net.cpp:156] Memory required for data: 334800
I0315 15:35:41.200973 17368 layer_factory.hpp:77] Creating layer sig1
I0315 15:35:41.200989 17368 net.cpp:91] Creating Layer sig1
I0315 15:35:41.200999 17368 net.cpp:425] sig1 <- fc1
I0315 15:35:41.201014 17368 net.cpp:399] sig1 -> sig1
I0315 15:35:41.201048 17368 net.cpp:141] Setting up sig1
I0315 15:35:41.201069 17368 net.cpp:148] Top shape: 100 50 (5000)
I0315 15:35:41.201079 17368 net.cpp:156] Memory required for data: 354800
I0315 15:35:41.201088 17368 layer_factory.hpp:77] Creating layer fc2
I0315 15:35:41.201104 17368 net.cpp:91] Creating Layer fc2
I0315 15:35:41.201117 17368 net.cpp:425] fc2 <- sig1
I0315 15:35:41.201133 17368 net.cpp:399] fc2 -> fc2
I0315 15:35:41.201277 17368 net.cpp:141] Setting up fc2
I0315 15:35:41.201297 17368 net.cpp:148] Top shape: 100 50 (5000)
I0315 15:35:41.201308 17368 net.cpp:156] Memory required for data: 374800
I0315 15:35:41.201329 17368 layer_factory.hpp:77] Creating layer sig2
I0315 15:35:41.201344 17368 net.cpp:91] Creating Layer sig2
I0315 15:35:41.201354 17368 net.cpp:425] sig2 <- fc2
I0315 15:35:41.201366 17368 net.cpp:399] sig2 -> sig2
I0315 15:35:41.201454 17368 net.cpp:141] Setting up sig2
I0315 15:35:41.201486 17368 net.cpp:148] Top shape: 100 50 (5000)
I0315 15:35:41.201503 17368 net.cpp:156] Memory required for data: 394800
I0315 15:35:41.201519 17368 layer_factory.hpp:77] Creating layer score
I0315 15:35:41.201544 17368 net.cpp:91] Creating Layer score
I0315 15:35:41.201562 17368 net.cpp:425] score <- sig2
I0315 15:35:41.201577 17368 net.cpp:399] score -> score
I0315 15:35:41.201714 17368 net.cpp:141] Setting up score
I0315 15:35:41.201733 17368 net.cpp:148] Top shape: 100 10 (1000)
I0315 15:35:41.201743 17368 net.cpp:156] Memory required for data: 398800
I0315 15:35:41.201761 17368 layer_factory.hpp:77] Creating layer score_score_0_split
I0315 15:35:41.201778 17368 net.cpp:91] Creating Layer score_score_0_split
I0315 15:35:41.201789 17368 net.cpp:425] score_score_0_split <- score
I0315 15:35:41.201805 17368 net.cpp:399] score_score_0_split -> score_score_0_split_0
I0315 15:35:41.201822 17368 net.cpp:399] score_score_0_split -> score_score_0_split_1
I0315 15:35:41.201886 17368 net.cpp:141] Setting up score_score_0_split
I0315 15:35:41.201906 17368 net.cpp:148] Top shape: 100 10 (1000)
I0315 15:35:41.201917 17368 net.cpp:148] Top shape: 100 10 (1000)
I0315 15:35:41.201927 17368 net.cpp:156] Memory required for data: 406800
I0315 15:35:41.201937 17368 layer_factory.hpp:77] Creating layer accuracy
I0315 15:35:41.201964 17368 net.cpp:91] Creating Layer accuracy
I0315 15:35:41.202031 17368 net.cpp:425] accuracy <- score_score_0_split_0
I0315 15:35:41.202044 17368 net.cpp:425] accuracy <- label_data_1_split_0
I0315 15:35:41.202057 17368 net.cpp:399] accuracy -> accuracy
…
