…
max_iter: 10000
lr_policy: "inv"
gamma: 0.0001
power: 0.75
momentum: 0.9
weight_decay: 0.0005
solver_mode: GPU
random_seed: 831486
type: "Nesterov"
I0401 15:48:58.031030 22824 solver.cpp:81] Creating training net from train_net file: prototxt/net_hdf5_train.prototxt
I0401 15:48:58.031370 22824 net.cpp:49] Initializing net from parameters: 
state {
  phase: TRAIN
}
layer {
  name: "data"
  type: "HDF5Data"
  top: "data"
  top: "label"
  hdf5_data_param {
    source: "/mnt/scratch/pierre/caffe_sandbox_tryouts/mnist/mnist_train_hdf5/h5list"
    batch_size: 64
  }
}
layer {
  name: "conv1"
  type: "Convolution"
  bottom: "data"
  top: "conv1"
  convolution_param {
    num_output: 50
    kernel_size: 5
    weight_filler {
      type: "xavier"
    }
  }
}
layer {
  name: "pool1"
  type: "Pooling"
  bottom: "conv1"
  top: "pool1"
  pooling_param {
    pool: MAX
    kernel_size: 2
    stride: 2
  }
}
layer {
  name: "relu1"
  type: "ReLU"
  bottom: "pool1"
  top: "pool1"
}
layer {
  name: "conv2"
  type: "Convolution"
  bottom: "pool1"
  top: "conv2"
  convolution_param {
    num_output: 50
    kernel_size: 5
    weight_filler {
      type: "xavier"
    }
  }
}
layer {
  name: "pool2"
  type: "Pooling"
  bottom: "conv2"
  top: "pool2"
  pooling_param {
    pool: MAX
    kernel_size: 2
    stride: 2
  }
}
layer {
  name: "relu2"
  type: "ReLU"
  bottom: "pool2"
  top: "pool2"
}
layer {
  name: "fc1"
  type: "InnerProduct"
  bottom: "pool2"
  top: "fc1"
  inner_product_param {
    num_output: 500
    weight_filler {
      type: "xavier"
    }
  }
}
layer {
  name: "score"
  type: "InnerProduct"
  bottom: "fc1"
  top: "score"
  inner_product_param {
    num_output: 10
    weight_filler {
      type: "xavier"
    }
  }
}
layer {
  name: "loss"
  type: "SigmoidCrossEntropyLoss"
  bottom: "score"
  bottom: "label"
  top: "loss"
}
I0401 15:48:58.031419 22824 layer_factory.hpp:77] Creating layer data
I0401 15:48:58.031432 22824 net.cpp:91] Creating Layer data
I0401 15:48:58.031440 22824 net.cpp:399] data -> data
I0401 15:48:58.031457 22824 net.cpp:399] data -> label
I0401 15:48:58.031469 22824 hdf5_data_layer.cpp:79] Loading list of HDF5 filenames from: /mnt/scratch/pierre/caffe_sandbox_tryouts/mnist/mnist_train_hdf5/h5list
I0401 15:48:58.031500 22824 hdf5_data_layer.cpp:93] Number of HDF5 files: 1
I0401 15:48:58.032140 22824 hdf5.cpp:32] Datatype class: H5T_FLOAT
I0401 15:48:58.197391 22824 net.cpp:141] Setting up data
I0401 15:48:58.197429 22824 net.cpp:148] Top shape: 64 1 28 28 (50176)
I0401 15:48:58.197435 22824 net.cpp:148] Top shape: 64 10 (640)
I0401 15:48:58.197439 22824 net.cpp:156] Memory required for data: 203264
I0401 15:48:58.197448 22824 layer_factory.hpp:77] Creating layer conv1
I0401 15:48:58.197470 22824 net.cpp:91] Creating Layer conv1
I0401 15:48:58.197475 22824 net.cpp:425] conv1 <- data
I0401 15:48:58.197484 22824 net.cpp:399] conv1 -> conv1
I0401 15:48:58.198849 22824 net.cpp:141] Setting up conv1
I0401 15:48:58.198863 22824 net.cpp:148] Top shape: 64 50 24 24 (1843200)
I0401 15:48:58.198866 22824 net.cpp:156] Memory required for data: 7576064
I0401 15:48:58.198885 22824 layer_factory.hpp:77] Creating layer pool1
I0401 15:48:58.198895 22824 net.cpp:91] Creating Layer pool1
I0401 15:48:58.198899 22824 net.cpp:425] pool1 <- conv1
I0401 15:48:58.198905 22824 net.cpp:399] pool1 -> pool1
I0401 15:48:58.198951 22824 net.cpp:141] Setting up pool1
I0401 15:48:58.198958 22824 net.cpp:148] Top shape: 64 50 12 12 (460800)
I0401 15:48:58.198962 22824 net.cpp:156] Memory required for data: 9419264
I0401 15:48:58.198966 22824 layer_factory.hpp:77] Creating layer relu1
I0401 15:48:58.198972 22824 net.cpp:91] Creating Layer relu1
I0401 15:48:58.198976 22824 net.cpp:425] relu1 <- pool1
I0401 15:48:58.198982 22824 net.cpp:386] relu1 -> pool1 (in-place)
I0401 15:48:58.198992 22824 net.cpp:141] Setting up relu1
I0401 15:48:58.198997 22824 net.cpp:148] Top shape: 64 50 12 12 (460800)
I0401 15:48:58.199000 22824 net.cpp:156] Memory required for data: 11262464
I0401 15:48:58.199003 22824 layer_factory.hpp:77] Creating layer conv2
I0401 15:48:58.199012 22824 net.cpp:91] Creating Layer conv2
I0401 15:48:58.199017 22824 net.cpp:425] conv2 <- pool1
I0401 15:48:58.199023 22824 net.cpp:399] conv2 -> conv2
I0401 15:48:58.200579 22824 net.cpp:141] Setting up conv2
I0401 15:48:58.200598 22824 net.cpp:148] Top shape: 64 50 8 8 (204800)
I0401 15:48:58.200606 22824 net.cpp:156] Memory required for data: 12081664
I0401 15:48:58.200623 22824 layer_factory.hpp:77] Creating layer pool2
I0401 15:48:58.200636 22824 net.cpp:91] Creating Layer pool2
I0401 15:48:58.200644 22824 net.cpp:425] pool2 <- conv2
I0401 15:48:58.200655 22824 net.cpp:399] pool2 -> pool2
I0401 15:48:58.200718 22824 net.cpp:141] Setting up pool2
I0401 15:48:58.200733 22824 net.cpp:148] Top shape: 64 50 4 4 (51200)
I0401 15:48:58.200742 22824 net.cpp:156] Memory required for data: 12286464
I0401 15:48:58.200749 22824 layer_factory.hpp:77] Creating layer relu2
I0401 15:48:58.200759 22824 net.cpp:91] Creating Layer relu2
I0401 15:48:58.200767 22824 net.cpp:425] relu2 <- pool2
I0401 15:48:58.200778 22824 net.cpp:386] relu2 -> pool2 (in-place)
I0401 15:48:58.200790 22824 net.cpp:141] Setting up relu2
I0401 15:48:58.200801 22824 net.cpp:148] Top shape: 64 50 4 4 (51200)
I0401 15:48:58.200809 22824 net.cpp:156] Memory required for data: 12491264
I0401 15:48:58.200815 22824 layer_factory.hpp:77] Creating layer fc1
I0401 15:48:58.200831 22824 net.cpp:91] Creating Layer fc1
I0401 15:48:58.200840 22824 net.cpp:425] fc1 <- pool2
I0401 15:48:58.200851 22824 net.cpp:399] fc1 -> fc1
I0401 15:48:58.206313 22824 net.cpp:141] Setting up fc1
I0401 15:48:58.206332 22824 net.cpp:148] Top shape: 64 500 (32000)
I0401 15:48:58.206341 22824 net.cpp:156] Memory required for data: 12619264
I0401 15:48:58.206362 22824 layer_factory.hpp:77] Creating layer score
I0401 15:48:58.206377 22824 net.cpp:91] Creating Layer score
I0401 15:48:58.206387 22824 net.cpp:425] score <- fc1
I0401 15:48:58.206399 22824 net.cpp:399] score -> score
I0401 15:48:58.207425 22824 net.cpp:141] Setting up score
I0401 15:48:58.207442 22824 net.cpp:148] Top shape: 64 10 (640)
I0401 15:48:58.207450 22824 net.cpp:156] Memory required for data: 12621824
I0401 15:48:58.207464 22824 layer_factory.hpp:77] Creating layer loss
I0401 15:48:58.207484 22824 net.cpp:91] Creating Layer loss
I0401 15:48:58.207494 22824 net.cpp:425] loss <- score
I0401 15:48:58.207502 22824 net.cpp:425] loss <- label
I0401 15:48:58.207514 22824 net.cpp:399] loss -> loss
I0401 15:48:58.207592 22824 net.cpp:141] Setting up loss
…
I0401 15:48:58.207723 22824 net.cpp:261] This network produces output loss
I0401 15:48:58.207738 22824 net.cpp:274] Network initialization done.
I0401 15:48:58.208108 22824 solver.cpp:181] Creating test net (#0) specified by test_net file: prototxt/net_hdf5_test.prototxt
I0401 15:48:58.208302 22824 net.cpp:49] Initializing net from parameters: 
state {
  phase: TEST
}
layer {
  name: "data"
  type: "HDF5Data"
  top: "data"
  top: "label"
  hdf5_data_param {
    source: "/mnt/scratch/pierre/caffe_sandbox_tryouts/mnist/mnist_test_hdf5/h5list"
    batch_size: 100
  }
}
layer {
  name: "conv1"
  type: "Convolution"
  bottom: "data"
  top: "conv1"
  convolution_param {
    num_output: 50
    kernel_size: 5
    weight_filler {
      type: "xavier"
    }
  }
}
layer {
  name: "pool1"
  type: "Pooling"
  bottom: "conv1"
  top: "pool1"
  pooling_param {
    pool: MAX
    kernel_size: 2
    stride: 2
  }
}
layer {
  name: "relu1"
  type: "ReLU"
  bottom: "pool1"
  top: "pool1"
}
layer {
  name: "conv2"
  type: "Convolution"
  bottom: "pool1"
  top: "conv2"
  convolution_param {
    num_output: 50
    kernel_size: 5
    weight_filler {
      type: "xavier"
    }
  }
}
layer {
  name: "pool2"
  type: "Pooling"
  bottom: "conv2"
  top: "pool2"
  pooling_param {
    pool: MAX
    kernel_size: 2
    stride: 2
  }
}
layer {
  name: "relu2"
  type: "ReLU"
  bottom: "pool2"
  top: "pool2"
}
layer {
  name: "fc1"
  type: "InnerProduct"
  bottom: "pool2"
  top: "fc1"
  inner_product_param {
    num_output: 500
    weight_filler {
      type: "xavier"
    }
  }
}
layer {
  name: "score"
  type: "InnerProduct"
  bottom: "fc1"
  top: "score"
  inner_product_param {
    num_output: 10
    weight_filler {
      type: "xavier"
    }
  }
}
layer {
  name: "loss"
  type: "SigmoidCrossEntropyLoss"
  bottom: "score"
  bottom: "label"
  top: "loss"
}
I0401 15:48:58.208370 22824 layer_factory.hpp:77] Creating layer data
I0401 15:48:58.208386 22824 net.cpp:91] Creating Layer data
I0401 15:48:58.208395 22824 net.cpp:399] data -> data
I0401 15:48:58.208410 22824 net.cpp:399] data -> label
I0401 15:48:58.208423 22824 hdf5_data_layer.cpp:79] Loading list of HDF5 filenames from: /mnt/scratch/pierre/caffe_sandbox_tryouts/mnist/mnist_test_hdf5/h5list
I0401 15:48:58.208456 22824 hdf5_data_layer.cpp:93] Number of HDF5 files: 1
I0401 15:48:58.241928 22824 net.cpp:141] Setting up data
I0401 15:48:58.241960 22824 net.cpp:148] Top shape: 100 1 28 28 (78400)
I0401 15:48:58.241966 22824 net.cpp:148] Top shape: 100 10 (1000)
I0401 15:48:58.241971 22824 net.cpp:156] Memory required for data: 317600
I0401 15:48:58.241978 22824 layer_factory.hpp:77] Creating layer conv1
I0401 15:48:58.241998 22824 net.cpp:91] Creating Layer conv1
I0401 15:48:58.242002 22824 net.cpp:425] conv1 <- data
I0401 15:48:58.242012 22824 net.cpp:399] conv1 -> conv1
I0401 15:48:58.242295 22824 net.cpp:141] Setting up conv1
I0401 15:48:58.242305 22824 net.cpp:148] Top shape: 100 50 24 24 (2880000)
I0401 15:48:58.242310 22824 net.cpp:156] Memory required for data: 11837600
I0401 15:48:58.242322 22824 layer_factory.hpp:77] Creating layer pool1
I0401 15:48:58.242331 22824 net.cpp:91] Creating Layer pool1
I0401 15:48:58.242336 22824 net.cpp:425] pool1 <- conv1
I0401 15:48:58.242341 22824 net.cpp:399] pool1 -> pool1
I0401 15:48:58.242384 22824 net.cpp:141] Setting up pool1
I0401 15:48:58.242393 22824 net.cpp:148] Top shape: 100 50 12 12 (720000)
I0401 15:48:58.242395 22824 net.cpp:156] Memory required for data: 14717600
I0401 15:48:58.242399 22824 layer_factory.hpp:77] Creating layer relu1
I0401 15:48:58.242405 22824 net.cpp:91] Creating Layer relu1
I0401 15:48:58.242409 22824 net.cpp:425] relu1 <- pool1
I0401 15:48:58.242415 22824 net.cpp:386] relu1 -> pool1 (in-place)
I0401 15:48:58.242422 22824 net.cpp:141] Setting up relu1
I0401 15:48:58.242427 22824 net.cpp:148] Top shape: 100 50 12 12 (720000)
I0401 15:48:58.242430 22824 net.cpp:156] Memory required for data: 17597600
I0401 15:48:58.242434 22824 layer_factory.hpp:77] Creating layer conv2
I0401 15:48:58.242444 22824 net.cpp:91] Creating Layer conv2
I0401 15:48:58.242447 22824 net.cpp:425] conv2 <- pool1
I0401 15:48:58.242452 22824 net.cpp:399] conv2 -> conv2
I0401 15:48:58.243186 22824 net.cpp:141] Setting up conv2
I0401 15:48:58.243198 22824 net.cpp:148] Top shape: 100 50 8 8 (320000)
I0401 15:48:58.243201 22824 net.cpp:156] Memory required for data: 18877600
I0401 15:48:58.243212 22824 layer_factory.hpp:77] Creating layer pool2
I0401 15:48:58.243219 22824 net.cpp:91] Creating Layer pool2
I0401 15:48:58.243223 22824 net.cpp:425] pool2 <- conv2
I0401 15:48:58.243229 22824 net.cpp:399] pool2 -> pool2
I0401 15:48:58.243269 22824 net.cpp:141] Setting up pool2
I0401 15:48:58.243276 22824 net.cpp:148] Top shape: 100 50 4 4 (80000)
I0401 15:48:58.243279 22824 net.cpp:156] Memory required for data: 19197600
I0401 15:48:58.243283 22824 layer_factory.hpp:77] Creating layer relu2
I0401 15:48:58.243289 22824 net.cpp:91] Creating Layer relu2
I0401 15:48:58.243293 22824 net.cpp:425] relu2 <- pool2
I0401 15:48:58.243299 22824 net.cpp:386] relu2 -> pool2 (in-place)
I0401 15:48:58.243304 22824 net.cpp:141] Setting up relu2
I0401 15:48:58.243309 22824 net.cpp:148] Top shape: 100 50 4 4 (80000)
I0401 15:48:58.243314 22824 net.cpp:156] Memory required for data: 19517600
I0401 15:48:58.243316 22824 layer_factory.hpp:77] Creating layer fc1
I0401 15:48:58.243324 22824 net.cpp:91] Creating Layer fc1
I0401 15:48:58.243329 22824 net.cpp:425] fc1 <- pool2
I0401 15:48:58.243333 22824 net.cpp:399] fc1 -> fc1
I0401 15:48:58.247048 22824 net.cpp:141] Setting up fc1
I0401 15:48:58.247061 22824 net.cpp:148] Top shape: 100 500 (50000)
I0401 15:48:58.247076 22824 net.cpp:156] Memory required for data: 19717600
I0401 15:48:58.247088 22824 layer_factory.hpp:77] Creating layer score
I0401 15:48:58.247097 22824 net.cpp:91] Creating Layer score
I0401 15:48:58.247102 22824 net.cpp:425] score <- fc1
I0401 15:48:58.247107 22824 net.cpp:399] score -> score
I0401 15:48:58.247256 22824 net.cpp:141] Setting up score
I0401 15:48:58.247264 22824 net.cpp:148] Top shape: 100 10 (1000)
I0401 15:48:58.247267 22824 net.cpp:156] Memory required for data: 19721600
I0401 15:48:58.247274 22824 layer_factory.hpp:77] Creating layer loss
I0401 15:48:58.247282 22824 net.cpp:91] Creating Layer loss
I0401 15:48:58.247287 22824 net.cpp:425] loss <- score
I0401 15:48:58.247290 22824 net.cpp:425] loss <- label
I0401 15:48:58.247297 22824 net.cpp:399] loss -> loss
I0401 15:48:58.247336 22824 net.cpp:141] Setting up loss
…
