…
max_iter: 10000
lr_policy: "inv"
gamma: 0.0001
power: 0.75
momentum: 0.9
weight_decay: 0.0005
solver_mode: GPU
random_seed: 831486
type: "Nesterov"
I0325 18:53:08.041208  3918 solver.cpp:81] Creating training net from train_net file: prototxt/net_hdf5_train.prototxt
I0325 18:53:08.041517  3918 net.cpp:49] Initializing net from parameters: 
state {
  phase: TRAIN
}
layer {
  name: "data"
  type: "HDF5Data"
  top: "data"
  top: "label"
  hdf5_data_param {
    source: "/mnt/scratch/pierre/caffe_sandbox_tryouts/mnist/mnist_train_hdf5/h5list"
    batch_size: 64
  }
}
layer {
  name: "conv1"
  type: "Convolution"
  bottom: "data"
  top: "conv1"
  convolution_param {
    num_output: 50
    kernel_size: 5
    weight_filler {
      type: "xavier"
    }
  }
}
layer {
  name: "pool1"
  type: "Pooling"
  bottom: "conv1"
  top: "pool1"
  pooling_param {
    pool: MAX
    kernel_size: 2
    stride: 2
  }
}
layer {
  name: "relu1"
  type: "ReLU"
  bottom: "pool1"
  top: "pool1"
}
layer {
  name: "conv2"
  type: "Convolution"
  bottom: "pool1"
  top: "conv2"
  convolution_param {
    num_output: 50
    kernel_size: 5
    weight_filler {
      type: "xavier"
    }
  }
}
layer {
  name: "pool2"
  type: "Pooling"
  bottom: "conv2"
  top: "pool2"
  pooling_param {
    pool: MAX
    kernel_size: 2
    stride: 2
  }
}
layer {
  name: "relu2"
  type: "ReLU"
  bottom: "pool2"
  top: "pool2"
}
layer {
  name: "fc1"
  type: "InnerProduct"
  bottom: "pool2"
  top: "fc1"
  inner_product_param {
    num_output: 500
    weight_filler {
      type: "xavier"
    }
  }
}
layer {
  name: "score"
  type: "InnerProduct"
  bottom: "fc1"
  top: "score"
  inner_product_param {
    num_output: 10
    weight_filler {
      type: "xavier"
    }
  }
}
layer {
  name: "loss"
  type: "SigmoidCrossEntropyLoss"
  bottom: "score"
  bottom: "label"
  top: "loss"
}
I0325 18:53:08.041568  3918 layer_factory.hpp:77] Creating layer data
I0325 18:53:08.041584  3918 net.cpp:91] Creating Layer data
I0325 18:53:08.041590  3918 net.cpp:399] data -> data
I0325 18:53:08.041610  3918 net.cpp:399] data -> label
I0325 18:53:08.041622  3918 hdf5_data_layer.cpp:79] Loading list of HDF5 filenames from: /mnt/scratch/pierre/caffe_sandbox_tryouts/mnist/mnist_train_hdf5/h5list
I0325 18:53:08.041656  3918 hdf5_data_layer.cpp:93] Number of HDF5 files: 1
I0325 18:53:08.042276  3918 hdf5.cpp:32] Datatype class: H5T_FLOAT
I0325 18:53:08.272879  3918 net.cpp:141] Setting up data
I0325 18:53:08.272928  3918 net.cpp:148] Top shape: 64 1 28 28 (50176)
I0325 18:53:08.272934  3918 net.cpp:148] Top shape: 64 10 (640)
I0325 18:53:08.272938  3918 net.cpp:156] Memory required for data: 203264
I0325 18:53:08.272948  3918 layer_factory.hpp:77] Creating layer conv1
I0325 18:53:08.272976  3918 net.cpp:91] Creating Layer conv1
I0325 18:53:08.272982  3918 net.cpp:425] conv1 <- data
I0325 18:53:08.272992  3918 net.cpp:399] conv1 -> conv1
I0325 18:53:08.274644  3918 net.cpp:141] Setting up conv1
I0325 18:53:08.274677  3918 net.cpp:148] Top shape: 64 50 24 24 (1843200)
I0325 18:53:08.274682  3918 net.cpp:156] Memory required for data: 7576064
I0325 18:53:08.274710  3918 layer_factory.hpp:77] Creating layer pool1
I0325 18:53:08.274725  3918 net.cpp:91] Creating Layer pool1
I0325 18:53:08.274731  3918 net.cpp:425] pool1 <- conv1
I0325 18:53:08.274739  3918 net.cpp:399] pool1 -> pool1
I0325 18:53:08.274794  3918 net.cpp:141] Setting up pool1
I0325 18:53:08.274802  3918 net.cpp:148] Top shape: 64 50 12 12 (460800)
I0325 18:53:08.274806  3918 net.cpp:156] Memory required for data: 9419264
I0325 18:53:08.274808  3918 layer_factory.hpp:77] Creating layer relu1
I0325 18:53:08.274816  3918 net.cpp:91] Creating Layer relu1
I0325 18:53:08.274819  3918 net.cpp:425] relu1 <- pool1
I0325 18:53:08.274824  3918 net.cpp:386] relu1 -> pool1 (in-place)
I0325 18:53:08.274834  3918 net.cpp:141] Setting up relu1
I0325 18:53:08.274839  3918 net.cpp:148] Top shape: 64 50 12 12 (460800)
I0325 18:53:08.274842  3918 net.cpp:156] Memory required for data: 11262464
I0325 18:53:08.274847  3918 layer_factory.hpp:77] Creating layer conv2
I0325 18:53:08.274859  3918 net.cpp:91] Creating Layer conv2
I0325 18:53:08.274863  3918 net.cpp:425] conv2 <- pool1
I0325 18:53:08.274868  3918 net.cpp:399] conv2 -> conv2
I0325 18:53:08.276159  3918 net.cpp:141] Setting up conv2
I0325 18:53:08.276180  3918 net.cpp:148] Top shape: 64 50 8 8 (204800)
I0325 18:53:08.276185  3918 net.cpp:156] Memory required for data: 12081664
I0325 18:53:08.276197  3918 layer_factory.hpp:77] Creating layer pool2
I0325 18:53:08.276207  3918 net.cpp:91] Creating Layer pool2
I0325 18:53:08.276212  3918 net.cpp:425] pool2 <- conv2
I0325 18:53:08.276219  3918 net.cpp:399] pool2 -> pool2
I0325 18:53:08.276262  3918 net.cpp:141] Setting up pool2
I0325 18:53:08.276268  3918 net.cpp:148] Top shape: 64 50 4 4 (51200)
I0325 18:53:08.276273  3918 net.cpp:156] Memory required for data: 12286464
I0325 18:53:08.276275  3918 layer_factory.hpp:77] Creating layer relu2
I0325 18:53:08.276281  3918 net.cpp:91] Creating Layer relu2
I0325 18:53:08.276285  3918 net.cpp:425] relu2 <- pool2
I0325 18:53:08.276290  3918 net.cpp:386] relu2 -> pool2 (in-place)
I0325 18:53:08.276296  3918 net.cpp:141] Setting up relu2
I0325 18:53:08.276301  3918 net.cpp:148] Top shape: 64 50 4 4 (51200)
I0325 18:53:08.276304  3918 net.cpp:156] Memory required for data: 12491264
I0325 18:53:08.276307  3918 layer_factory.hpp:77] Creating layer fc1
I0325 18:53:08.276320  3918 net.cpp:91] Creating Layer fc1
I0325 18:53:08.276324  3918 net.cpp:425] fc1 <- pool2
I0325 18:53:08.276329  3918 net.cpp:399] fc1 -> fc1
I0325 18:53:08.280042  3918 net.cpp:141] Setting up fc1
I0325 18:53:08.280082  3918 net.cpp:148] Top shape: 64 500 (32000)
I0325 18:53:08.280086  3918 net.cpp:156] Memory required for data: 12619264
I0325 18:53:08.280107  3918 layer_factory.hpp:77] Creating layer score
I0325 18:53:08.280125  3918 net.cpp:91] Creating Layer score
I0325 18:53:08.280130  3918 net.cpp:425] score <- fc1
I0325 18:53:08.280141  3918 net.cpp:399] score -> score
I0325 18:53:08.281009  3918 net.cpp:141] Setting up score
I0325 18:53:08.281025  3918 net.cpp:148] Top shape: 64 10 (640)
I0325 18:53:08.281028  3918 net.cpp:156] Memory required for data: 12621824
I0325 18:53:08.281036  3918 layer_factory.hpp:77] Creating layer loss
I0325 18:53:08.281054  3918 net.cpp:91] Creating Layer loss
I0325 18:53:08.281057  3918 net.cpp:425] loss <- score
I0325 18:53:08.281062  3918 net.cpp:425] loss <- label
I0325 18:53:08.281067  3918 net.cpp:399] loss -> loss
I0325 18:53:08.281121  3918 net.cpp:141] Setting up loss
…
I0325 18:53:08.281195  3918 net.cpp:261] This network produces output loss
I0325 18:53:08.281203  3918 net.cpp:274] Network initialization done.
I0325 18:53:08.281462  3918 solver.cpp:181] Creating test net (#0) specified by test_net file: prototxt/net_hdf5_test.prototxt
I0325 18:53:08.281580  3918 net.cpp:49] Initializing net from parameters: 
state {
  phase: TEST
}
layer {
  name: "data"
  type: "HDF5Data"
  top: "data"
  top: "label"
  hdf5_data_param {
    source: "/mnt/scratch/pierre/caffe_sandbox_tryouts/mnist/mnist_test_hdf5/h5list"
    batch_size: 100
  }
}
layer {
  name: "conv1"
  type: "Convolution"
  bottom: "data"
  top: "conv1"
  convolution_param {
    num_output: 50
    kernel_size: 5
    weight_filler {
      type: "xavier"
    }
  }
}
layer {
  name: "pool1"
  type: "Pooling"
  bottom: "conv1"
  top: "pool1"
  pooling_param {
    pool: MAX
    kernel_size: 2
    stride: 2
  }
}
layer {
  name: "relu1"
  type: "ReLU"
  bottom: "pool1"
  top: "pool1"
}
layer {
  name: "conv2"
  type: "Convolution"
  bottom: "pool1"
  top: "conv2"
  convolution_param {
    num_output: 50
    kernel_size: 5
    weight_filler {
      type: "xavier"
    }
  }
}
layer {
  name: "pool2"
  type: "Pooling"
  bottom: "conv2"
  top: "pool2"
  pooling_param {
    pool: MAX
    kernel_size: 2
    stride: 2
  }
}
layer {
  name: "relu2"
  type: "ReLU"
  bottom: "pool2"
  top: "pool2"
}
layer {
  name: "fc1"
  type: "InnerProduct"
  bottom: "pool2"
  top: "fc1"
  inner_product_param {
    num_output: 500
    weight_filler {
      type: "xavier"
    }
  }
}
layer {
  name: "score"
  type: "InnerProduct"
  bottom: "fc1"
  top: "score"
  inner_product_param {
    num_output: 10
    weight_filler {
      type: "xavier"
    }
  }
}
layer {
  name: "loss"
  type: "SigmoidCrossEntropyLoss"
  bottom: "score"
  bottom: "label"
  top: "loss"
}
I0325 18:53:08.281628  3918 layer_factory.hpp:77] Creating layer data
I0325 18:53:08.281637  3918 net.cpp:91] Creating Layer data
I0325 18:53:08.281641  3918 net.cpp:399] data -> data
I0325 18:53:08.281651  3918 net.cpp:399] data -> label
I0325 18:53:08.281657  3918 hdf5_data_layer.cpp:79] Loading list of HDF5 filenames from: /mnt/scratch/pierre/caffe_sandbox_tryouts/mnist/mnist_test_hdf5/h5list
I0325 18:53:08.281687  3918 hdf5_data_layer.cpp:93] Number of HDF5 files: 1
I0325 18:53:08.318279  3918 net.cpp:141] Setting up data
I0325 18:53:08.318316  3918 net.cpp:148] Top shape: 100 1 28 28 (78400)
I0325 18:53:08.318322  3918 net.cpp:148] Top shape: 100 10 (1000)
I0325 18:53:08.318325  3918 net.cpp:156] Memory required for data: 317600
I0325 18:53:08.318334  3918 layer_factory.hpp:77] Creating layer conv1
I0325 18:53:08.318361  3918 net.cpp:91] Creating Layer conv1
I0325 18:53:08.318367  3918 net.cpp:425] conv1 <- data
I0325 18:53:08.318377  3918 net.cpp:399] conv1 -> conv1
I0325 18:53:08.318648  3918 net.cpp:141] Setting up conv1
I0325 18:53:08.318658  3918 net.cpp:148] Top shape: 100 50 24 24 (2880000)
I0325 18:53:08.318661  3918 net.cpp:156] Memory required for data: 11837600
I0325 18:53:08.318676  3918 layer_factory.hpp:77] Creating layer pool1
I0325 18:53:08.318686  3918 net.cpp:91] Creating Layer pool1
I0325 18:53:08.318689  3918 net.cpp:425] pool1 <- conv1
I0325 18:53:08.318696  3918 net.cpp:399] pool1 -> pool1
I0325 18:53:08.318737  3918 net.cpp:141] Setting up pool1
I0325 18:53:08.318743  3918 net.cpp:148] Top shape: 100 50 12 12 (720000)
I0325 18:53:08.318747  3918 net.cpp:156] Memory required for data: 14717600
I0325 18:53:08.318750  3918 layer_factory.hpp:77] Creating layer relu1
I0325 18:53:08.318756  3918 net.cpp:91] Creating Layer relu1
I0325 18:53:08.318759  3918 net.cpp:425] relu1 <- pool1
I0325 18:53:08.318765  3918 net.cpp:386] relu1 -> pool1 (in-place)
I0325 18:53:08.318773  3918 net.cpp:141] Setting up relu1
I0325 18:53:08.318776  3918 net.cpp:148] Top shape: 100 50 12 12 (720000)
I0325 18:53:08.318779  3918 net.cpp:156] Memory required for data: 17597600
I0325 18:53:08.318783  3918 layer_factory.hpp:77] Creating layer conv2
I0325 18:53:08.318791  3918 net.cpp:91] Creating Layer conv2
I0325 18:53:08.318795  3918 net.cpp:425] conv2 <- pool1
I0325 18:53:08.318800  3918 net.cpp:399] conv2 -> conv2
I0325 18:53:08.319505  3918 net.cpp:141] Setting up conv2
I0325 18:53:08.319519  3918 net.cpp:148] Top shape: 100 50 8 8 (320000)
I0325 18:53:08.319522  3918 net.cpp:156] Memory required for data: 18877600
I0325 18:53:08.319533  3918 layer_factory.hpp:77] Creating layer pool2
I0325 18:53:08.319540  3918 net.cpp:91] Creating Layer pool2
I0325 18:53:08.319545  3918 net.cpp:425] pool2 <- conv2
I0325 18:53:08.319550  3918 net.cpp:399] pool2 -> pool2
I0325 18:53:08.319589  3918 net.cpp:141] Setting up pool2
I0325 18:53:08.319597  3918 net.cpp:148] Top shape: 100 50 4 4 (80000)
I0325 18:53:08.319599  3918 net.cpp:156] Memory required for data: 19197600
I0325 18:53:08.319603  3918 layer_factory.hpp:77] Creating layer relu2
I0325 18:53:08.319608  3918 net.cpp:91] Creating Layer relu2
I0325 18:53:08.319612  3918 net.cpp:425] relu2 <- pool2
I0325 18:53:08.319617  3918 net.cpp:386] relu2 -> pool2 (in-place)
I0325 18:53:08.319623  3918 net.cpp:141] Setting up relu2
I0325 18:53:08.319628  3918 net.cpp:148] Top shape: 100 50 4 4 (80000)
I0325 18:53:08.319631  3918 net.cpp:156] Memory required for data: 19517600
I0325 18:53:08.319634  3918 layer_factory.hpp:77] Creating layer fc1
I0325 18:53:08.319643  3918 net.cpp:91] Creating Layer fc1
I0325 18:53:08.319646  3918 net.cpp:425] fc1 <- pool2
I0325 18:53:08.319651  3918 net.cpp:399] fc1 -> fc1
I0325 18:53:08.323525  3918 net.cpp:141] Setting up fc1
I0325 18:53:08.323559  3918 net.cpp:148] Top shape: 100 500 (50000)
I0325 18:53:08.323561  3918 net.cpp:156] Memory required for data: 19717600
I0325 18:53:08.323581  3918 layer_factory.hpp:77] Creating layer score
I0325 18:53:08.323596  3918 net.cpp:91] Creating Layer score
I0325 18:53:08.323602  3918 net.cpp:425] score <- fc1
I0325 18:53:08.323611  3918 net.cpp:399] score -> score
I0325 18:53:08.323756  3918 net.cpp:141] Setting up score
I0325 18:53:08.323765  3918 net.cpp:148] Top shape: 100 10 (1000)
I0325 18:53:08.323768  3918 net.cpp:156] Memory required for data: 19721600
I0325 18:53:08.323776  3918 layer_factory.hpp:77] Creating layer loss
I0325 18:53:08.323784  3918 net.cpp:91] Creating Layer loss
I0325 18:53:08.323787  3918 net.cpp:425] loss <- score
I0325 18:53:08.323791  3918 net.cpp:425] loss <- label
I0325 18:53:08.323796  3918 net.cpp:399] loss -> loss
I0325 18:53:08.323837  3918 net.cpp:141] Setting up loss
…
