…
weight_decay: 0.0005
snapshot: 5000
snapshot_prefix: "snapshots/net_hdf5_snapshot"
solver_mode: GPU
random_seed: 831486
type: "Nesterov"
I0401 18:29:54.152256 25294 solver.cpp:81] Creating training net from train_net file: prototxt/net_hdf5_train.prototxt
I0401 18:29:54.152585 25294 net.cpp:49] Initializing net from parameters: 
state {
  phase: TRAIN
}
layer {
  name: "data"
  type: "HDF5Data"
  top: "data"
  top: "label"
  hdf5_data_param {
    source: "/mnt/scratch/pierre/caffe_sandbox_tryouts/mnist/mnist_train_hdf5/h5list"
    batch_size: 64
  }
}
layer {
  name: "conv1"
  type: "Convolution"
  bottom: "data"
  top: "conv1"
  convolution_param {
    num_output: 50
    kernel_size: 5
    weight_filler {
      type: "xavier"
    }
  }
}
layer {
  name: "pool1"
  type: "Pooling"
  bottom: "conv1"
  top: "pool1"
  pooling_param {
    pool: MAX
    kernel_size: 2
    stride: 2
  }
}
layer {
  name: "relu1"
  type: "ReLU"
  bottom: "pool1"
  top: "pool1"
}
layer {
  name: "conv2"
  type: "Convolution"
  bottom: "pool1"
  top: "conv2"
  convolution_param {
    num_output: 50
    kernel_size: 5
    weight_filler {
      type: "xavier"
    }
  }
}
layer {
  name: "pool2"
  type: "Pooling"
  bottom: "conv2"
  top: "pool2"
  pooling_param {
    pool: MAX
    kernel_size: 2
    stride: 2
  }
}
layer {
  name: "relu2"
  type: "ReLU"
  bottom: "pool2"
  top: "pool2"
}
layer {
  name: "fc1"
  type: "InnerProduct"
  bottom: "pool2"
  top: "fc1"
  inner_product_param {
    num_output: 500
    weight_filler {
      type: "xavier"
    }
  }
}
layer {
  name: "score"
  type: "InnerProduct"
  bottom: "fc1"
  top: "score"
  inner_product_param {
    num_output: 10
    weight_filler {
      type: "xavier"
    }
  }
}
layer {
  name: "loss"
  type: "SigmoidCrossEntropyLoss"
  bottom: "score"
  bottom: "label"
  top: "loss"
}
I0401 18:29:54.152636 25294 layer_factory.hpp:77] Creating layer data
I0401 18:29:54.152652 25294 net.cpp:91] Creating Layer data
I0401 18:29:54.152659 25294 net.cpp:399] data -> data
I0401 18:29:54.152679 25294 net.cpp:399] data -> label
I0401 18:29:54.152693 25294 hdf5_data_layer.cpp:79] Loading list of HDF5 filenames from: /mnt/scratch/pierre/caffe_sandbox_tryouts/mnist/mnist_train_hdf5/h5list
I0401 18:29:54.152721 25294 hdf5_data_layer.cpp:93] Number of HDF5 files: 1
I0401 18:29:54.153339 25294 hdf5.cpp:32] Datatype class: H5T_FLOAT
I0401 18:29:54.324365 25294 net.cpp:141] Setting up data
I0401 18:29:54.324401 25294 net.cpp:148] Top shape: 64 1 28 28 (50176)
I0401 18:29:54.324407 25294 net.cpp:148] Top shape: 64 10 (640)
I0401 18:29:54.324411 25294 net.cpp:156] Memory required for data: 203264
I0401 18:29:54.324420 25294 layer_factory.hpp:77] Creating layer conv1
I0401 18:29:54.324447 25294 net.cpp:91] Creating Layer conv1
I0401 18:29:54.324453 25294 net.cpp:425] conv1 <- data
I0401 18:29:54.324462 25294 net.cpp:399] conv1 -> conv1
I0401 18:29:54.325841 25294 net.cpp:141] Setting up conv1
I0401 18:29:54.325853 25294 net.cpp:148] Top shape: 64 50 24 24 (1843200)
I0401 18:29:54.325857 25294 net.cpp:156] Memory required for data: 7576064
I0401 18:29:54.325880 25294 layer_factory.hpp:77] Creating layer pool1
I0401 18:29:54.325889 25294 net.cpp:91] Creating Layer pool1
I0401 18:29:54.325893 25294 net.cpp:425] pool1 <- conv1
I0401 18:29:54.325899 25294 net.cpp:399] pool1 -> pool1
I0401 18:29:54.325945 25294 net.cpp:141] Setting up pool1
I0401 18:29:54.325953 25294 net.cpp:148] Top shape: 64 50 12 12 (460800)
I0401 18:29:54.325958 25294 net.cpp:156] Memory required for data: 9419264
I0401 18:29:54.325961 25294 layer_factory.hpp:77] Creating layer relu1
I0401 18:29:54.325968 25294 net.cpp:91] Creating Layer relu1
I0401 18:29:54.325971 25294 net.cpp:425] relu1 <- pool1
I0401 18:29:54.325978 25294 net.cpp:386] relu1 -> pool1 (in-place)
I0401 18:29:54.325987 25294 net.cpp:141] Setting up relu1
I0401 18:29:54.325992 25294 net.cpp:148] Top shape: 64 50 12 12 (460800)
I0401 18:29:54.325996 25294 net.cpp:156] Memory required for data: 11262464
I0401 18:29:54.325999 25294 layer_factory.hpp:77] Creating layer conv2
I0401 18:29:54.326009 25294 net.cpp:91] Creating Layer conv2
I0401 18:29:54.326014 25294 net.cpp:425] conv2 <- pool1
I0401 18:29:54.326019 25294 net.cpp:399] conv2 -> conv2
I0401 18:29:54.327286 25294 net.cpp:141] Setting up conv2
I0401 18:29:54.327299 25294 net.cpp:148] Top shape: 64 50 8 8 (204800)
I0401 18:29:54.327303 25294 net.cpp:156] Memory required for data: 12081664
I0401 18:29:54.327312 25294 layer_factory.hpp:77] Creating layer pool2
I0401 18:29:54.327321 25294 net.cpp:91] Creating Layer pool2
I0401 18:29:54.327324 25294 net.cpp:425] pool2 <- conv2
I0401 18:29:54.327330 25294 net.cpp:399] pool2 -> pool2
I0401 18:29:54.327369 25294 net.cpp:141] Setting up pool2
I0401 18:29:54.327378 25294 net.cpp:148] Top shape: 64 50 4 4 (51200)
I0401 18:29:54.327380 25294 net.cpp:156] Memory required for data: 12286464
I0401 18:29:54.327384 25294 layer_factory.hpp:77] Creating layer relu2
I0401 18:29:54.327390 25294 net.cpp:91] Creating Layer relu2
I0401 18:29:54.327394 25294 net.cpp:425] relu2 <- pool2
I0401 18:29:54.327399 25294 net.cpp:386] relu2 -> pool2 (in-place)
I0401 18:29:54.327406 25294 net.cpp:141] Setting up relu2
I0401 18:29:54.327411 25294 net.cpp:148] Top shape: 64 50 4 4 (51200)
I0401 18:29:54.327414 25294 net.cpp:156] Memory required for data: 12491264
I0401 18:29:54.327419 25294 layer_factory.hpp:77] Creating layer fc1
I0401 18:29:54.327430 25294 net.cpp:91] Creating Layer fc1
I0401 18:29:54.327435 25294 net.cpp:425] fc1 <- pool2
I0401 18:29:54.327440 25294 net.cpp:399] fc1 -> fc1
I0401 18:29:54.331187 25294 net.cpp:141] Setting up fc1
I0401 18:29:54.331198 25294 net.cpp:148] Top shape: 64 500 (32000)
I0401 18:29:54.331202 25294 net.cpp:156] Memory required for data: 12619264
I0401 18:29:54.331213 25294 layer_factory.hpp:77] Creating layer score
I0401 18:29:54.331223 25294 net.cpp:91] Creating Layer score
I0401 18:29:54.331228 25294 net.cpp:425] score <- fc1
I0401 18:29:54.331233 25294 net.cpp:399] score -> score
I0401 18:29:54.331934 25294 net.cpp:141] Setting up score
I0401 18:29:54.331946 25294 net.cpp:148] Top shape: 64 10 (640)
I0401 18:29:54.331950 25294 net.cpp:156] Memory required for data: 12621824
I0401 18:29:54.331959 25294 layer_factory.hpp:77] Creating layer loss
I0401 18:29:54.331975 25294 net.cpp:91] Creating Layer loss
I0401 18:29:54.331979 25294 net.cpp:425] loss <- score
I0401 18:29:54.331984 25294 net.cpp:425] loss <- label
I0401 18:29:54.331990 25294 net.cpp:399] loss -> loss
I0401 18:29:54.332041 25294 net.cpp:141] Setting up loss
…
I0401 18:29:54.332111 25294 net.cpp:261] This network produces output loss
I0401 18:29:54.332120 25294 net.cpp:274] Network initialization done.
I0401 18:29:54.332371 25294 solver.cpp:181] Creating test net (#0) specified by test_net file: prototxt/net_hdf5_test.prototxt
I0401 18:29:54.332497 25294 net.cpp:49] Initializing net from parameters: 
state {
  phase: TEST
}
layer {
  name: "data"
  type: "HDF5Data"
  top: "data"
  top: "label"
  hdf5_data_param {
    source: "/mnt/scratch/pierre/caffe_sandbox_tryouts/mnist/mnist_test_hdf5/h5list"
    batch_size: 100
  }
}
layer {
  name: "conv1"
  type: "Convolution"
  bottom: "data"
  top: "conv1"
  convolution_param {
    num_output: 50
    kernel_size: 5
    weight_filler {
      type: "xavier"
    }
  }
}
layer {
  name: "pool1"
  type: "Pooling"
  bottom: "conv1"
  top: "pool1"
  pooling_param {
    pool: MAX
    kernel_size: 2
    stride: 2
  }
}
layer {
  name: "relu1"
  type: "ReLU"
  bottom: "pool1"
  top: "pool1"
}
layer {
  name: "conv2"
  type: "Convolution"
  bottom: "pool1"
  top: "conv2"
  convolution_param {
    num_output: 50
    kernel_size: 5
    weight_filler {
      type: "xavier"
    }
  }
}
layer {
  name: "pool2"
  type: "Pooling"
  bottom: "conv2"
  top: "pool2"
  pooling_param {
    pool: MAX
    kernel_size: 2
    stride: 2
  }
}
layer {
  name: "relu2"
  type: "ReLU"
  bottom: "pool2"
  top: "pool2"
}
layer {
  name: "fc1"
  type: "InnerProduct"
  bottom: "pool2"
  top: "fc1"
  inner_product_param {
    num_output: 500
    weight_filler {
      type: "xavier"
    }
  }
}
layer {
  name: "score"
  type: "InnerProduct"
  bottom: "fc1"
  top: "score"
  inner_product_param {
    num_output: 10
    weight_filler {
      type: "xavier"
    }
  }
}
layer {
  name: "loss"
  type: "SigmoidCrossEntropyLoss"
  bottom: "score"
  bottom: "label"
  top: "loss"
}
I0401 18:29:54.332545 25294 layer_factory.hpp:77] Creating layer data
I0401 18:29:54.332552 25294 net.cpp:91] Creating Layer data
I0401 18:29:54.332557 25294 net.cpp:399] data -> data
I0401 18:29:54.332566 25294 net.cpp:399] data -> label
I0401 18:29:54.332573 25294 hdf5_data_layer.cpp:79] Loading list of HDF5 filenames from: /mnt/scratch/pierre/caffe_sandbox_tryouts/mnist/mnist_test_hdf5/h5list
I0401 18:29:54.332599 25294 hdf5_data_layer.cpp:93] Number of HDF5 files: 1
I0401 18:29:54.359993 25294 net.cpp:141] Setting up data
I0401 18:29:54.360028 25294 net.cpp:148] Top shape: 100 1 28 28 (78400)
I0401 18:29:54.360034 25294 net.cpp:148] Top shape: 100 10 (1000)
I0401 18:29:54.360038 25294 net.cpp:156] Memory required for data: 317600
I0401 18:29:54.360047 25294 layer_factory.hpp:77] Creating layer conv1
I0401 18:29:54.360070 25294 net.cpp:91] Creating Layer conv1
I0401 18:29:54.360076 25294 net.cpp:425] conv1 <- data
I0401 18:29:54.360086 25294 net.cpp:399] conv1 -> conv1
I0401 18:29:54.360368 25294 net.cpp:141] Setting up conv1
I0401 18:29:54.360378 25294 net.cpp:148] Top shape: 100 50 24 24 (2880000)
I0401 18:29:54.360381 25294 net.cpp:156] Memory required for data: 11837600
I0401 18:29:54.360397 25294 layer_factory.hpp:77] Creating layer pool1
I0401 18:29:54.360406 25294 net.cpp:91] Creating Layer pool1
I0401 18:29:54.360410 25294 net.cpp:425] pool1 <- conv1
I0401 18:29:54.360416 25294 net.cpp:399] pool1 -> pool1
I0401 18:29:54.360460 25294 net.cpp:141] Setting up pool1
I0401 18:29:54.360467 25294 net.cpp:148] Top shape: 100 50 12 12 (720000)
I0401 18:29:54.360471 25294 net.cpp:156] Memory required for data: 14717600
I0401 18:29:54.360476 25294 layer_factory.hpp:77] Creating layer relu1
I0401 18:29:54.360481 25294 net.cpp:91] Creating Layer relu1
I0401 18:29:54.360486 25294 net.cpp:425] relu1 <- pool1
I0401 18:29:54.360491 25294 net.cpp:386] relu1 -> pool1 (in-place)
I0401 18:29:54.360498 25294 net.cpp:141] Setting up relu1
I0401 18:29:54.360504 25294 net.cpp:148] Top shape: 100 50 12 12 (720000)
I0401 18:29:54.360507 25294 net.cpp:156] Memory required for data: 17597600
I0401 18:29:54.360512 25294 layer_factory.hpp:77] Creating layer conv2
I0401 18:29:54.360519 25294 net.cpp:91] Creating Layer conv2
I0401 18:29:54.360524 25294 net.cpp:425] conv2 <- pool1
I0401 18:29:54.360530 25294 net.cpp:399] conv2 -> conv2
I0401 18:29:54.361234 25294 net.cpp:141] Setting up conv2
I0401 18:29:54.361246 25294 net.cpp:148] Top shape: 100 50 8 8 (320000)
I0401 18:29:54.361250 25294 net.cpp:156] Memory required for data: 18877600
I0401 18:29:54.361260 25294 layer_factory.hpp:77] Creating layer pool2
I0401 18:29:54.361268 25294 net.cpp:91] Creating Layer pool2
I0401 18:29:54.361271 25294 net.cpp:425] pool2 <- conv2
I0401 18:29:54.361277 25294 net.cpp:399] pool2 -> pool2
I0401 18:29:54.361316 25294 net.cpp:141] Setting up pool2
I0401 18:29:54.361325 25294 net.cpp:148] Top shape: 100 50 4 4 (80000)
I0401 18:29:54.361327 25294 net.cpp:156] Memory required for data: 19197600
I0401 18:29:54.361331 25294 layer_factory.hpp:77] Creating layer relu2
I0401 18:29:54.361337 25294 net.cpp:91] Creating Layer relu2
I0401 18:29:54.361340 25294 net.cpp:425] relu2 <- pool2
I0401 18:29:54.361346 25294 net.cpp:386] relu2 -> pool2 (in-place)
I0401 18:29:54.361352 25294 net.cpp:141] Setting up relu2
I0401 18:29:54.361357 25294 net.cpp:148] Top shape: 100 50 4 4 (80000)
I0401 18:29:54.361361 25294 net.cpp:156] Memory required for data: 19517600
I0401 18:29:54.361364 25294 layer_factory.hpp:77] Creating layer fc1
I0401 18:29:54.361372 25294 net.cpp:91] Creating Layer fc1
I0401 18:29:54.361377 25294 net.cpp:425] fc1 <- pool2
I0401 18:29:54.361382 25294 net.cpp:399] fc1 -> fc1
I0401 18:29:54.365156 25294 net.cpp:141] Setting up fc1
I0401 18:29:54.365169 25294 net.cpp:148] Top shape: 100 500 (50000)
I0401 18:29:54.365172 25294 net.cpp:156] Memory required for data: 19717600
I0401 18:29:54.365182 25294 layer_factory.hpp:77] Creating layer score
I0401 18:29:54.365191 25294 net.cpp:91] Creating Layer score
I0401 18:29:54.365195 25294 net.cpp:425] score <- fc1
I0401 18:29:54.365201 25294 net.cpp:399] score -> score
I0401 18:29:54.365345 25294 net.cpp:141] Setting up score
I0401 18:29:54.365355 25294 net.cpp:148] Top shape: 100 10 (1000)
I0401 18:29:54.365357 25294 net.cpp:156] Memory required for data: 19721600
I0401 18:29:54.365365 25294 layer_factory.hpp:77] Creating layer loss
I0401 18:29:54.365373 25294 net.cpp:91] Creating Layer loss
I0401 18:29:54.365377 25294 net.cpp:425] loss <- score
I0401 18:29:54.365381 25294 net.cpp:425] loss <- label
I0401 18:29:54.365386 25294 net.cpp:399] loss -> loss
I0401 18:29:54.365427 25294 net.cpp:141] Setting up loss
…
