…
max_iter: 10000
lr_policy: "inv"
gamma: 0.0001
power: 0.75
momentum: 0.9
weight_decay: 0.0005
solver_mode: GPU
random_seed: 831486
type: "Nesterov"
I0401 18:02:20.260125 25052 solver.cpp:81] Creating training net from train_net file: prototxt/net_hdf5_train.prototxt
I0401 18:02:20.260489 25052 net.cpp:49] Initializing net from parameters: 
state {
  phase: TRAIN
}
layer {
  name: "data"
  type: "HDF5Data"
  top: "data"
  top: "label"
  hdf5_data_param {
    source: "/mnt/scratch/pierre/caffe_sandbox_tryouts/mnist/mnist_train_hdf5/h5list"
    batch_size: 64
  }
}
layer {
  name: "conv1"
  type: "Convolution"
  bottom: "data"
  top: "conv1"
  convolution_param {
    num_output: 50
    kernel_size: 5
    weight_filler {
      type: "xavier"
    }
  }
}
layer {
  name: "pool1"
  type: "Pooling"
  bottom: "conv1"
  top: "pool1"
  pooling_param {
    pool: MAX
    kernel_size: 2
    stride: 2
  }
}
layer {
  name: "relu1"
  type: "ReLU"
  bottom: "pool1"
  top: "pool1"
}
layer {
  name: "conv2"
  type: "Convolution"
  bottom: "pool1"
  top: "conv2"
  convolution_param {
    num_output: 50
    kernel_size: 5
    weight_filler {
      type: "xavier"
    }
  }
}
layer {
  name: "pool2"
  type: "Pooling"
  bottom: "conv2"
  top: "pool2"
  pooling_param {
    pool: MAX
    kernel_size: 2
    stride: 2
  }
}
layer {
  name: "relu2"
  type: "ReLU"
  bottom: "pool2"
  top: "pool2"
}
layer {
  name: "fc1"
  type: "InnerProduct"
  bottom: "pool2"
  top: "fc1"
  inner_product_param {
    num_output: 500
    weight_filler {
      type: "xavier"
    }
  }
}
layer {
  name: "score"
  type: "InnerProduct"
  bottom: "fc1"
  top: "score"
  inner_product_param {
    num_output: 10
    weight_filler {
      type: "xavier"
    }
  }
}
layer {
  name: "loss"
  type: "SigmoidCrossEntropyLoss"
  bottom: "score"
  bottom: "label"
  top: "loss"
}
I0401 18:02:20.260540 25052 layer_factory.hpp:77] Creating layer data
I0401 18:02:20.260560 25052 net.cpp:91] Creating Layer data
I0401 18:02:20.260570 25052 net.cpp:399] data -> data
I0401 18:02:20.260588 25052 net.cpp:399] data -> label
I0401 18:02:20.260601 25052 hdf5_data_layer.cpp:79] Loading list of HDF5 filenames from: /mnt/scratch/pierre/caffe_sandbox_tryouts/mnist/mnist_train_hdf5/h5list
I0401 18:02:20.260635 25052 hdf5_data_layer.cpp:93] Number of HDF5 files: 1
I0401 18:02:20.261293 25052 hdf5.cpp:32] Datatype class: H5T_FLOAT
I0401 18:02:20.434320 25052 net.cpp:141] Setting up data
I0401 18:02:20.434361 25052 net.cpp:148] Top shape: 64 1 28 28 (50176)
I0401 18:02:20.434368 25052 net.cpp:148] Top shape: 64 10 (640)
I0401 18:02:20.434372 25052 net.cpp:156] Memory required for data: 203264
I0401 18:02:20.434382 25052 layer_factory.hpp:77] Creating layer conv1
I0401 18:02:20.434408 25052 net.cpp:91] Creating Layer conv1
I0401 18:02:20.434414 25052 net.cpp:425] conv1 <- data
I0401 18:02:20.434423 25052 net.cpp:399] conv1 -> conv1
I0401 18:02:20.435838 25052 net.cpp:141] Setting up conv1
I0401 18:02:20.435852 25052 net.cpp:148] Top shape: 64 50 24 24 (1843200)
I0401 18:02:20.435855 25052 net.cpp:156] Memory required for data: 7576064
I0401 18:02:20.435876 25052 layer_factory.hpp:77] Creating layer pool1
I0401 18:02:20.435886 25052 net.cpp:91] Creating Layer pool1
I0401 18:02:20.435890 25052 net.cpp:425] pool1 <- conv1
I0401 18:02:20.435896 25052 net.cpp:399] pool1 -> pool1
I0401 18:02:20.435942 25052 net.cpp:141] Setting up pool1
I0401 18:02:20.435950 25052 net.cpp:148] Top shape: 64 50 12 12 (460800)
I0401 18:02:20.435955 25052 net.cpp:156] Memory required for data: 9419264
I0401 18:02:20.435958 25052 layer_factory.hpp:77] Creating layer relu1
I0401 18:02:20.435966 25052 net.cpp:91] Creating Layer relu1
I0401 18:02:20.435969 25052 net.cpp:425] relu1 <- pool1
I0401 18:02:20.435974 25052 net.cpp:386] relu1 -> pool1 (in-place)
I0401 18:02:20.435986 25052 net.cpp:141] Setting up relu1
I0401 18:02:20.435991 25052 net.cpp:148] Top shape: 64 50 12 12 (460800)
I0401 18:02:20.435994 25052 net.cpp:156] Memory required for data: 11262464
I0401 18:02:20.435998 25052 layer_factory.hpp:77] Creating layer conv2
I0401 18:02:20.436007 25052 net.cpp:91] Creating Layer conv2
I0401 18:02:20.436012 25052 net.cpp:425] conv2 <- pool1
I0401 18:02:20.436017 25052 net.cpp:399] conv2 -> conv2
I0401 18:02:20.437248 25052 net.cpp:141] Setting up conv2
I0401 18:02:20.437261 25052 net.cpp:148] Top shape: 64 50 8 8 (204800)
I0401 18:02:20.437265 25052 net.cpp:156] Memory required for data: 12081664
I0401 18:02:20.437275 25052 layer_factory.hpp:77] Creating layer pool2
I0401 18:02:20.437283 25052 net.cpp:91] Creating Layer pool2
I0401 18:02:20.437288 25052 net.cpp:425] pool2 <- conv2
I0401 18:02:20.437294 25052 net.cpp:399] pool2 -> pool2
I0401 18:02:20.437333 25052 net.cpp:141] Setting up pool2
I0401 18:02:20.437340 25052 net.cpp:148] Top shape: 64 50 4 4 (51200)
I0401 18:02:20.437345 25052 net.cpp:156] Memory required for data: 12286464
I0401 18:02:20.437348 25052 layer_factory.hpp:77] Creating layer relu2
I0401 18:02:20.437353 25052 net.cpp:91] Creating Layer relu2
I0401 18:02:20.437357 25052 net.cpp:425] relu2 <- pool2
I0401 18:02:20.437363 25052 net.cpp:386] relu2 -> pool2 (in-place)
I0401 18:02:20.437369 25052 net.cpp:141] Setting up relu2
I0401 18:02:20.437376 25052 net.cpp:148] Top shape: 64 50 4 4 (51200)
I0401 18:02:20.437378 25052 net.cpp:156] Memory required for data: 12491264
I0401 18:02:20.437382 25052 layer_factory.hpp:77] Creating layer fc1
I0401 18:02:20.437394 25052 net.cpp:91] Creating Layer fc1
I0401 18:02:20.437398 25052 net.cpp:425] fc1 <- pool2
I0401 18:02:20.437404 25052 net.cpp:399] fc1 -> fc1
I0401 18:02:20.441153 25052 net.cpp:141] Setting up fc1
I0401 18:02:20.441164 25052 net.cpp:148] Top shape: 64 500 (32000)
I0401 18:02:20.441169 25052 net.cpp:156] Memory required for data: 12619264
I0401 18:02:20.441179 25052 layer_factory.hpp:77] Creating layer score
I0401 18:02:20.441190 25052 net.cpp:91] Creating Layer score
I0401 18:02:20.441193 25052 net.cpp:425] score <- fc1
I0401 18:02:20.441200 25052 net.cpp:399] score -> score
I0401 18:02:20.441900 25052 net.cpp:141] Setting up score
I0401 18:02:20.441911 25052 net.cpp:148] Top shape: 64 10 (640)
I0401 18:02:20.441915 25052 net.cpp:156] Memory required for data: 12621824
I0401 18:02:20.441923 25052 layer_factory.hpp:77] Creating layer loss
I0401 18:02:20.441952 25052 net.cpp:91] Creating Layer loss
I0401 18:02:20.441957 25052 net.cpp:425] loss <- score
I0401 18:02:20.441963 25052 net.cpp:425] loss <- label
I0401 18:02:20.441969 25052 net.cpp:399] loss -> loss
I0401 18:02:20.442020 25052 net.cpp:141] Setting up loss
…
I0401 18:02:20.442093 25052 net.cpp:261] This network produces output loss
I0401 18:02:20.442102 25052 net.cpp:274] Network initialization done.
I0401 18:02:20.442353 25052 solver.cpp:181] Creating test net (#0) specified by test_net file: prototxt/net_hdf5_test.prototxt
I0401 18:02:20.442479 25052 net.cpp:49] Initializing net from parameters: 
state {
  phase: TEST
}
layer {
  name: "data"
  type: "HDF5Data"
  top: "data"
  top: "label"
  hdf5_data_param {
    source: "/mnt/scratch/pierre/caffe_sandbox_tryouts/mnist/mnist_test_hdf5/h5list"
    batch_size: 100
  }
}
layer {
  name: "conv1"
  type: "Convolution"
  bottom: "data"
  top: "conv1"
  convolution_param {
    num_output: 50
    kernel_size: 5
    weight_filler {
      type: "xavier"
    }
  }
}
layer {
  name: "pool1"
  type: "Pooling"
  bottom: "conv1"
  top: "pool1"
  pooling_param {
    pool: MAX
    kernel_size: 2
    stride: 2
  }
}
layer {
  name: "relu1"
  type: "ReLU"
  bottom: "pool1"
  top: "pool1"
}
layer {
  name: "conv2"
  type: "Convolution"
  bottom: "pool1"
  top: "conv2"
  convolution_param {
    num_output: 50
    kernel_size: 5
    weight_filler {
      type: "xavier"
    }
  }
}
layer {
  name: "pool2"
  type: "Pooling"
  bottom: "conv2"
  top: "pool2"
  pooling_param {
    pool: MAX
    kernel_size: 2
    stride: 2
  }
}
layer {
  name: "relu2"
  type: "ReLU"
  bottom: "pool2"
  top: "pool2"
}
layer {
  name: "fc1"
  type: "InnerProduct"
  bottom: "pool2"
  top: "fc1"
  inner_product_param {
    num_output: 500
    weight_filler {
      type: "xavier"
    }
  }
}
layer {
  name: "score"
  type: "InnerProduct"
  bottom: "fc1"
  top: "score"
  inner_product_param {
    num_output: 10
    weight_filler {
      type: "xavier"
    }
  }
}
layer {
  name: "loss"
  type: "SigmoidCrossEntropyLoss"
  bottom: "score"
  bottom: "label"
  top: "loss"
}
I0401 18:02:20.442525 25052 layer_factory.hpp:77] Creating layer data
I0401 18:02:20.442534 25052 net.cpp:91] Creating Layer data
I0401 18:02:20.442539 25052 net.cpp:399] data -> data
I0401 18:02:20.442548 25052 net.cpp:399] data -> label
I0401 18:02:20.442555 25052 hdf5_data_layer.cpp:79] Loading list of HDF5 filenames from: /mnt/scratch/pierre/caffe_sandbox_tryouts/mnist/mnist_test_hdf5/h5list
I0401 18:02:20.442584 25052 hdf5_data_layer.cpp:93] Number of HDF5 files: 1
I0401 18:02:20.470072 25052 net.cpp:141] Setting up data
I0401 18:02:20.470105 25052 net.cpp:148] Top shape: 100 1 28 28 (78400)
I0401 18:02:20.470113 25052 net.cpp:148] Top shape: 100 10 (1000)
I0401 18:02:20.470116 25052 net.cpp:156] Memory required for data: 317600
I0401 18:02:20.470125 25052 layer_factory.hpp:77] Creating layer conv1
I0401 18:02:20.470149 25052 net.cpp:91] Creating Layer conv1
I0401 18:02:20.470155 25052 net.cpp:425] conv1 <- data
I0401 18:02:20.470165 25052 net.cpp:399] conv1 -> conv1
I0401 18:02:20.470449 25052 net.cpp:141] Setting up conv1
I0401 18:02:20.470459 25052 net.cpp:148] Top shape: 100 50 24 24 (2880000)
I0401 18:02:20.470463 25052 net.cpp:156] Memory required for data: 11837600
I0401 18:02:20.470479 25052 layer_factory.hpp:77] Creating layer pool1
I0401 18:02:20.470489 25052 net.cpp:91] Creating Layer pool1
I0401 18:02:20.470492 25052 net.cpp:425] pool1 <- conv1
I0401 18:02:20.470499 25052 net.cpp:399] pool1 -> pool1
I0401 18:02:20.470543 25052 net.cpp:141] Setting up pool1
I0401 18:02:20.470551 25052 net.cpp:148] Top shape: 100 50 12 12 (720000)
I0401 18:02:20.470554 25052 net.cpp:156] Memory required for data: 14717600
I0401 18:02:20.470558 25052 layer_factory.hpp:77] Creating layer relu1
I0401 18:02:20.470566 25052 net.cpp:91] Creating Layer relu1
I0401 18:02:20.470569 25052 net.cpp:425] relu1 <- pool1
I0401 18:02:20.470576 25052 net.cpp:386] relu1 -> pool1 (in-place)
I0401 18:02:20.470582 25052 net.cpp:141] Setting up relu1
I0401 18:02:20.470587 25052 net.cpp:148] Top shape: 100 50 12 12 (720000)
I0401 18:02:20.470592 25052 net.cpp:156] Memory required for data: 17597600
I0401 18:02:20.470594 25052 layer_factory.hpp:77] Creating layer conv2
I0401 18:02:20.470603 25052 net.cpp:91] Creating Layer conv2
I0401 18:02:20.470608 25052 net.cpp:425] conv2 <- pool1
I0401 18:02:20.470614 25052 net.cpp:399] conv2 -> conv2
I0401 18:02:20.471344 25052 net.cpp:141] Setting up conv2
I0401 18:02:20.471356 25052 net.cpp:148] Top shape: 100 50 8 8 (320000)
I0401 18:02:20.471360 25052 net.cpp:156] Memory required for data: 18877600
I0401 18:02:20.471371 25052 layer_factory.hpp:77] Creating layer pool2
I0401 18:02:20.471379 25052 net.cpp:91] Creating Layer pool2
I0401 18:02:20.471382 25052 net.cpp:425] pool2 <- conv2
I0401 18:02:20.471388 25052 net.cpp:399] pool2 -> pool2
I0401 18:02:20.471428 25052 net.cpp:141] Setting up pool2
I0401 18:02:20.471436 25052 net.cpp:148] Top shape: 100 50 4 4 (80000)
I0401 18:02:20.471441 25052 net.cpp:156] Memory required for data: 19197600
I0401 18:02:20.471444 25052 layer_factory.hpp:77] Creating layer relu2
I0401 18:02:20.471449 25052 net.cpp:91] Creating Layer relu2
I0401 18:02:20.471453 25052 net.cpp:425] relu2 <- pool2
I0401 18:02:20.471459 25052 net.cpp:386] relu2 -> pool2 (in-place)
I0401 18:02:20.471465 25052 net.cpp:141] Setting up relu2
I0401 18:02:20.471470 25052 net.cpp:148] Top shape: 100 50 4 4 (80000)
I0401 18:02:20.471474 25052 net.cpp:156] Memory required for data: 19517600
I0401 18:02:20.471477 25052 layer_factory.hpp:77] Creating layer fc1
I0401 18:02:20.471487 25052 net.cpp:91] Creating Layer fc1
I0401 18:02:20.471490 25052 net.cpp:425] fc1 <- pool2
I0401 18:02:20.471495 25052 net.cpp:399] fc1 -> fc1
I0401 18:02:20.475267 25052 net.cpp:141] Setting up fc1
I0401 18:02:20.475281 25052 net.cpp:148] Top shape: 100 500 (50000)
I0401 18:02:20.475284 25052 net.cpp:156] Memory required for data: 19717600
I0401 18:02:20.475296 25052 layer_factory.hpp:77] Creating layer score
I0401 18:02:20.475304 25052 net.cpp:91] Creating Layer score
I0401 18:02:20.475308 25052 net.cpp:425] score <- fc1
I0401 18:02:20.475314 25052 net.cpp:399] score -> score
I0401 18:02:20.475460 25052 net.cpp:141] Setting up score
I0401 18:02:20.475468 25052 net.cpp:148] Top shape: 100 10 (1000)
I0401 18:02:20.475471 25052 net.cpp:156] Memory required for data: 19721600
I0401 18:02:20.475479 25052 layer_factory.hpp:77] Creating layer loss
I0401 18:02:20.475487 25052 net.cpp:91] Creating Layer loss
I0401 18:02:20.475492 25052 net.cpp:425] loss <- score
I0401 18:02:20.475495 25052 net.cpp:425] loss <- label
I0401 18:02:20.475502 25052 net.cpp:399] loss -> loss
I0401 18:02:20.475543 25052 net.cpp:141] Setting up loss
…
