…
I0315 15:31:31.295945 17324 solver.cpp:81] Creating training net from train_net file: prototxt/net0_train.prototxt
I0315 15:31:31.296303 17324 net.cpp:313] The NetState phase (0) differed from the phase (1) specified by a rule in layer accuracy
I0315 15:31:31.296452 17324 net.cpp:49] Initializing net from parameters: 
state {
  phase: TRAIN
}
layer {
  name: "data"
  type: "Data"
  top: "data"
  top: "label"
  transform_param {
    scale: 0.0039215689
  }
  data_param {
    source: "../mnist/mnist_train_lmdb"
    batch_size: 64
    backend: LMDB
  }
}
layer {
  name: "fc1"
  type: "InnerProduct"
  bottom: "data"
  top: "fc1"
  inner_product_param {
    num_output: 50
    weight_filler {
      type: "xavier"
    }
  }
}
layer {
  name: "sig1"
  type: "Sigmoid"
  bottom: "fc1"
  top: "sig1"
}
layer {
  name: "fc2"
  type: "InnerProduct"
  bottom: "sig1"
  top: "fc2"
  inner_product_param {
    num_output: 50
    weight_filler {
      type: "xavier"
    }
  }
}
layer {
  name: "sig2"
  type: "Sigmoid"
  bottom: "fc2"
  top: "sig2"
}
layer {
  name: "score"
  type: "InnerProduct"
  bottom: "sig2"
  top: "score"
  inner_product_param {
    num_output: 10
    weight_filler {
      type: "xavier"
    }
  }
}
layer {
  name: "loss"
  type: "SoftmaxWithLoss"
  bottom: "score"
  bottom: "label"
  top: "loss"
}
I0315 15:31:31.296793 17324 layer_factory.hpp:77] Creating layer data
I0315 15:31:31.297008 17324 net.cpp:91] Creating Layer data
I0315 15:31:31.297107 17324 net.cpp:399] data -> data
I0315 15:31:31.297144 17324 net.cpp:399] data -> label
I0315 15:31:31.297952 17351 db_lmdb.cpp:38] Opened lmdb ../mnist/mnist_train_lmdb
I0315 15:31:31.315431 17324 data_layer.cpp:41] output data size: 64,1,28,28
I0315 15:31:31.316613 17324 net.cpp:141] Setting up data
I0315 15:31:31.316710 17324 net.cpp:148] Top shape: 64 1 28 28 (50176)
I0315 15:31:31.316727 17324 net.cpp:148] Top shape: 64 (64)
I0315 15:31:31.316736 17324 net.cpp:156] Memory required for data: 200960
I0315 15:31:31.316753 17324 layer_factory.hpp:77] Creating layer fc1
I0315 15:31:31.316778 17324 net.cpp:91] Creating Layer fc1
I0315 15:31:31.316792 17324 net.cpp:425] fc1 <- data
I0315 15:31:31.316845 17324 net.cpp:399] fc1 -> fc1
I0315 15:31:31.317330 17324 net.cpp:141] Setting up fc1
I0315 15:31:31.317396 17324 net.cpp:148] Top shape: 64 50 (3200)
I0315 15:31:31.317412 17324 net.cpp:156] Memory required for data: 213760
I0315 15:31:31.317435 17324 layer_factory.hpp:77] Creating layer sig1
I0315 15:31:31.317457 17324 net.cpp:91] Creating Layer sig1
I0315 15:31:31.317482 17324 net.cpp:425] sig1 <- fc1
I0315 15:31:31.317495 17324 net.cpp:399] sig1 -> sig1
I0315 15:31:31.317607 17324 net.cpp:141] Setting up sig1
I0315 15:31:31.317693 17324 net.cpp:148] Top shape: 64 50 (3200)
I0315 15:31:31.317703 17324 net.cpp:156] Memory required for data: 226560
I0315 15:31:31.317715 17324 layer_factory.hpp:77] Creating layer fc2
I0315 15:31:31.317733 17324 net.cpp:91] Creating Layer fc2
I0315 15:31:31.317744 17324 net.cpp:425] fc2 <- sig1
I0315 15:31:31.317756 17324 net.cpp:399] fc2 -> fc2
I0315 15:31:31.318488 17324 net.cpp:141] Setting up fc2
I0315 15:31:31.318557 17324 net.cpp:148] Top shape: 64 50 (3200)
I0315 15:31:31.318567 17324 net.cpp:156] Memory required for data: 239360
I0315 15:31:31.318584 17324 layer_factory.hpp:77] Creating layer sig2
I0315 15:31:31.318599 17324 net.cpp:91] Creating Layer sig2
I0315 15:31:31.318610 17324 net.cpp:425] sig2 <- fc2
I0315 15:31:31.318624 17324 net.cpp:399] sig2 -> sig2
I0315 15:31:31.318661 17324 net.cpp:141] Setting up sig2
I0315 15:31:31.318697 17324 net.cpp:148] Top shape: 64 50 (3200)
I0315 15:31:31.318763 17324 net.cpp:156] Memory required for data: 252160
I0315 15:31:31.318776 17324 layer_factory.hpp:77] Creating layer score
I0315 15:31:31.318794 17324 net.cpp:91] Creating Layer score
I0315 15:31:31.318807 17324 net.cpp:425] score <- sig2
I0315 15:31:31.318825 17324 net.cpp:399] score -> score
I0315 15:31:31.319613 17324 net.cpp:141] Setting up score
I0315 15:31:31.319679 17324 net.cpp:148] Top shape: 64 10 (640)
I0315 15:31:31.319689 17324 net.cpp:156] Memory required for data: 254720
I0315 15:31:31.319706 17324 layer_factory.hpp:77] Creating layer loss
I0315 15:31:31.319723 17324 net.cpp:91] Creating Layer loss
I0315 15:31:31.319733 17324 net.cpp:425] loss <- score
I0315 15:31:31.319746 17324 net.cpp:425] loss <- label
I0315 15:31:31.319763 17324 net.cpp:399] loss -> loss
I0315 15:31:31.319790 17324 layer_factory.hpp:77] Creating layer loss
…
I0315 15:31:31.320097 17324 net.cpp:261] This network produces output loss
I0315 15:31:31.320111 17324 net.cpp:274] Network initialization done.
I0315 15:31:31.320361 17324 solver.cpp:181] Creating test net (#0) specified by test_net file: prototxt/net0_test.prototxt
I0315 15:31:31.320538 17324 net.cpp:49] Initializing net from parameters: 
state {
  phase: TEST
}
layer {
  name: "data"
  type: "Data"
  top: "data"
  top: "label"
  transform_param {
    scale: 0.0039215689
  }
  data_param {
    source: "../mnist/mnist_test_lmdb"
    batch_size: 100
    backend: LMDB
  }
}
layer {
  name: "fc1"
  type: "InnerProduct"
  bottom: "data"
  top: "fc1"
  inner_product_param {
    num_output: 50
    weight_filler {
      type: "xavier"
    }
  }
}
layer {
  name: "sig1"
  type: "Sigmoid"
  bottom: "fc1"
  top: "sig1"
}
layer {
  name: "fc2"
  type: "InnerProduct"
  bottom: "sig1"
  top: "fc2"
  inner_product_param {
    num_output: 50
    weight_filler {
      type: "xavier"
    }
  }
}
layer {
  name: "sig2"
  type: "Sigmoid"
  bottom: "fc2"
  top: "sig2"
}
layer {
  name: "score"
  type: "InnerProduct"
  bottom: "sig2"
  top: "score"
  inner_product_param {
    num_output: 10
    weight_filler {
      type: "xavier"
    }
  }
}
layer {
  name: "accuracy"
  type: "Accuracy"
  bottom: "score"
  bottom: "label"
  top: "accuracy"
  include {
    phase: TEST
  }
}
layer {
  name: "loss"
  type: "SoftmaxWithLoss"
  bottom: "score"
  bottom: "label"
  top: "loss"
}
I0315 15:31:31.320912 17324 layer_factory.hpp:77] Creating layer data
I0315 15:31:31.321071 17324 net.cpp:91] Creating Layer data
I0315 15:31:31.321151 17324 net.cpp:399] data -> data
I0315 15:31:31.321168 17324 net.cpp:399] data -> label
I0315 15:31:31.321836 17353 db_lmdb.cpp:38] Opened lmdb ../mnist/mnist_test_lmdb
I0315 15:31:31.321982 17324 data_layer.cpp:41] output data size: 100,1,28,28
I0315 15:31:31.323276 17324 net.cpp:141] Setting up data
I0315 15:31:31.323356 17324 net.cpp:148] Top shape: 100 1 28 28 (78400)
I0315 15:31:31.323371 17324 net.cpp:148] Top shape: 100 (100)
I0315 15:31:31.323381 17324 net.cpp:156] Memory required for data: 314000
I0315 15:31:31.323395 17324 layer_factory.hpp:77] Creating layer label_data_1_split
I0315 15:31:31.323415 17324 net.cpp:91] Creating Layer label_data_1_split
I0315 15:31:31.323426 17324 net.cpp:425] label_data_1_split <- label
I0315 15:31:31.323441 17324 net.cpp:399] label_data_1_split -> label_data_1_split_0
I0315 15:31:31.323472 17324 net.cpp:399] label_data_1_split -> label_data_1_split_1
I0315 15:31:31.323535 17324 net.cpp:141] Setting up label_data_1_split
I0315 15:31:31.323578 17324 net.cpp:148] Top shape: 100 (100)
I0315 15:31:31.323592 17324 net.cpp:148] Top shape: 100 (100)
I0315 15:31:31.323601 17324 net.cpp:156] Memory required for data: 314800
I0315 15:31:31.323611 17324 layer_factory.hpp:77] Creating layer fc1
I0315 15:31:31.323627 17324 net.cpp:91] Creating Layer fc1
I0315 15:31:31.323638 17324 net.cpp:425] fc1 <- data
I0315 15:31:31.323650 17324 net.cpp:399] fc1 -> fc1
I0315 15:31:31.324167 17324 net.cpp:141] Setting up fc1
I0315 15:31:31.324213 17324 net.cpp:148] Top shape: 100 50 (5000)
I0315 15:31:31.324225 17324 net.cpp:156] Memory required for data: 334800
I0315 15:31:31.324242 17324 layer_factory.hpp:77] Creating layer sig1
I0315 15:31:31.324259 17324 net.cpp:91] Creating Layer sig1
I0315 15:31:31.324270 17324 net.cpp:425] sig1 <- fc1
I0315 15:31:31.324282 17324 net.cpp:399] sig1 -> sig1
I0315 15:31:31.324324 17324 net.cpp:141] Setting up sig1
I0315 15:31:31.324342 17324 net.cpp:148] Top shape: 100 50 (5000)
I0315 15:31:31.324354 17324 net.cpp:156] Memory required for data: 354800
I0315 15:31:31.324365 17324 layer_factory.hpp:77] Creating layer fc2
I0315 15:31:31.324383 17324 net.cpp:91] Creating Layer fc2
I0315 15:31:31.324393 17324 net.cpp:425] fc2 <- sig1
I0315 15:31:31.324409 17324 net.cpp:399] fc2 -> fc2
I0315 15:31:31.324559 17324 net.cpp:141] Setting up fc2
I0315 15:31:31.324605 17324 net.cpp:148] Top shape: 100 50 (5000)
I0315 15:31:31.324617 17324 net.cpp:156] Memory required for data: 374800
I0315 15:31:31.324635 17324 layer_factory.hpp:77] Creating layer sig2
I0315 15:31:31.324651 17324 net.cpp:91] Creating Layer sig2
I0315 15:31:31.324661 17324 net.cpp:425] sig2 <- fc2
I0315 15:31:31.324676 17324 net.cpp:399] sig2 -> sig2
I0315 15:31:31.324717 17324 net.cpp:141] Setting up sig2
I0315 15:31:31.324734 17324 net.cpp:148] Top shape: 100 50 (5000)
I0315 15:31:31.324748 17324 net.cpp:156] Memory required for data: 394800
I0315 15:31:31.324759 17324 layer_factory.hpp:77] Creating layer score
I0315 15:31:31.324771 17324 net.cpp:91] Creating Layer score
I0315 15:31:31.324781 17324 net.cpp:425] score <- sig2
I0315 15:31:31.324798 17324 net.cpp:399] score -> score
I0315 15:31:31.324928 17324 net.cpp:141] Setting up score
I0315 15:31:31.324972 17324 net.cpp:148] Top shape: 100 10 (1000)
I0315 15:31:31.324985 17324 net.cpp:156] Memory required for data: 398800
I0315 15:31:31.325001 17324 layer_factory.hpp:77] Creating layer score_score_0_split
I0315 15:31:31.325014 17324 net.cpp:91] Creating Layer score_score_0_split
I0315 15:31:31.325024 17324 net.cpp:425] score_score_0_split <- score
I0315 15:31:31.325038 17324 net.cpp:399] score_score_0_split -> score_score_0_split_0
I0315 15:31:31.325055 17324 net.cpp:399] score_score_0_split -> score_score_0_split_1
I0315 15:31:31.325112 17324 net.cpp:141] Setting up score_score_0_split
I0315 15:31:31.325156 17324 net.cpp:148] Top shape: 100 10 (1000)
I0315 15:31:31.325170 17324 net.cpp:148] Top shape: 100 10 (1000)
I0315 15:31:31.325181 17324 net.cpp:156] Memory required for data: 406800
I0315 15:31:31.325191 17324 layer_factory.hpp:77] Creating layer accuracy
I0315 15:31:31.325209 17324 net.cpp:91] Creating Layer accuracy
I0315 15:31:31.325223 17324 net.cpp:425] accuracy <- score_score_0_split_0
I0315 15:31:31.325235 17324 net.cpp:425] accuracy <- label_data_1_split_0
I0315 15:31:31.325251 17324 net.cpp:399] accuracy -> accuracy
…
