…
I0315 15:36:41.540042 17404 solver.cpp:81] Creating training net from train_net file: prototxt/net1_train.prototxt
I0315 15:36:41.540365 17404 net.cpp:313] The NetState phase (0) differed from the phase (1) specified by a rule in layer accuracy
I0315 15:36:41.540463 17404 net.cpp:49] Initializing net from parameters: 
state {
  phase: TRAIN
}
layer {
  name: "data"
  type: "Data"
  top: "data"
  top: "label"
  transform_param {
    scale: 0.0039215689
  }
  data_param {
    source: "../mnist/mnist_train_lmdb"
    batch_size: 64
    backend: LMDB
  }
}
layer {
  name: "conv1"
  type: "Convolution"
  bottom: "data"
  top: "conv1"
  convolution_param {
    num_output: 50
    kernel_size: 5
    weight_filler {
      type: "xavier"
    }
  }
}
layer {
  name: "relu1"
  type: "ReLU"
  bottom: "conv1"
  top: "conv1"
}
layer {
  name: "fc1"
  type: "InnerProduct"
  bottom: "conv1"
  top: "fc1"
  inner_product_param {
    num_output: 500
    weight_filler {
      type: "xavier"
    }
  }
}
layer {
  name: "score"
  type: "InnerProduct"
  bottom: "fc1"
  top: "score"
  inner_product_param {
    num_output: 10
    weight_filler {
      type: "xavier"
    }
  }
}
layer {
  name: "loss"
  type: "SoftmaxWithLoss"
  bottom: "score"
  bottom: "label"
  top: "loss"
}
I0315 15:36:41.540751 17404 layer_factory.hpp:77] Creating layer data
I0315 15:36:41.540940 17404 net.cpp:91] Creating Layer data
I0315 15:36:41.540966 17404 net.cpp:399] data -> data
I0315 15:36:41.541007 17404 net.cpp:399] data -> label
I0315 15:36:41.541851 17431 db_lmdb.cpp:38] Opened lmdb ../mnist/mnist_train_lmdb
I0315 15:36:41.558540 17404 data_layer.cpp:41] output data size: 64,1,28,28
I0315 15:36:41.559738 17404 net.cpp:141] Setting up data
I0315 15:36:41.559772 17404 net.cpp:148] Top shape: 64 1 28 28 (50176)
I0315 15:36:41.559788 17404 net.cpp:148] Top shape: 64 (64)
I0315 15:36:41.559798 17404 net.cpp:156] Memory required for data: 200960
I0315 15:36:41.559816 17404 layer_factory.hpp:77] Creating layer conv1
I0315 15:36:41.559849 17404 net.cpp:91] Creating Layer conv1
I0315 15:36:41.559867 17404 net.cpp:425] conv1 <- data
I0315 15:36:41.559890 17404 net.cpp:399] conv1 -> conv1
I0315 15:36:41.561491 17404 net.cpp:141] Setting up conv1
I0315 15:36:41.561517 17404 net.cpp:148] Top shape: 64 50 24 24 (1843200)
I0315 15:36:41.561527 17404 net.cpp:156] Memory required for data: 7573760
I0315 15:36:41.561553 17404 layer_factory.hpp:77] Creating layer relu1
I0315 15:36:41.561573 17404 net.cpp:91] Creating Layer relu1
I0315 15:36:41.561583 17404 net.cpp:425] relu1 <- conv1
I0315 15:36:41.561595 17404 net.cpp:386] relu1 -> conv1 (in-place)
I0315 15:36:41.561612 17404 net.cpp:141] Setting up relu1
I0315 15:36:41.561627 17404 net.cpp:148] Top shape: 64 50 24 24 (1843200)
I0315 15:36:41.561636 17404 net.cpp:156] Memory required for data: 14946560
I0315 15:36:41.561646 17404 layer_factory.hpp:77] Creating layer fc1
I0315 15:36:41.561669 17404 net.cpp:91] Creating Layer fc1
I0315 15:36:41.561681 17404 net.cpp:425] fc1 <- conv1
I0315 15:36:41.561693 17404 net.cpp:399] fc1 -> fc1
I0315 15:36:41.692445 17404 net.cpp:141] Setting up fc1
I0315 15:36:41.692495 17404 net.cpp:148] Top shape: 64 500 (32000)
I0315 15:36:41.692507 17404 net.cpp:156] Memory required for data: 15074560
I0315 15:36:41.692531 17404 layer_factory.hpp:77] Creating layer score
I0315 15:36:41.692558 17404 net.cpp:91] Creating Layer score
I0315 15:36:41.692569 17404 net.cpp:425] score <- fc1
I0315 15:36:41.692584 17404 net.cpp:399] score -> score
I0315 15:36:41.693451 17404 net.cpp:141] Setting up score
I0315 15:36:41.693475 17404 net.cpp:148] Top shape: 64 10 (640)
I0315 15:36:41.693516 17404 net.cpp:156] Memory required for data: 15077120
I0315 15:36:41.693533 17404 layer_factory.hpp:77] Creating layer loss
I0315 15:36:41.693552 17404 net.cpp:91] Creating Layer loss
I0315 15:36:41.693567 17404 net.cpp:425] loss <- score
I0315 15:36:41.693578 17404 net.cpp:425] loss <- label
I0315 15:36:41.693593 17404 net.cpp:399] loss -> loss
I0315 15:36:41.693621 17404 layer_factory.hpp:77] Creating layer loss
…
I0315 15:36:41.693889 17404 net.cpp:261] This network produces output loss
I0315 15:36:41.693903 17404 net.cpp:274] Network initialization done.
I0315 15:36:41.694147 17404 solver.cpp:181] Creating test net (#0) specified by test_net file: prototxt/net1_test.prototxt
I0315 15:36:41.694279 17404 net.cpp:49] Initializing net from parameters: 
state {
  phase: TEST
}
layer {
  name: "data"
  type: "Data"
  top: "data"
  top: "label"
  transform_param {
    scale: 0.0039215689
  }
  data_param {
    source: "../mnist/mnist_test_lmdb"
    batch_size: 100
    backend: LMDB
  }
}
layer {
  name: "conv1"
  type: "Convolution"
  bottom: "data"
  top: "conv1"
  convolution_param {
    num_output: 50
    kernel_size: 5
    weight_filler {
      type: "xavier"
    }
  }
}
layer {
  name: "relu1"
  type: "ReLU"
  bottom: "conv1"
  top: "conv1"
}
layer {
  name: "fc1"
  type: "InnerProduct"
  bottom: "conv1"
  top: "fc1"
  inner_product_param {
    num_output: 500
    weight_filler {
      type: "xavier"
    }
  }
}
layer {
  name: "score"
  type: "InnerProduct"
  bottom: "fc1"
  top: "score"
  inner_product_param {
    num_output: 10
    weight_filler {
      type: "xavier"
    }
  }
}
layer {
  name: "accuracy"
  type: "Accuracy"
  bottom: "score"
  bottom: "label"
  top: "accuracy"
  include {
    phase: TEST
  }
}
layer {
  name: "loss"
  type: "SoftmaxWithLoss"
  bottom: "score"
  bottom: "label"
  top: "loss"
}
I0315 15:36:41.694607 17404 layer_factory.hpp:77] Creating layer data
I0315 15:36:41.694769 17404 net.cpp:91] Creating Layer data
I0315 15:36:41.694788 17404 net.cpp:399] data -> data
I0315 15:36:41.694804 17404 net.cpp:399] data -> label
I0315 15:36:41.695544 17433 db_lmdb.cpp:38] Opened lmdb ../mnist/mnist_test_lmdb
I0315 15:36:41.695852 17404 data_layer.cpp:41] output data size: 100,1,28,28
I0315 15:36:41.697160 17404 net.cpp:141] Setting up data
I0315 15:36:41.697182 17404 net.cpp:148] Top shape: 100 1 28 28 (78400)
I0315 15:36:41.697195 17404 net.cpp:148] Top shape: 100 (100)
I0315 15:36:41.697203 17404 net.cpp:156] Memory required for data: 314000
I0315 15:36:41.697214 17404 layer_factory.hpp:77] Creating layer label_data_1_split
I0315 15:36:41.697232 17404 net.cpp:91] Creating Layer label_data_1_split
I0315 15:36:41.697243 17404 net.cpp:425] label_data_1_split <- label
I0315 15:36:41.697255 17404 net.cpp:399] label_data_1_split -> label_data_1_split_0
I0315 15:36:41.697269 17404 net.cpp:399] label_data_1_split -> label_data_1_split_1
I0315 15:36:41.697432 17404 net.cpp:141] Setting up label_data_1_split
I0315 15:36:41.697460 17404 net.cpp:148] Top shape: 100 (100)
I0315 15:36:41.697471 17404 net.cpp:148] Top shape: 100 (100)
I0315 15:36:41.697481 17404 net.cpp:156] Memory required for data: 314800
I0315 15:36:41.697491 17404 layer_factory.hpp:77] Creating layer conv1
I0315 15:36:41.697510 17404 net.cpp:91] Creating Layer conv1
I0315 15:36:41.697521 17404 net.cpp:425] conv1 <- data
I0315 15:36:41.697552 17404 net.cpp:399] conv1 -> conv1
I0315 15:36:41.697842 17404 net.cpp:141] Setting up conv1
I0315 15:36:41.697863 17404 net.cpp:148] Top shape: 100 50 24 24 (2880000)
I0315 15:36:41.697873 17404 net.cpp:156] Memory required for data: 11834800
I0315 15:36:41.697890 17404 layer_factory.hpp:77] Creating layer relu1
I0315 15:36:41.697903 17404 net.cpp:91] Creating Layer relu1
I0315 15:36:41.697914 17404 net.cpp:425] relu1 <- conv1
I0315 15:36:41.697928 17404 net.cpp:386] relu1 -> conv1 (in-place)
I0315 15:36:41.697942 17404 net.cpp:141] Setting up relu1
I0315 15:36:41.697954 17404 net.cpp:148] Top shape: 100 50 24 24 (2880000)
I0315 15:36:41.697963 17404 net.cpp:156] Memory required for data: 23354800
I0315 15:36:41.697973 17404 layer_factory.hpp:77] Creating layer fc1
I0315 15:36:41.697985 17404 net.cpp:91] Creating Layer fc1
I0315 15:36:41.697995 17404 net.cpp:425] fc1 <- conv1
I0315 15:36:41.698009 17404 net.cpp:399] fc1 -> fc1
I0315 15:36:41.829147 17404 net.cpp:141] Setting up fc1
I0315 15:36:41.829200 17404 net.cpp:148] Top shape: 100 500 (50000)
I0315 15:36:41.829211 17404 net.cpp:156] Memory required for data: 23554800
I0315 15:36:41.829237 17404 layer_factory.hpp:77] Creating layer score
I0315 15:36:41.829259 17404 net.cpp:91] Creating Layer score
I0315 15:36:41.829270 17404 net.cpp:425] score <- fc1
I0315 15:36:41.829290 17404 net.cpp:399] score -> score
I0315 15:36:41.829488 17404 net.cpp:141] Setting up score
I0315 15:36:41.829509 17404 net.cpp:148] Top shape: 100 10 (1000)
I0315 15:36:41.829517 17404 net.cpp:156] Memory required for data: 23558800
I0315 15:36:41.829533 17404 layer_factory.hpp:77] Creating layer score_score_0_split
I0315 15:36:41.829547 17404 net.cpp:91] Creating Layer score_score_0_split
I0315 15:36:41.829557 17404 net.cpp:425] score_score_0_split <- score
I0315 15:36:41.829569 17404 net.cpp:399] score_score_0_split -> score_score_0_split_0
I0315 15:36:41.829583 17404 net.cpp:399] score_score_0_split -> score_score_0_split_1
I0315 15:36:41.829635 17404 net.cpp:141] Setting up score_score_0_split
I0315 15:36:41.829653 17404 net.cpp:148] Top shape: 100 10 (1000)
I0315 15:36:41.829664 17404 net.cpp:148] Top shape: 100 10 (1000)
I0315 15:36:41.829674 17404 net.cpp:156] Memory required for data: 23566800
I0315 15:36:41.829682 17404 layer_factory.hpp:77] Creating layer accuracy
I0315 15:36:41.829702 17404 net.cpp:91] Creating Layer accuracy
I0315 15:36:41.829712 17404 net.cpp:425] accuracy <- score_score_0_split_0
I0315 15:36:41.829733 17404 net.cpp:425] accuracy <- label_data_1_split_0
I0315 15:36:41.829746 17404 net.cpp:399] accuracy -> accuracy
…
