…
I0325 17:11:54.626269  3167 solver.cpp:81] Creating training net from train_net file: prototxt/net0_train.prototxt
I0325 17:11:54.626520  3167 net.cpp:313] The NetState phase (0) differed from the phase (1) specified by a rule in layer accuracy
I0325 17:11:54.626600  3167 net.cpp:49] Initializing net from parameters: 
state {
  phase: TRAIN
}
layer {
  name: "data"
  type: "Data"
  top: "data"
  top: "label"
  transform_param {
    scale: 0.0039215689
  }
  data_param {
    source: "../mnist/mnist_train_lmdb"
    batch_size: 64
    backend: LMDB
  }
}
layer {
  name: "fc1"
  type: "InnerProduct"
  bottom: "data"
  top: "fc1"
  inner_product_param {
    num_output: 50
    weight_filler {
      type: "xavier"
    }
  }
}
layer {
  name: "sig1"
  type: "Sigmoid"
  bottom: "fc1"
  top: "sig1"
}
layer {
  name: "fc2"
  type: "InnerProduct"
  bottom: "sig1"
  top: "fc2"
  inner_product_param {
    num_output: 50
    weight_filler {
      type: "xavier"
    }
  }
}
layer {
  name: "sig2"
  type: "Sigmoid"
  bottom: "fc2"
  top: "sig2"
}
layer {
  name: "score"
  type: "InnerProduct"
  bottom: "sig2"
  top: "score"
  inner_product_param {
    num_output: 10
    weight_filler {
      type: "xavier"
    }
  }
}
layer {
  name: "loss"
  type: "SoftmaxWithLoss"
  bottom: "score"
  bottom: "label"
  top: "loss"
}
I0325 17:11:54.626642  3167 layer_factory.hpp:77] Creating layer data
I0325 17:11:54.626790  3167 net.cpp:91] Creating Layer data
I0325 17:11:54.626804  3167 net.cpp:399] data -> data
I0325 17:11:54.626823  3167 net.cpp:399] data -> label
I0325 17:11:54.627809  3200 db_lmdb.cpp:38] Opened lmdb ../mnist/mnist_train_lmdb
I0325 17:11:54.646754  3167 data_layer.cpp:41] output data size: 64,1,28,28
I0325 17:11:54.648119  3167 net.cpp:141] Setting up data
I0325 17:11:54.648160  3167 net.cpp:148] Top shape: 64 1 28 28 (50176)
I0325 17:11:54.648167  3167 net.cpp:148] Top shape: 64 (64)
I0325 17:11:54.648170  3167 net.cpp:156] Memory required for data: 200960
I0325 17:11:54.648181  3167 layer_factory.hpp:77] Creating layer fc1
I0325 17:11:54.648205  3167 net.cpp:91] Creating Layer fc1
I0325 17:11:54.648211  3167 net.cpp:425] fc1 <- data
I0325 17:11:54.648222  3167 net.cpp:399] fc1 -> fc1
I0325 17:11:54.648846  3167 net.cpp:141] Setting up fc1
I0325 17:11:54.648874  3167 net.cpp:148] Top shape: 64 50 (3200)
I0325 17:11:54.648879  3167 net.cpp:156] Memory required for data: 213760
I0325 17:11:54.648900  3167 layer_factory.hpp:77] Creating layer sig1
I0325 17:11:54.648913  3167 net.cpp:91] Creating Layer sig1
I0325 17:11:54.648918  3167 net.cpp:425] sig1 <- fc1
I0325 17:11:54.648926  3167 net.cpp:399] sig1 -> sig1
I0325 17:11:54.648957  3167 net.cpp:141] Setting up sig1
I0325 17:11:54.648964  3167 net.cpp:148] Top shape: 64 50 (3200)
I0325 17:11:54.648969  3167 net.cpp:156] Memory required for data: 226560
I0325 17:11:54.648973  3167 layer_factory.hpp:77] Creating layer fc2
I0325 17:11:54.648982  3167 net.cpp:91] Creating Layer fc2
I0325 17:11:54.648984  3167 net.cpp:425] fc2 <- sig1
I0325 17:11:54.648990  3167 net.cpp:399] fc2 -> fc2
I0325 17:11:54.649755  3167 net.cpp:141] Setting up fc2
I0325 17:11:54.649767  3167 net.cpp:148] Top shape: 64 50 (3200)
I0325 17:11:54.649770  3167 net.cpp:156] Memory required for data: 239360
I0325 17:11:54.649780  3167 layer_factory.hpp:77] Creating layer sig2
I0325 17:11:54.649791  3167 net.cpp:91] Creating Layer sig2
I0325 17:11:54.649794  3167 net.cpp:425] sig2 <- fc2
I0325 17:11:54.649799  3167 net.cpp:399] sig2 -> sig2
I0325 17:11:54.649845  3167 net.cpp:141] Setting up sig2
I0325 17:11:54.649854  3167 net.cpp:148] Top shape: 64 50 (3200)
I0325 17:11:54.649858  3167 net.cpp:156] Memory required for data: 252160
I0325 17:11:54.649862  3167 layer_factory.hpp:77] Creating layer score
I0325 17:11:54.649868  3167 net.cpp:91] Creating Layer score
I0325 17:11:54.649871  3167 net.cpp:425] score <- sig2
I0325 17:11:54.649879  3167 net.cpp:399] score -> score
I0325 17:11:54.650679  3167 net.cpp:141] Setting up score
I0325 17:11:54.650696  3167 net.cpp:148] Top shape: 64 10 (640)
I0325 17:11:54.650698  3167 net.cpp:156] Memory required for data: 254720
I0325 17:11:54.650709  3167 layer_factory.hpp:77] Creating layer loss
I0325 17:11:54.650722  3167 net.cpp:91] Creating Layer loss
I0325 17:11:54.650725  3167 net.cpp:425] loss <- score
I0325 17:11:54.650730  3167 net.cpp:425] loss <- label
I0325 17:11:54.650738  3167 net.cpp:399] loss -> loss
I0325 17:11:54.650753  3167 layer_factory.hpp:77] Creating layer loss
…
I0325 17:11:54.650928  3167 net.cpp:261] This network produces output loss
I0325 17:11:54.650934  3167 net.cpp:274] Network initialization done.
I0325 17:11:54.651199  3167 solver.cpp:181] Creating test net (#0) specified by test_net file: prototxt/net0_test.prototxt
I0325 17:11:54.651325  3167 net.cpp:49] Initializing net from parameters: 
state {
  phase: TEST
}
layer {
  name: "data"
  type: "Data"
  top: "data"
  top: "label"
  transform_param {
    scale: 0.0039215689
  }
  data_param {
    source: "../mnist/mnist_test_lmdb"
    batch_size: 100
    backend: LMDB
  }
}
layer {
  name: "fc1"
  type: "InnerProduct"
  bottom: "data"
  top: "fc1"
  inner_product_param {
    num_output: 50
    weight_filler {
      type: "xavier"
    }
  }
}
layer {
  name: "sig1"
  type: "Sigmoid"
  bottom: "fc1"
  top: "sig1"
}
layer {
  name: "fc2"
  type: "InnerProduct"
  bottom: "sig1"
  top: "fc2"
  inner_product_param {
    num_output: 50
    weight_filler {
      type: "xavier"
    }
  }
}
layer {
  name: "sig2"
  type: "Sigmoid"
  bottom: "fc2"
  top: "sig2"
}
layer {
  name: "score"
  type: "InnerProduct"
  bottom: "sig2"
  top: "score"
  inner_product_param {
    num_output: 10
    weight_filler {
      type: "xavier"
    }
  }
}
layer {
  name: "accuracy"
  type: "Accuracy"
  bottom: "score"
  bottom: "label"
  top: "accuracy"
  include {
    phase: TEST
  }
}
layer {
  name: "loss"
  type: "SoftmaxWithLoss"
  bottom: "score"
  bottom: "label"
  top: "loss"
}
I0325 17:11:54.651392  3167 layer_factory.hpp:77] Creating layer data
I0325 17:11:54.651531  3167 net.cpp:91] Creating Layer data
I0325 17:11:54.651542  3167 net.cpp:399] data -> data
I0325 17:11:54.651552  3167 net.cpp:399] data -> label
I0325 17:11:54.652770  3202 db_lmdb.cpp:38] Opened lmdb ../mnist/mnist_test_lmdb
I0325 17:11:54.653048  3167 data_layer.cpp:41] output data size: 100,1,28,28
I0325 17:11:54.654608  3167 net.cpp:141] Setting up data
I0325 17:11:54.654639  3167 net.cpp:148] Top shape: 100 1 28 28 (78400)
I0325 17:11:54.654645  3167 net.cpp:148] Top shape: 100 (100)
I0325 17:11:54.654649  3167 net.cpp:156] Memory required for data: 314000
I0325 17:11:54.654656  3167 layer_factory.hpp:77] Creating layer label_data_1_split
I0325 17:11:54.654677  3167 net.cpp:91] Creating Layer label_data_1_split
I0325 17:11:54.654682  3167 net.cpp:425] label_data_1_split <- label
I0325 17:11:54.654690  3167 net.cpp:399] label_data_1_split -> label_data_1_split_0
I0325 17:11:54.654705  3167 net.cpp:399] label_data_1_split -> label_data_1_split_1
I0325 17:11:54.654844  3167 net.cpp:141] Setting up label_data_1_split
I0325 17:11:54.654855  3167 net.cpp:148] Top shape: 100 (100)
I0325 17:11:54.654860  3167 net.cpp:148] Top shape: 100 (100)
I0325 17:11:54.654863  3167 net.cpp:156] Memory required for data: 314800
I0325 17:11:54.654867  3167 layer_factory.hpp:77] Creating layer fc1
I0325 17:11:54.654882  3167 net.cpp:91] Creating Layer fc1
I0325 17:11:54.654886  3167 net.cpp:425] fc1 <- data
I0325 17:11:54.654892  3167 net.cpp:399] fc1 -> fc1
I0325 17:11:54.655325  3167 net.cpp:141] Setting up fc1
I0325 17:11:54.655339  3167 net.cpp:148] Top shape: 100 50 (5000)
I0325 17:11:54.655344  3167 net.cpp:156] Memory required for data: 334800
I0325 17:11:54.655356  3167 layer_factory.hpp:77] Creating layer sig1
I0325 17:11:54.655364  3167 net.cpp:91] Creating Layer sig1
I0325 17:11:54.655369  3167 net.cpp:425] sig1 <- fc1
I0325 17:11:54.655374  3167 net.cpp:399] sig1 -> sig1
I0325 17:11:54.655401  3167 net.cpp:141] Setting up sig1
I0325 17:11:54.655410  3167 net.cpp:148] Top shape: 100 50 (5000)
I0325 17:11:54.655412  3167 net.cpp:156] Memory required for data: 354800
I0325 17:11:54.655416  3167 layer_factory.hpp:77] Creating layer fc2
I0325 17:11:54.655429  3167 net.cpp:91] Creating Layer fc2
I0325 17:11:54.655433  3167 net.cpp:425] fc2 <- sig1
I0325 17:11:54.655441  3167 net.cpp:399] fc2 -> fc2
I0325 17:11:54.655843  3167 net.cpp:141] Setting up fc2
I0325 17:11:54.655863  3167 net.cpp:148] Top shape: 100 50 (5000)
I0325 17:11:54.655865  3167 net.cpp:156] Memory required for data: 374800
I0325 17:11:54.655879  3167 layer_factory.hpp:77] Creating layer sig2
I0325 17:11:54.655890  3167 net.cpp:91] Creating Layer sig2
I0325 17:11:54.655894  3167 net.cpp:425] sig2 <- fc2
I0325 17:11:54.655901  3167 net.cpp:399] sig2 -> sig2
I0325 17:11:54.655936  3167 net.cpp:141] Setting up sig2
I0325 17:11:54.655943  3167 net.cpp:148] Top shape: 100 50 (5000)
I0325 17:11:54.655947  3167 net.cpp:156] Memory required for data: 394800
I0325 17:11:54.655951  3167 layer_factory.hpp:77] Creating layer score
I0325 17:11:54.655959  3167 net.cpp:91] Creating Layer score
I0325 17:11:54.655962  3167 net.cpp:425] score <- sig2
I0325 17:11:54.655968  3167 net.cpp:399] score -> score
I0325 17:11:54.656085  3167 net.cpp:141] Setting up score
I0325 17:11:54.656095  3167 net.cpp:148] Top shape: 100 10 (1000)
I0325 17:11:54.656100  3167 net.cpp:156] Memory required for data: 398800
I0325 17:11:54.656110  3167 layer_factory.hpp:77] Creating layer score_score_0_split
I0325 17:11:54.656119  3167 net.cpp:91] Creating Layer score_score_0_split
I0325 17:11:54.656123  3167 net.cpp:425] score_score_0_split <- score
I0325 17:11:54.656129  3167 net.cpp:399] score_score_0_split -> score_score_0_split_0
I0325 17:11:54.656136  3167 net.cpp:399] score_score_0_split -> score_score_0_split_1
I0325 17:11:54.656186  3167 net.cpp:141] Setting up score_score_0_split
I0325 17:11:54.656194  3167 net.cpp:148] Top shape: 100 10 (1000)
I0325 17:11:54.656198  3167 net.cpp:148] Top shape: 100 10 (1000)
I0325 17:11:54.656201  3167 net.cpp:156] Memory required for data: 406800
I0325 17:11:54.656205  3167 layer_factory.hpp:77] Creating layer accuracy
I0325 17:11:54.656224  3167 net.cpp:91] Creating Layer accuracy
I0325 17:11:54.656227  3167 net.cpp:425] accuracy <- score_score_0_split_0
I0325 17:11:54.656232  3167 net.cpp:425] accuracy <- label_data_1_split_0
I0325 17:11:54.656237  3167 net.cpp:399] accuracy -> accuracy
…
