…
I0325 17:12:07.389972  3167 solver.cpp:81] Creating training net from train_net file: prototxt/net1_train.prototxt
I0325 17:12:07.390265  3167 net.cpp:313] The NetState phase (0) differed from the phase (1) specified by a rule in layer accuracy
I0325 17:12:07.390341  3167 net.cpp:49] Initializing net from parameters: 
state {
  phase: TRAIN
}
layer {
  name: "data"
  type: "Data"
  top: "data"
  top: "label"
  transform_param {
    scale: 0.0039215689
  }
  data_param {
    source: "../mnist/mnist_train_lmdb"
    batch_size: 64
    backend: LMDB
  }
}
layer {
  name: "conv1"
  type: "Convolution"
  bottom: "data"
  top: "conv1"
  convolution_param {
    num_output: 50
    kernel_size: 5
    weight_filler {
      type: "xavier"
    }
  }
}
layer {
  name: "relu1"
  type: "ReLU"
  bottom: "conv1"
  top: "conv1"
}
layer {
  name: "fc1"
  type: "InnerProduct"
  bottom: "conv1"
  top: "fc1"
  inner_product_param {
    num_output: 500
    weight_filler {
      type: "xavier"
    }
  }
}
layer {
  name: "score"
  type: "InnerProduct"
  bottom: "fc1"
  top: "score"
  inner_product_param {
    num_output: 10
    weight_filler {
      type: "xavier"
    }
  }
}
layer {
  name: "loss"
  type: "SoftmaxWithLoss"
  bottom: "score"
  bottom: "label"
  top: "loss"
}
I0325 17:12:07.390388  3167 layer_factory.hpp:77] Creating layer data
I0325 17:12:07.390516  3167 net.cpp:91] Creating Layer data
I0325 17:12:07.390528  3167 net.cpp:399] data -> data
I0325 17:12:07.390545  3167 net.cpp:399] data -> label
I0325 17:12:07.391850  3204 db_lmdb.cpp:38] Opened lmdb ../mnist/mnist_train_lmdb
I0325 17:12:07.392901  3167 data_layer.cpp:41] output data size: 64,1,28,28
I0325 17:12:07.394217  3167 net.cpp:141] Setting up data
I0325 17:12:07.394238  3167 net.cpp:148] Top shape: 64 1 28 28 (50176)
I0325 17:12:07.394243  3167 net.cpp:148] Top shape: 64 (64)
I0325 17:12:07.394248  3167 net.cpp:156] Memory required for data: 200960
I0325 17:12:07.394258  3167 layer_factory.hpp:77] Creating layer conv1
I0325 17:12:07.394284  3167 net.cpp:91] Creating Layer conv1
I0325 17:12:07.394290  3167 net.cpp:425] conv1 <- data
I0325 17:12:07.394300  3167 net.cpp:399] conv1 -> conv1
I0325 17:12:07.396011  3167 net.cpp:141] Setting up conv1
I0325 17:12:07.396039  3167 net.cpp:148] Top shape: 64 50 24 24 (1843200)
I0325 17:12:07.396044  3167 net.cpp:156] Memory required for data: 7573760
I0325 17:12:07.396064  3167 layer_factory.hpp:77] Creating layer relu1
I0325 17:12:07.396076  3167 net.cpp:91] Creating Layer relu1
I0325 17:12:07.396081  3167 net.cpp:425] relu1 <- conv1
I0325 17:12:07.396088  3167 net.cpp:386] relu1 -> conv1 (in-place)
I0325 17:12:07.396100  3167 net.cpp:141] Setting up relu1
I0325 17:12:07.396105  3167 net.cpp:148] Top shape: 64 50 24 24 (1843200)
I0325 17:12:07.396107  3167 net.cpp:156] Memory required for data: 14946560
I0325 17:12:07.396111  3167 layer_factory.hpp:77] Creating layer fc1
I0325 17:12:07.396121  3167 net.cpp:91] Creating Layer fc1
I0325 17:12:07.396124  3167 net.cpp:425] fc1 <- conv1
I0325 17:12:07.396129  3167 net.cpp:399] fc1 -> fc1
I0325 17:12:07.536579  3167 net.cpp:141] Setting up fc1
I0325 17:12:07.536618  3167 net.cpp:148] Top shape: 64 500 (32000)
I0325 17:12:07.536623  3167 net.cpp:156] Memory required for data: 15074560
I0325 17:12:07.536645  3167 layer_factory.hpp:77] Creating layer score
I0325 17:12:07.536664  3167 net.cpp:91] Creating Layer score
I0325 17:12:07.536669  3167 net.cpp:425] score <- fc1
I0325 17:12:07.536679  3167 net.cpp:399] score -> score
I0325 17:12:07.537518  3167 net.cpp:141] Setting up score
I0325 17:12:07.537529  3167 net.cpp:148] Top shape: 64 10 (640)
I0325 17:12:07.537533  3167 net.cpp:156] Memory required for data: 15077120
I0325 17:12:07.537544  3167 layer_factory.hpp:77] Creating layer loss
I0325 17:12:07.537552  3167 net.cpp:91] Creating Layer loss
I0325 17:12:07.537556  3167 net.cpp:425] loss <- score
I0325 17:12:07.537561  3167 net.cpp:425] loss <- label
I0325 17:12:07.537567  3167 net.cpp:399] loss -> loss
I0325 17:12:07.537577  3167 layer_factory.hpp:77] Creating layer loss
…
I0325 17:12:07.537719  3167 net.cpp:261] This network produces output loss
I0325 17:12:07.537726  3167 net.cpp:274] Network initialization done.
I0325 17:12:07.537950  3167 solver.cpp:181] Creating test net (#0) specified by test_net file: prototxt/net1_test.prototxt
I0325 17:12:07.538058  3167 net.cpp:49] Initializing net from parameters: 
state {
  phase: TEST
}
layer {
  name: "data"
  type: "Data"
  top: "data"
  top: "label"
  transform_param {
    scale: 0.0039215689
  }
  data_param {
    source: "../mnist/mnist_test_lmdb"
    batch_size: 100
    backend: LMDB
  }
}
layer {
  name: "conv1"
  type: "Convolution"
  bottom: "data"
  top: "conv1"
  convolution_param {
    num_output: 50
    kernel_size: 5
    weight_filler {
      type: "xavier"
    }
  }
}
layer {
  name: "relu1"
  type: "ReLU"
  bottom: "conv1"
  top: "conv1"
}
layer {
  name: "fc1"
  type: "InnerProduct"
  bottom: "conv1"
  top: "fc1"
  inner_product_param {
    num_output: 500
    weight_filler {
      type: "xavier"
    }
  }
}
layer {
  name: "score"
  type: "InnerProduct"
  bottom: "fc1"
  top: "score"
  inner_product_param {
    num_output: 10
    weight_filler {
      type: "xavier"
    }
  }
}
layer {
  name: "accuracy"
  type: "Accuracy"
  bottom: "score"
  bottom: "label"
  top: "accuracy"
  include {
    phase: TEST
  }
}
layer {
  name: "loss"
  type: "SoftmaxWithLoss"
  bottom: "score"
  bottom: "label"
  top: "loss"
}
I0325 17:12:07.538115  3167 layer_factory.hpp:77] Creating layer data
I0325 17:12:07.538229  3167 net.cpp:91] Creating Layer data
I0325 17:12:07.538238  3167 net.cpp:399] data -> data
I0325 17:12:07.538246  3167 net.cpp:399] data -> label
I0325 17:12:07.539342  3206 db_lmdb.cpp:38] Opened lmdb ../mnist/mnist_test_lmdb
I0325 17:12:07.539531  3167 data_layer.cpp:41] output data size: 100,1,28,28
I0325 17:12:07.540846  3167 net.cpp:141] Setting up data
I0325 17:12:07.540859  3167 net.cpp:148] Top shape: 100 1 28 28 (78400)
I0325 17:12:07.540864  3167 net.cpp:148] Top shape: 100 (100)
I0325 17:12:07.540868  3167 net.cpp:156] Memory required for data: 314000
I0325 17:12:07.540874  3167 layer_factory.hpp:77] Creating layer label_data_1_split
I0325 17:12:07.540882  3167 net.cpp:91] Creating Layer label_data_1_split
I0325 17:12:07.540886  3167 net.cpp:425] label_data_1_split <- label
I0325 17:12:07.540892  3167 net.cpp:399] label_data_1_split -> label_data_1_split_0
I0325 17:12:07.540901  3167 net.cpp:399] label_data_1_split -> label_data_1_split_1
I0325 17:12:07.541115  3167 net.cpp:141] Setting up label_data_1_split
I0325 17:12:07.541127  3167 net.cpp:148] Top shape: 100 (100)
I0325 17:12:07.541131  3167 net.cpp:148] Top shape: 100 (100)
I0325 17:12:07.541134  3167 net.cpp:156] Memory required for data: 314800
I0325 17:12:07.541138  3167 layer_factory.hpp:77] Creating layer conv1
I0325 17:12:07.541151  3167 net.cpp:91] Creating Layer conv1
I0325 17:12:07.541154  3167 net.cpp:425] conv1 <- data
I0325 17:12:07.541160  3167 net.cpp:399] conv1 -> conv1
I0325 17:12:07.541507  3167 net.cpp:141] Setting up conv1
I0325 17:12:07.541518  3167 net.cpp:148] Top shape: 100 50 24 24 (2880000)
I0325 17:12:07.541522  3167 net.cpp:156] Memory required for data: 11834800
I0325 17:12:07.541532  3167 layer_factory.hpp:77] Creating layer relu1
I0325 17:12:07.541540  3167 net.cpp:91] Creating Layer relu1
I0325 17:12:07.541544  3167 net.cpp:425] relu1 <- conv1
I0325 17:12:07.541550  3167 net.cpp:386] relu1 -> conv1 (in-place)
I0325 17:12:07.541558  3167 net.cpp:141] Setting up relu1
I0325 17:12:07.541563  3167 net.cpp:148] Top shape: 100 50 24 24 (2880000)
I0325 17:12:07.541565  3167 net.cpp:156] Memory required for data: 23354800
I0325 17:12:07.541568  3167 layer_factory.hpp:77] Creating layer fc1
I0325 17:12:07.541575  3167 net.cpp:91] Creating Layer fc1
I0325 17:12:07.541579  3167 net.cpp:425] fc1 <- conv1
I0325 17:12:07.541584  3167 net.cpp:399] fc1 -> fc1
I0325 17:12:07.669824  3167 net.cpp:141] Setting up fc1
I0325 17:12:07.669859  3167 net.cpp:148] Top shape: 100 500 (50000)
I0325 17:12:07.669864  3167 net.cpp:156] Memory required for data: 23554800
I0325 17:12:07.669885  3167 layer_factory.hpp:77] Creating layer score
I0325 17:12:07.669900  3167 net.cpp:91] Creating Layer score
I0325 17:12:07.669905  3167 net.cpp:425] score <- fc1
I0325 17:12:07.669915  3167 net.cpp:399] score -> score
I0325 17:12:07.670064  3167 net.cpp:141] Setting up score
I0325 17:12:07.670073  3167 net.cpp:148] Top shape: 100 10 (1000)
I0325 17:12:07.670076  3167 net.cpp:156] Memory required for data: 23558800
I0325 17:12:07.670085  3167 layer_factory.hpp:77] Creating layer score_score_0_split
I0325 17:12:07.670094  3167 net.cpp:91] Creating Layer score_score_0_split
I0325 17:12:07.670097  3167 net.cpp:425] score_score_0_split <- score
I0325 17:12:07.670102  3167 net.cpp:399] score_score_0_split -> score_score_0_split_0
I0325 17:12:07.670109  3167 net.cpp:399] score_score_0_split -> score_score_0_split_1
I0325 17:12:07.670146  3167 net.cpp:141] Setting up score_score_0_split
I0325 17:12:07.670153  3167 net.cpp:148] Top shape: 100 10 (1000)
I0325 17:12:07.670158  3167 net.cpp:148] Top shape: 100 10 (1000)
I0325 17:12:07.670161  3167 net.cpp:156] Memory required for data: 23566800
I0325 17:12:07.670166  3167 layer_factory.hpp:77] Creating layer accuracy
I0325 17:12:07.670173  3167 net.cpp:91] Creating Layer accuracy
I0325 17:12:07.670177  3167 net.cpp:425] accuracy <- score_score_0_split_0
I0325 17:12:07.670182  3167 net.cpp:425] accuracy <- label_data_1_split_0
I0325 17:12:07.670187  3167 net.cpp:399] accuracy -> accuracy
…
