…
I0324 20:58:20.562134 29510 solver.cpp:81] Creating training net from train_net file: prototxt/net0_train.prototxt
I0324 20:58:20.562429 29510 net.cpp:313] The NetState phase (0) differed from the phase (1) specified by a rule in layer accuracy
I0324 20:58:20.562533 29510 net.cpp:49] Initializing net from parameters: 
state {
  phase: TRAIN
}
layer {
  name: "data"
  type: "Data"
  top: "data"
  top: "label"
  transform_param {
    scale: 0.0039215689
  }
  data_param {
    source: "../mnist/mnist_train_lmdb"
    batch_size: 64
    backend: LMDB
  }
}
layer {
  name: "fc1"
  type: "InnerProduct"
  bottom: "data"
  top: "fc1"
  inner_product_param {
    num_output: 50
    weight_filler {
      type: "xavier"
    }
  }
}
layer {
  name: "sig1"
  type: "Sigmoid"
  bottom: "fc1"
  top: "sig1"
}
layer {
  name: "fc2"
  type: "InnerProduct"
  bottom: "sig1"
  top: "fc2"
  inner_product_param {
    num_output: 50
    weight_filler {
      type: "xavier"
    }
  }
}
layer {
  name: "sig2"
  type: "Sigmoid"
  bottom: "fc2"
  top: "sig2"
}
layer {
  name: "score"
  type: "InnerProduct"
  bottom: "sig2"
  top: "score"
  inner_product_param {
    num_output: 10
    weight_filler {
      type: "xavier"
    }
  }
}
layer {
  name: "loss"
  type: "SoftmaxWithLoss"
  bottom: "score"
  bottom: "label"
  top: "loss"
}
I0324 20:58:20.562597 29510 layer_factory.hpp:77] Creating layer data
I0324 20:58:20.562760 29510 net.cpp:91] Creating Layer data
I0324 20:58:20.562778 29510 net.cpp:399] data -> data
I0324 20:58:20.562804 29510 net.cpp:399] data -> label
I0324 20:58:20.563835 29539 db_lmdb.cpp:38] Opened lmdb ../mnist/mnist_train_lmdb
I0324 20:58:20.580905 29510 data_layer.cpp:41] output data size: 64,1,28,28
I0324 20:58:20.582123 29510 net.cpp:141] Setting up data
I0324 20:58:20.582203 29510 net.cpp:148] Top shape: 64 1 28 28 (50176)
I0324 20:58:20.582216 29510 net.cpp:148] Top shape: 64 (64)
I0324 20:58:20.582222 29510 net.cpp:156] Memory required for data: 200960
I0324 20:58:20.582236 29510 layer_factory.hpp:77] Creating layer fc1
I0324 20:58:20.582267 29510 net.cpp:91] Creating Layer fc1
I0324 20:58:20.582273 29510 net.cpp:425] fc1 <- data
I0324 20:58:20.582283 29510 net.cpp:399] fc1 -> fc1
I0324 20:58:20.582808 29510 net.cpp:141] Setting up fc1
I0324 20:58:20.582821 29510 net.cpp:148] Top shape: 64 50 (3200)
I0324 20:58:20.582825 29510 net.cpp:156] Memory required for data: 213760
I0324 20:58:20.582844 29510 layer_factory.hpp:77] Creating layer sig1
I0324 20:58:20.582857 29510 net.cpp:91] Creating Layer sig1
I0324 20:58:20.582862 29510 net.cpp:425] sig1 <- fc1
I0324 20:58:20.582869 29510 net.cpp:399] sig1 -> sig1
I0324 20:58:20.582895 29510 net.cpp:141] Setting up sig1
I0324 20:58:20.582903 29510 net.cpp:148] Top shape: 64 50 (3200)
I0324 20:58:20.582906 29510 net.cpp:156] Memory required for data: 226560
I0324 20:58:20.582911 29510 layer_factory.hpp:77] Creating layer fc2
I0324 20:58:20.582919 29510 net.cpp:91] Creating Layer fc2
I0324 20:58:20.582923 29510 net.cpp:425] fc2 <- sig1
I0324 20:58:20.582936 29510 net.cpp:399] fc2 -> fc2
I0324 20:58:20.583688 29510 net.cpp:141] Setting up fc2
I0324 20:58:20.583703 29510 net.cpp:148] Top shape: 64 50 (3200)
I0324 20:58:20.583705 29510 net.cpp:156] Memory required for data: 239360
I0324 20:58:20.583715 29510 layer_factory.hpp:77] Creating layer sig2
I0324 20:58:20.583725 29510 net.cpp:91] Creating Layer sig2
I0324 20:58:20.583729 29510 net.cpp:425] sig2 <- fc2
I0324 20:58:20.583735 29510 net.cpp:399] sig2 -> sig2
I0324 20:58:20.583761 29510 net.cpp:141] Setting up sig2
I0324 20:58:20.583768 29510 net.cpp:148] Top shape: 64 50 (3200)
I0324 20:58:20.583771 29510 net.cpp:156] Memory required for data: 252160
I0324 20:58:20.583775 29510 layer_factory.hpp:77] Creating layer score
I0324 20:58:20.583782 29510 net.cpp:91] Creating Layer score
I0324 20:58:20.583786 29510 net.cpp:425] score <- sig2
I0324 20:58:20.583794 29510 net.cpp:399] score -> score
I0324 20:58:20.584509 29510 net.cpp:141] Setting up score
I0324 20:58:20.584522 29510 net.cpp:148] Top shape: 64 10 (640)
I0324 20:58:20.584525 29510 net.cpp:156] Memory required for data: 254720
I0324 20:58:20.584535 29510 layer_factory.hpp:77] Creating layer loss
I0324 20:58:20.584545 29510 net.cpp:91] Creating Layer loss
I0324 20:58:20.584549 29510 net.cpp:425] loss <- score
I0324 20:58:20.584554 29510 net.cpp:425] loss <- label
I0324 20:58:20.584563 29510 net.cpp:399] loss -> loss
I0324 20:58:20.584576 29510 layer_factory.hpp:77] Creating layer loss
…
I0324 20:58:20.584730 29510 net.cpp:261] This network produces output loss
I0324 20:58:20.584738 29510 net.cpp:274] Network initialization done.
I0324 20:58:20.584969 29510 solver.cpp:181] Creating test net (#0) specified by test_net file: prototxt/net0_test.prototxt
I0324 20:58:20.585084 29510 net.cpp:49] Initializing net from parameters: 
state {
  phase: TEST
}
layer {
  name: "data"
  type: "Data"
  top: "data"
  top: "label"
  transform_param {
    scale: 0.0039215689
  }
  data_param {
    source: "../mnist/mnist_test_lmdb"
    batch_size: 100
    backend: LMDB
  }
}
layer {
  name: "fc1"
  type: "InnerProduct"
  bottom: "data"
  top: "fc1"
  inner_product_param {
    num_output: 50
    weight_filler {
      type: "xavier"
    }
  }
}
layer {
  name: "sig1"
  type: "Sigmoid"
  bottom: "fc1"
  top: "sig1"
}
layer {
  name: "fc2"
  type: "InnerProduct"
  bottom: "sig1"
  top: "fc2"
  inner_product_param {
    num_output: 50
    weight_filler {
      type: "xavier"
    }
  }
}
layer {
  name: "sig2"
  type: "Sigmoid"
  bottom: "fc2"
  top: "sig2"
}
layer {
  name: "score"
  type: "InnerProduct"
  bottom: "sig2"
  top: "score"
  inner_product_param {
    num_output: 10
    weight_filler {
      type: "xavier"
    }
  }
}
layer {
  name: "accuracy"
  type: "Accuracy"
  bottom: "score"
  bottom: "label"
  top: "accuracy"
  include {
    phase: TEST
  }
}
layer {
  name: "loss"
  type: "SoftmaxWithLoss"
  bottom: "score"
  bottom: "label"
  top: "loss"
}
I0324 20:58:20.585160 29510 layer_factory.hpp:77] Creating layer data
I0324 20:58:20.585274 29510 net.cpp:91] Creating Layer data
I0324 20:58:20.585285 29510 net.cpp:399] data -> data
I0324 20:58:20.585294 29510 net.cpp:399] data -> label
I0324 20:58:20.586050 29541 db_lmdb.cpp:38] Opened lmdb ../mnist/mnist_test_lmdb
I0324 20:58:20.586235 29510 data_layer.cpp:41] output data size: 100,1,28,28
I0324 20:58:20.587548 29510 net.cpp:141] Setting up data
I0324 20:58:20.587561 29510 net.cpp:148] Top shape: 100 1 28 28 (78400)
I0324 20:58:20.587566 29510 net.cpp:148] Top shape: 100 (100)
I0324 20:58:20.587569 29510 net.cpp:156] Memory required for data: 314000
I0324 20:58:20.587575 29510 layer_factory.hpp:77] Creating layer label_data_1_split
I0324 20:58:20.587594 29510 net.cpp:91] Creating Layer label_data_1_split
I0324 20:58:20.587599 29510 net.cpp:425] label_data_1_split <- label
I0324 20:58:20.587606 29510 net.cpp:399] label_data_1_split -> label_data_1_split_0
I0324 20:58:20.587615 29510 net.cpp:399] label_data_1_split -> label_data_1_split_1
I0324 20:58:20.587725 29510 net.cpp:141] Setting up label_data_1_split
I0324 20:58:20.587738 29510 net.cpp:148] Top shape: 100 (100)
I0324 20:58:20.587743 29510 net.cpp:148] Top shape: 100 (100)
I0324 20:58:20.587746 29510 net.cpp:156] Memory required for data: 314800
I0324 20:58:20.587750 29510 layer_factory.hpp:77] Creating layer fc1
I0324 20:58:20.587761 29510 net.cpp:91] Creating Layer fc1
I0324 20:58:20.587766 29510 net.cpp:425] fc1 <- data
I0324 20:58:20.587772 29510 net.cpp:399] fc1 -> fc1
I0324 20:58:20.588161 29510 net.cpp:141] Setting up fc1
I0324 20:58:20.588174 29510 net.cpp:148] Top shape: 100 50 (5000)
I0324 20:58:20.588177 29510 net.cpp:156] Memory required for data: 334800
I0324 20:58:20.588189 29510 layer_factory.hpp:77] Creating layer sig1
I0324 20:58:20.588197 29510 net.cpp:91] Creating Layer sig1
I0324 20:58:20.588201 29510 net.cpp:425] sig1 <- fc1
I0324 20:58:20.588207 29510 net.cpp:399] sig1 -> sig1
I0324 20:58:20.588235 29510 net.cpp:141] Setting up sig1
I0324 20:58:20.588243 29510 net.cpp:148] Top shape: 100 50 (5000)
I0324 20:58:20.588245 29510 net.cpp:156] Memory required for data: 354800
I0324 20:58:20.588249 29510 layer_factory.hpp:77] Creating layer fc2
I0324 20:58:20.588258 29510 net.cpp:91] Creating Layer fc2
I0324 20:58:20.588261 29510 net.cpp:425] fc2 <- sig1
I0324 20:58:20.588268 29510 net.cpp:399] fc2 -> fc2
I0324 20:58:20.588387 29510 net.cpp:141] Setting up fc2
I0324 20:58:20.588395 29510 net.cpp:148] Top shape: 100 50 (5000)
I0324 20:58:20.588399 29510 net.cpp:156] Memory required for data: 374800
I0324 20:58:20.588407 29510 layer_factory.hpp:77] Creating layer sig2
I0324 20:58:20.588415 29510 net.cpp:91] Creating Layer sig2
I0324 20:58:20.588419 29510 net.cpp:425] sig2 <- fc2
I0324 20:58:20.588425 29510 net.cpp:399] sig2 -> sig2
I0324 20:58:20.588451 29510 net.cpp:141] Setting up sig2
I0324 20:58:20.588459 29510 net.cpp:148] Top shape: 100 50 (5000)
I0324 20:58:20.588461 29510 net.cpp:156] Memory required for data: 394800
I0324 20:58:20.588464 29510 layer_factory.hpp:77] Creating layer score
I0324 20:58:20.588471 29510 net.cpp:91] Creating Layer score
I0324 20:58:20.588474 29510 net.cpp:425] score <- sig2
I0324 20:58:20.588481 29510 net.cpp:399] score -> score
I0324 20:58:20.588580 29510 net.cpp:141] Setting up score
I0324 20:58:20.588589 29510 net.cpp:148] Top shape: 100 10 (1000)
I0324 20:58:20.588593 29510 net.cpp:156] Memory required for data: 398800
I0324 20:58:20.588603 29510 layer_factory.hpp:77] Creating layer score_score_0_split
I0324 20:58:20.588609 29510 net.cpp:91] Creating Layer score_score_0_split
I0324 20:58:20.588613 29510 net.cpp:425] score_score_0_split <- score
I0324 20:58:20.588620 29510 net.cpp:399] score_score_0_split -> score_score_0_split_0
I0324 20:58:20.588627 29510 net.cpp:399] score_score_0_split -> score_score_0_split_1
I0324 20:58:20.588666 29510 net.cpp:141] Setting up score_score_0_split
I0324 20:58:20.588673 29510 net.cpp:148] Top shape: 100 10 (1000)
I0324 20:58:20.588685 29510 net.cpp:148] Top shape: 100 10 (1000)
I0324 20:58:20.588687 29510 net.cpp:156] Memory required for data: 406800
I0324 20:58:20.588690 29510 layer_factory.hpp:77] Creating layer accuracy
I0324 20:58:20.588701 29510 net.cpp:91] Creating Layer accuracy
I0324 20:58:20.588706 29510 net.cpp:425] accuracy <- score_score_0_split_0
I0324 20:58:20.588711 29510 net.cpp:425] accuracy <- label_data_1_split_0
I0324 20:58:20.588716 29510 net.cpp:399] accuracy -> accuracy
…
