…
I0324 21:43:36.939304 29806 solver.cpp:81] Creating training net from train_net file: prototxt/net0_train.prototxt
I0324 21:43:36.939565 29806 net.cpp:313] The NetState phase (0) differed from the phase (1) specified by a rule in layer accuracy
I0324 21:43:36.939646 29806 net.cpp:49] Initializing net from parameters: 
state {
  phase: TRAIN
}
layer {
  name: "data"
  type: "Data"
  top: "data"
  top: "label"
  transform_param {
    scale: 0.0039215689
  }
  data_param {
    source: "../mnist/mnist_train_lmdb"
    batch_size: 64
    backend: LMDB
  }
}
layer {
  name: "fc1"
  type: "InnerProduct"
  bottom: "data"
  top: "fc1"
  inner_product_param {
    num_output: 50
    weight_filler {
      type: "xavier"
    }
  }
}
layer {
  name: "sig1"
  type: "Sigmoid"
  bottom: "fc1"
  top: "sig1"
}
layer {
  name: "fc2"
  type: "InnerProduct"
  bottom: "sig1"
  top: "fc2"
  inner_product_param {
    num_output: 50
    weight_filler {
      type: "xavier"
    }
  }
}
layer {
  name: "sig2"
  type: "Sigmoid"
  bottom: "fc2"
  top: "sig2"
}
layer {
  name: "score"
  type: "InnerProduct"
  bottom: "sig2"
  top: "score"
  inner_product_param {
    num_output: 10
    weight_filler {
      type: "xavier"
    }
  }
}
layer {
  name: "loss"
  type: "SoftmaxWithLoss"
  bottom: "score"
  bottom: "label"
  top: "loss"
}
I0324 21:43:36.939693 29806 layer_factory.hpp:77] Creating layer data
I0324 21:43:36.939836 29806 net.cpp:91] Creating Layer data
I0324 21:43:36.939849 29806 net.cpp:399] data -> data
I0324 21:43:36.939869 29806 net.cpp:399] data -> label
I0324 21:43:36.940707 29835 db_lmdb.cpp:38] Opened lmdb ../mnist/mnist_train_lmdb
I0324 21:43:36.958592 29806 data_layer.cpp:41] output data size: 64,1,28,28
I0324 21:43:36.960023 29806 net.cpp:141] Setting up data
I0324 21:43:36.960050 29806 net.cpp:148] Top shape: 64 1 28 28 (50176)
I0324 21:43:36.960058 29806 net.cpp:148] Top shape: 64 (64)
I0324 21:43:36.960063 29806 net.cpp:156] Memory required for data: 200960
I0324 21:43:36.960075 29806 layer_factory.hpp:77] Creating layer fc1
I0324 21:43:36.960144 29806 net.cpp:91] Creating Layer fc1
I0324 21:43:36.960172 29806 net.cpp:425] fc1 <- data
I0324 21:43:36.960201 29806 net.cpp:399] fc1 -> fc1
I0324 21:43:36.960809 29806 net.cpp:141] Setting up fc1
I0324 21:43:36.960826 29806 net.cpp:148] Top shape: 64 50 (3200)
I0324 21:43:36.960832 29806 net.cpp:156] Memory required for data: 213760
I0324 21:43:36.960858 29806 layer_factory.hpp:77] Creating layer sig1
I0324 21:43:36.960873 29806 net.cpp:91] Creating Layer sig1
I0324 21:43:36.960880 29806 net.cpp:425] sig1 <- fc1
I0324 21:43:36.960889 29806 net.cpp:399] sig1 -> sig1
I0324 21:43:36.960924 29806 net.cpp:141] Setting up sig1
I0324 21:43:36.960934 29806 net.cpp:148] Top shape: 64 50 (3200)
I0324 21:43:36.960939 29806 net.cpp:156] Memory required for data: 226560
I0324 21:43:36.960945 29806 layer_factory.hpp:77] Creating layer fc2
I0324 21:43:36.960959 29806 net.cpp:91] Creating Layer fc2
I0324 21:43:36.960965 29806 net.cpp:425] fc2 <- sig1
I0324 21:43:36.960974 29806 net.cpp:399] fc2 -> fc2
I0324 21:43:36.961845 29806 net.cpp:141] Setting up fc2
I0324 21:43:36.961861 29806 net.cpp:148] Top shape: 64 50 (3200)
I0324 21:43:36.961868 29806 net.cpp:156] Memory required for data: 239360
I0324 21:43:36.961882 29806 layer_factory.hpp:77] Creating layer sig2
I0324 21:43:36.961894 29806 net.cpp:91] Creating Layer sig2
I0324 21:43:36.961899 29806 net.cpp:425] sig2 <- fc2
I0324 21:43:36.961911 29806 net.cpp:399] sig2 -> sig2
I0324 21:43:36.961951 29806 net.cpp:141] Setting up sig2
I0324 21:43:36.961963 29806 net.cpp:148] Top shape: 64 50 (3200)
I0324 21:43:36.961968 29806 net.cpp:156] Memory required for data: 252160
I0324 21:43:36.961976 29806 layer_factory.hpp:77] Creating layer score
I0324 21:43:36.961985 29806 net.cpp:91] Creating Layer score
I0324 21:43:36.961992 29806 net.cpp:425] score <- sig2
I0324 21:43:36.962003 29806 net.cpp:399] score -> score
I0324 21:43:36.962777 29806 net.cpp:141] Setting up score
I0324 21:43:36.962791 29806 net.cpp:148] Top shape: 64 10 (640)
I0324 21:43:36.962798 29806 net.cpp:156] Memory required for data: 254720
I0324 21:43:36.962813 29806 layer_factory.hpp:77] Creating layer loss
I0324 21:43:36.962832 29806 net.cpp:91] Creating Layer loss
I0324 21:43:36.962841 29806 net.cpp:425] loss <- score
I0324 21:43:36.962848 29806 net.cpp:425] loss <- label
I0324 21:43:36.962858 29806 net.cpp:399] loss -> loss
I0324 21:43:36.962879 29806 layer_factory.hpp:77] Creating layer loss
…
I0324 21:43:36.963143 29806 net.cpp:261] This network produces output loss
I0324 21:43:36.963155 29806 net.cpp:274] Network initialization done.
I0324 21:43:36.963456 29806 solver.cpp:181] Creating test net (#0) specified by test_net file: prototxt/net0_test.prototxt
I0324 21:43:36.963623 29806 net.cpp:49] Initializing net from parameters: 
state {
  phase: TEST
}
layer {
  name: "data"
  type: "Data"
  top: "data"
  top: "label"
  transform_param {
    scale: 0.0039215689
  }
  data_param {
    source: "../mnist/mnist_test_lmdb"
    batch_size: 100
    backend: LMDB
  }
}
layer {
  name: "fc1"
  type: "InnerProduct"
  bottom: "data"
  top: "fc1"
  inner_product_param {
    num_output: 50
    weight_filler {
      type: "xavier"
    }
  }
}
layer {
  name: "sig1"
  type: "Sigmoid"
  bottom: "fc1"
  top: "sig1"
}
layer {
  name: "fc2"
  type: "InnerProduct"
  bottom: "sig1"
  top: "fc2"
  inner_product_param {
    num_output: 50
    weight_filler {
      type: "xavier"
    }
  }
}
layer {
  name: "sig2"
  type: "Sigmoid"
  bottom: "fc2"
  top: "sig2"
}
layer {
  name: "score"
  type: "InnerProduct"
  bottom: "sig2"
  top: "score"
  inner_product_param {
    num_output: 10
    weight_filler {
      type: "xavier"
    }
  }
}
layer {
  name: "accuracy"
  type: "Accuracy"
  bottom: "score"
  bottom: "label"
  top: "accuracy"
  include {
    phase: TEST
  }
}
layer {
  name: "loss"
  type: "SoftmaxWithLoss"
  bottom: "score"
  bottom: "label"
  top: "loss"
}
I0324 21:43:36.963711 29806 layer_factory.hpp:77] Creating layer data
I0324 21:43:37.837605 29806 net.cpp:91] Creating Layer data
I0324 21:43:37.837749 29806 net.cpp:399] data -> data
I0324 21:43:37.837805 29806 net.cpp:399] data -> label
I0324 21:43:37.839025 29837 db_lmdb.cpp:38] Opened lmdb ../mnist/mnist_test_lmdb
I0324 21:43:37.839431 29806 data_layer.cpp:41] output data size: 100,1,28,28
I0324 21:43:37.842054 29806 net.cpp:141] Setting up data
I0324 21:43:37.842092 29806 net.cpp:148] Top shape: 100 1 28 28 (78400)
I0324 21:43:37.842098 29806 net.cpp:148] Top shape: 100 (100)
I0324 21:43:37.842102 29806 net.cpp:156] Memory required for data: 314000
I0324 21:43:37.842110 29806 layer_factory.hpp:77] Creating layer label_data_1_split
I0324 21:43:37.842229 29806 net.cpp:91] Creating Layer label_data_1_split
I0324 21:43:37.842262 29806 net.cpp:425] label_data_1_split <- label
I0324 21:43:37.842278 29806 net.cpp:399] label_data_1_split -> label_data_1_split_0
I0324 21:43:37.842303 29806 net.cpp:399] label_data_1_split -> label_data_1_split_1
I0324 21:43:37.842427 29806 net.cpp:141] Setting up label_data_1_split
I0324 21:43:37.842447 29806 net.cpp:148] Top shape: 100 (100)
I0324 21:43:37.842460 29806 net.cpp:148] Top shape: 100 (100)
I0324 21:43:37.842466 29806 net.cpp:156] Memory required for data: 314800
I0324 21:43:37.842476 29806 layer_factory.hpp:77] Creating layer fc1
I0324 21:43:37.842519 29806 net.cpp:91] Creating Layer fc1
I0324 21:43:37.842527 29806 net.cpp:425] fc1 <- data
I0324 21:43:37.842540 29806 net.cpp:399] fc1 -> fc1
I0324 21:43:37.843575 29806 net.cpp:141] Setting up fc1
I0324 21:43:37.843593 29806 net.cpp:148] Top shape: 100 50 (5000)
I0324 21:43:37.843600 29806 net.cpp:156] Memory required for data: 334800
I0324 21:43:37.843623 29806 layer_factory.hpp:77] Creating layer sig1
I0324 21:43:37.843636 29806 net.cpp:91] Creating Layer sig1
I0324 21:43:37.843641 29806 net.cpp:425] sig1 <- fc1
I0324 21:43:37.843647 29806 net.cpp:399] sig1 -> sig1
I0324 21:43:37.843679 29806 net.cpp:141] Setting up sig1
I0324 21:43:37.843688 29806 net.cpp:148] Top shape: 100 50 (5000)
I0324 21:43:37.843691 29806 net.cpp:156] Memory required for data: 354800
I0324 21:43:37.843706 29806 layer_factory.hpp:77] Creating layer fc2
I0324 21:43:37.843725 29806 net.cpp:91] Creating Layer fc2
I0324 21:43:37.843730 29806 net.cpp:425] fc2 <- sig1
I0324 21:43:37.843736 29806 net.cpp:399] fc2 -> fc2
I0324 21:43:37.844197 29806 net.cpp:141] Setting up fc2
I0324 21:43:37.844213 29806 net.cpp:148] Top shape: 100 50 (5000)
I0324 21:43:37.844215 29806 net.cpp:156] Memory required for data: 374800
I0324 21:43:37.844226 29806 layer_factory.hpp:77] Creating layer sig2
I0324 21:43:37.844238 29806 net.cpp:91] Creating Layer sig2
I0324 21:43:37.844243 29806 net.cpp:425] sig2 <- fc2
I0324 21:43:37.844249 29806 net.cpp:399] sig2 -> sig2
I0324 21:43:37.844280 29806 net.cpp:141] Setting up sig2
I0324 21:43:37.844290 29806 net.cpp:148] Top shape: 100 50 (5000)
I0324 21:43:37.844293 29806 net.cpp:156] Memory required for data: 394800
I0324 21:43:37.844296 29806 layer_factory.hpp:77] Creating layer score
I0324 21:43:37.844303 29806 net.cpp:91] Creating Layer score
I0324 21:43:37.844307 29806 net.cpp:425] score <- sig2
I0324 21:43:37.844316 29806 net.cpp:399] score -> score
I0324 21:43:37.844486 29806 net.cpp:141] Setting up score
I0324 21:43:37.844498 29806 net.cpp:148] Top shape: 100 10 (1000)
I0324 21:43:37.844501 29806 net.cpp:156] Memory required for data: 398800
I0324 21:43:37.844511 29806 layer_factory.hpp:77] Creating layer score_score_0_split
I0324 21:43:37.844521 29806 net.cpp:91] Creating Layer score_score_0_split
I0324 21:43:37.844524 29806 net.cpp:425] score_score_0_split <- score
I0324 21:43:37.844532 29806 net.cpp:399] score_score_0_split -> score_score_0_split_0
I0324 21:43:37.844542 29806 net.cpp:399] score_score_0_split -> score_score_0_split_1
I0324 21:43:37.845319 29806 net.cpp:141] Setting up score_score_0_split
I0324 21:43:37.845341 29806 net.cpp:148] Top shape: 100 10 (1000)
I0324 21:43:37.845350 29806 net.cpp:148] Top shape: 100 10 (1000)
I0324 21:43:37.845353 29806 net.cpp:156] Memory required for data: 406800
I0324 21:43:37.845360 29806 layer_factory.hpp:77] Creating layer accuracy
I0324 21:43:37.845413 29806 net.cpp:91] Creating Layer accuracy
I0324 21:43:37.845422 29806 net.cpp:425] accuracy <- score_score_0_split_0
I0324 21:43:37.845427 29806 net.cpp:425] accuracy <- label_data_1_split_0
I0324 21:43:37.845441 29806 net.cpp:399] accuracy -> accuracy
…
