…
I0324 21:42:49.200747 29771 solver.cpp:81] Creating training net from train_net file: prototxt/net0_train.prototxt
I0324 21:42:49.200999 29771 net.cpp:313] The NetState phase (0) differed from the phase (1) specified by a rule in layer accuracy
I0324 21:42:49.201074 29771 net.cpp:49] Initializing net from parameters: 
state {
  phase: TRAIN
}
layer {
  name: "data"
  type: "Data"
  top: "data"
  top: "label"
  transform_param {
    scale: 0.0039215689
  }
  data_param {
    source: "../mnist/mnist_train_lmdb"
    batch_size: 64
    backend: LMDB
  }
}
layer {
  name: "fc1"
  type: "InnerProduct"
  bottom: "data"
  top: "fc1"
  inner_product_param {
    num_output: 50
    weight_filler {
      type: "xavier"
    }
  }
}
layer {
  name: "sig1"
  type: "Sigmoid"
  bottom: "fc1"
  top: "sig1"
}
layer {
  name: "fc2"
  type: "InnerProduct"
  bottom: "sig1"
  top: "fc2"
  inner_product_param {
    num_output: 50
    weight_filler {
      type: "xavier"
    }
  }
}
layer {
  name: "sig2"
  type: "Sigmoid"
  bottom: "fc2"
  top: "sig2"
}
layer {
  name: "score"
  type: "InnerProduct"
  bottom: "sig2"
  top: "score"
  inner_product_param {
    num_output: 10
    weight_filler {
      type: "xavier"
    }
  }
}
layer {
  name: "loss"
  type: "SoftmaxWithLoss"
  bottom: "score"
  bottom: "label"
  top: "loss"
}
I0324 21:42:49.201120 29771 layer_factory.hpp:77] Creating layer data
I0324 21:42:49.201282 29771 net.cpp:91] Creating Layer data
I0324 21:42:49.201297 29771 net.cpp:399] data -> data
I0324 21:42:49.201318 29771 net.cpp:399] data -> label
I0324 21:42:49.202359 29800 db_lmdb.cpp:38] Opened lmdb ../mnist/mnist_train_lmdb
I0324 21:42:49.222789 29771 data_layer.cpp:41] output data size: 64,1,28,28
I0324 21:42:49.224546 29771 net.cpp:141] Setting up data
I0324 21:42:49.224607 29771 net.cpp:148] Top shape: 64 1 28 28 (50176)
I0324 21:42:49.224617 29771 net.cpp:148] Top shape: 64 (64)
I0324 21:42:49.224619 29771 net.cpp:156] Memory required for data: 200960
I0324 21:42:49.224630 29771 layer_factory.hpp:77] Creating layer fc1
I0324 21:42:49.224701 29771 net.cpp:91] Creating Layer fc1
I0324 21:42:49.224716 29771 net.cpp:425] fc1 <- data
I0324 21:42:49.224733 29771 net.cpp:399] fc1 -> fc1
I0324 21:42:49.225307 29771 net.cpp:141] Setting up fc1
I0324 21:42:49.225322 29771 net.cpp:148] Top shape: 64 50 (3200)
I0324 21:42:49.225325 29771 net.cpp:156] Memory required for data: 213760
I0324 21:42:49.225347 29771 layer_factory.hpp:77] Creating layer sig1
I0324 21:42:49.225361 29771 net.cpp:91] Creating Layer sig1
I0324 21:42:49.225365 29771 net.cpp:425] sig1 <- fc1
I0324 21:42:49.225371 29771 net.cpp:399] sig1 -> sig1
I0324 21:42:49.225404 29771 net.cpp:141] Setting up sig1
I0324 21:42:49.225412 29771 net.cpp:148] Top shape: 64 50 (3200)
I0324 21:42:49.225416 29771 net.cpp:156] Memory required for data: 226560
I0324 21:42:49.225419 29771 layer_factory.hpp:77] Creating layer fc2
I0324 21:42:49.225427 29771 net.cpp:91] Creating Layer fc2
I0324 21:42:49.225430 29771 net.cpp:425] fc2 <- sig1
I0324 21:42:49.225440 29771 net.cpp:399] fc2 -> fc2
I0324 21:42:49.226656 29771 net.cpp:141] Setting up fc2
I0324 21:42:49.226688 29771 net.cpp:148] Top shape: 64 50 (3200)
I0324 21:42:49.226692 29771 net.cpp:156] Memory required for data: 239360
I0324 21:42:49.226711 29771 layer_factory.hpp:77] Creating layer sig2
I0324 21:42:49.226740 29771 net.cpp:91] Creating Layer sig2
I0324 21:42:49.226758 29771 net.cpp:425] sig2 <- fc2
I0324 21:42:49.226769 29771 net.cpp:399] sig2 -> sig2
I0324 21:42:49.226840 29771 net.cpp:141] Setting up sig2
I0324 21:42:49.226855 29771 net.cpp:148] Top shape: 64 50 (3200)
I0324 21:42:49.226863 29771 net.cpp:156] Memory required for data: 252160
I0324 21:42:49.226871 29771 layer_factory.hpp:77] Creating layer score
I0324 21:42:49.226887 29771 net.cpp:91] Creating Layer score
I0324 21:42:49.226892 29771 net.cpp:425] score <- sig2
I0324 21:42:49.226899 29771 net.cpp:399] score -> score
I0324 21:42:49.228030 29771 net.cpp:141] Setting up score
I0324 21:42:49.228060 29771 net.cpp:148] Top shape: 64 10 (640)
I0324 21:42:49.228063 29771 net.cpp:156] Memory required for data: 254720
I0324 21:42:49.228087 29771 layer_factory.hpp:77] Creating layer loss
I0324 21:42:49.228106 29771 net.cpp:91] Creating Layer loss
I0324 21:42:49.228113 29771 net.cpp:425] loss <- score
I0324 21:42:49.228119 29771 net.cpp:425] loss <- label
I0324 21:42:49.228126 29771 net.cpp:399] loss -> loss
I0324 21:42:49.228147 29771 layer_factory.hpp:77] Creating layer loss
…
I0324 21:42:49.228334 29771 net.cpp:261] This network produces output loss
I0324 21:42:49.228346 29771 net.cpp:274] Network initialization done.
I0324 21:42:49.228610 29771 solver.cpp:181] Creating test net (#0) specified by test_net file: prototxt/net0_test.prototxt
I0324 21:42:49.228735 29771 net.cpp:49] Initializing net from parameters: 
state {
  phase: TEST
}
layer {
  name: "data"
  type: "Data"
  top: "data"
  top: "label"
  transform_param {
    scale: 0.0039215689
  }
  data_param {
    source: "../mnist/mnist_test_lmdb"
    batch_size: 100
    backend: LMDB
  }
}
layer {
  name: "fc1"
  type: "InnerProduct"
  bottom: "data"
  top: "fc1"
  inner_product_param {
    num_output: 50
    weight_filler {
      type: "xavier"
    }
  }
}
layer {
  name: "sig1"
  type: "Sigmoid"
  bottom: "fc1"
  top: "sig1"
}
layer {
  name: "fc2"
  type: "InnerProduct"
  bottom: "sig1"
  top: "fc2"
  inner_product_param {
    num_output: 50
    weight_filler {
      type: "xavier"
    }
  }
}
layer {
  name: "sig2"
  type: "Sigmoid"
  bottom: "fc2"
  top: "sig2"
}
layer {
  name: "score"
  type: "InnerProduct"
  bottom: "sig2"
  top: "score"
  inner_product_param {
    num_output: 10
    weight_filler {
      type: "xavier"
    }
  }
}
layer {
  name: "accuracy"
  type: "Accuracy"
  bottom: "score"
  bottom: "label"
  top: "accuracy"
  include {
    phase: TEST
  }
}
layer {
  name: "loss"
  type: "SoftmaxWithLoss"
  bottom: "score"
  bottom: "label"
  top: "loss"
}
I0324 21:42:49.228822 29771 layer_factory.hpp:77] Creating layer data
I0324 21:42:49.229722 29771 net.cpp:91] Creating Layer data
I0324 21:42:49.229746 29771 net.cpp:399] data -> data
I0324 21:42:49.229766 29771 net.cpp:399] data -> label
I0324 21:42:49.230691 29802 db_lmdb.cpp:38] Opened lmdb ../mnist/mnist_test_lmdb
I0324 21:42:49.230917 29771 data_layer.cpp:41] output data size: 100,1,28,28
I0324 21:42:49.232890 29771 net.cpp:141] Setting up data
I0324 21:42:49.232931 29771 net.cpp:148] Top shape: 100 1 28 28 (78400)
I0324 21:42:49.232939 29771 net.cpp:148] Top shape: 100 (100)
I0324 21:42:49.232941 29771 net.cpp:156] Memory required for data: 314000
I0324 21:42:49.232952 29771 layer_factory.hpp:77] Creating layer label_data_1_split
I0324 21:42:49.232985 29771 net.cpp:91] Creating Layer label_data_1_split
I0324 21:42:49.232990 29771 net.cpp:425] label_data_1_split <- label
I0324 21:42:49.233000 29771 net.cpp:399] label_data_1_split -> label_data_1_split_0
I0324 21:42:49.233016 29771 net.cpp:399] label_data_1_split -> label_data_1_split_1
I0324 21:42:49.233206 29771 net.cpp:141] Setting up label_data_1_split
I0324 21:42:49.233232 29771 net.cpp:148] Top shape: 100 (100)
I0324 21:42:49.233242 29771 net.cpp:148] Top shape: 100 (100)
I0324 21:42:49.233248 29771 net.cpp:156] Memory required for data: 314800
I0324 21:42:49.233258 29771 layer_factory.hpp:77] Creating layer fc1
I0324 21:42:49.233276 29771 net.cpp:91] Creating Layer fc1
I0324 21:42:49.233283 29771 net.cpp:425] fc1 <- data
I0324 21:42:49.233295 29771 net.cpp:399] fc1 -> fc1
I0324 21:42:49.233777 29771 net.cpp:141] Setting up fc1
I0324 21:42:49.233793 29771 net.cpp:148] Top shape: 100 50 (5000)
I0324 21:42:49.233796 29771 net.cpp:156] Memory required for data: 334800
I0324 21:42:49.233813 29771 layer_factory.hpp:77] Creating layer sig1
I0324 21:42:49.233822 29771 net.cpp:91] Creating Layer sig1
I0324 21:42:49.233827 29771 net.cpp:425] sig1 <- fc1
I0324 21:42:49.233836 29771 net.cpp:399] sig1 -> sig1
I0324 21:42:49.233973 29771 net.cpp:141] Setting up sig1
I0324 21:42:49.233988 29771 net.cpp:148] Top shape: 100 50 (5000)
I0324 21:42:49.233994 29771 net.cpp:156] Memory required for data: 354800
I0324 21:42:49.233999 29771 layer_factory.hpp:77] Creating layer fc2
I0324 21:42:49.234014 29771 net.cpp:91] Creating Layer fc2
I0324 21:42:49.234019 29771 net.cpp:425] fc2 <- sig1
I0324 21:42:49.234028 29771 net.cpp:399] fc2 -> fc2
I0324 21:42:49.234236 29771 net.cpp:141] Setting up fc2
I0324 21:42:49.234249 29771 net.cpp:148] Top shape: 100 50 (5000)
I0324 21:42:49.234253 29771 net.cpp:156] Memory required for data: 374800
I0324 21:42:49.234263 29771 layer_factory.hpp:77] Creating layer sig2
I0324 21:42:49.234272 29771 net.cpp:91] Creating Layer sig2
I0324 21:42:49.234275 29771 net.cpp:425] sig2 <- fc2
I0324 21:42:49.234280 29771 net.cpp:399] sig2 -> sig2
I0324 21:42:49.234325 29771 net.cpp:141] Setting up sig2
I0324 21:42:49.234336 29771 net.cpp:148] Top shape: 100 50 (5000)
I0324 21:42:49.234341 29771 net.cpp:156] Memory required for data: 394800
I0324 21:42:49.234345 29771 layer_factory.hpp:77] Creating layer score
I0324 21:42:49.234355 29771 net.cpp:91] Creating Layer score
I0324 21:42:49.234360 29771 net.cpp:425] score <- sig2
I0324 21:42:49.234365 29771 net.cpp:399] score -> score
I0324 21:42:49.234478 29771 net.cpp:141] Setting up score
I0324 21:42:49.234489 29771 net.cpp:148] Top shape: 100 10 (1000)
I0324 21:42:49.234493 29771 net.cpp:156] Memory required for data: 398800
I0324 21:42:49.234503 29771 layer_factory.hpp:77] Creating layer score_score_0_split
I0324 21:42:49.234518 29771 net.cpp:91] Creating Layer score_score_0_split
I0324 21:42:49.234522 29771 net.cpp:425] score_score_0_split <- score
I0324 21:42:49.234529 29771 net.cpp:399] score_score_0_split -> score_score_0_split_0
I0324 21:42:49.234536 29771 net.cpp:399] score_score_0_split -> score_score_0_split_1
I0324 21:42:49.234586 29771 net.cpp:141] Setting up score_score_0_split
I0324 21:42:49.234596 29771 net.cpp:148] Top shape: 100 10 (1000)
I0324 21:42:49.234599 29771 net.cpp:148] Top shape: 100 10 (1000)
I0324 21:42:49.234603 29771 net.cpp:156] Memory required for data: 406800
I0324 21:42:49.234607 29771 layer_factory.hpp:77] Creating layer accuracy
I0324 21:42:49.234629 29771 net.cpp:91] Creating Layer accuracy
I0324 21:42:49.234634 29771 net.cpp:425] accuracy <- score_score_0_split_0
I0324 21:42:49.234639 29771 net.cpp:425] accuracy <- label_data_1_split_0
I0324 21:42:49.234648 29771 net.cpp:399] accuracy -> accuracy
…
