…
max_iter: 10000
lr_policy: "inv"
gamma: 0.0001
power: 0.75
momentum: 0.9
weight_decay: 0.0005
solver_mode: GPU
random_seed: 831486
type: "Nesterov"
I0324 21:33:44.219137 29680 solver.cpp:81] Creating training net from train_net file: prototxt/net_hdf5_train.prototxt
I0324 21:33:44.219480 29680 net.cpp:49] Initializing net from parameters: 
state {
  phase: TRAIN
}
layer {
  name: "data"
  type: "HDF5Data"
  top: "data"
  top: "label"
  hdf5_data_param {
    source: "/mnt/scratch/pierre/caffe_sandbox_tryouts/mnist/mnist_train_hdf5/h5list"
    batch_size: 64
  }
}
layer {
  name: "conv1"
  type: "Convolution"
  bottom: "data"
  top: "conv1"
  convolution_param {
    num_output: 50
    kernel_size: 5
    weight_filler {
      type: "xavier"
    }
  }
}
layer {
  name: "pool1"
  type: "Pooling"
  bottom: "conv1"
  top: "pool1"
  pooling_param {
    pool: MAX
    kernel_size: 2
    stride: 2
  }
}
layer {
  name: "relu1"
  type: "ReLU"
  bottom: "pool1"
  top: "pool1"
}
layer {
  name: "conv2"
  type: "Convolution"
  bottom: "pool1"
  top: "conv2"
  convolution_param {
    num_output: 50
    kernel_size: 5
    weight_filler {
      type: "xavier"
    }
  }
}
layer {
  name: "pool2"
  type: "Pooling"
  bottom: "conv2"
  top: "pool2"
  pooling_param {
    pool: MAX
    kernel_size: 2
    stride: 2
  }
}
layer {
  name: "relu2"
  type: "ReLU"
  bottom: "pool2"
  top: "pool2"
}
layer {
  name: "fc1"
  type: "InnerProduct"
  bottom: "pool2"
  top: "fc1"
  inner_product_param {
    num_output: 500
    weight_filler {
      type: "xavier"
    }
  }
}
layer {
  name: "score"
  type: "InnerProduct"
  bottom: "fc1"
  top: "score"
  inner_product_param {
    num_output: 10
    weight_filler {
      type: "xavier"
    }
  }
}
layer {
  name: "loss"
  type: "SigmoidCrossEntropyLoss"
  bottom: "score"
  bottom: "label"
  top: "loss"
}
I0324 21:33:44.219542 29680 layer_factory.hpp:77] Creating layer data
I0324 21:33:44.219561 29680 net.cpp:91] Creating Layer data
I0324 21:33:44.219569 29680 net.cpp:399] data -> data
I0324 21:33:44.219591 29680 net.cpp:399] data -> label
I0324 21:33:44.219604 29680 hdf5_data_layer.cpp:79] Loading list of HDF5 filenames from: /mnt/scratch/pierre/caffe_sandbox_tryouts/mnist/mnist_train_hdf5/h5list
I0324 21:33:44.219646 29680 hdf5_data_layer.cpp:93] Number of HDF5 files: 1
I0324 21:33:44.220419 29680 hdf5.cpp:32] Datatype class: H5T_FLOAT
I0324 21:33:44.520640 29680 net.cpp:141] Setting up data
I0324 21:33:44.520686 29680 net.cpp:148] Top shape: 64 1 28 28 (50176)
I0324 21:33:44.520692 29680 net.cpp:148] Top shape: 64 10 (640)
I0324 21:33:44.520696 29680 net.cpp:156] Memory required for data: 203264
I0324 21:33:44.520705 29680 layer_factory.hpp:77] Creating layer conv1
I0324 21:33:44.520732 29680 net.cpp:91] Creating Layer conv1
I0324 21:33:44.520737 29680 net.cpp:425] conv1 <- data
I0324 21:33:44.520747 29680 net.cpp:399] conv1 -> conv1
I0324 21:33:44.522327 29680 net.cpp:141] Setting up conv1
I0324 21:33:44.522361 29680 net.cpp:148] Top shape: 64 50 24 24 (1843200)
I0324 21:33:44.522366 29680 net.cpp:156] Memory required for data: 7576064
I0324 21:33:44.522392 29680 layer_factory.hpp:77] Creating layer pool1
I0324 21:33:44.522408 29680 net.cpp:91] Creating Layer pool1
I0324 21:33:44.522413 29680 net.cpp:425] pool1 <- conv1
I0324 21:33:44.522419 29680 net.cpp:399] pool1 -> pool1
I0324 21:33:44.522471 29680 net.cpp:141] Setting up pool1
I0324 21:33:44.522480 29680 net.cpp:148] Top shape: 64 50 12 12 (460800)
I0324 21:33:44.522482 29680 net.cpp:156] Memory required for data: 9419264
I0324 21:33:44.522486 29680 layer_factory.hpp:77] Creating layer relu1
I0324 21:33:44.522492 29680 net.cpp:91] Creating Layer relu1
I0324 21:33:44.522495 29680 net.cpp:425] relu1 <- pool1
I0324 21:33:44.522501 29680 net.cpp:386] relu1 -> pool1 (in-place)
I0324 21:33:44.522511 29680 net.cpp:141] Setting up relu1
I0324 21:33:44.522516 29680 net.cpp:148] Top shape: 64 50 12 12 (460800)
I0324 21:33:44.522518 29680 net.cpp:156] Memory required for data: 11262464
I0324 21:33:44.522521 29680 layer_factory.hpp:77] Creating layer conv2
I0324 21:33:44.522533 29680 net.cpp:91] Creating Layer conv2
I0324 21:33:44.522537 29680 net.cpp:425] conv2 <- pool1
I0324 21:33:44.522543 29680 net.cpp:399] conv2 -> conv2
I0324 21:33:44.523910 29680 net.cpp:141] Setting up conv2
I0324 21:33:44.523943 29680 net.cpp:148] Top shape: 64 50 8 8 (204800)
I0324 21:33:44.523947 29680 net.cpp:156] Memory required for data: 12081664
I0324 21:33:44.523964 29680 layer_factory.hpp:77] Creating layer pool2
I0324 21:33:44.523978 29680 net.cpp:91] Creating Layer pool2
I0324 21:33:44.523983 29680 net.cpp:425] pool2 <- conv2
I0324 21:33:44.523993 29680 net.cpp:399] pool2 -> pool2
I0324 21:33:44.524039 29680 net.cpp:141] Setting up pool2
I0324 21:33:44.524047 29680 net.cpp:148] Top shape: 64 50 4 4 (51200)
I0324 21:33:44.524050 29680 net.cpp:156] Memory required for data: 12286464
I0324 21:33:44.524055 29680 layer_factory.hpp:77] Creating layer relu2
I0324 21:33:44.524060 29680 net.cpp:91] Creating Layer relu2
I0324 21:33:44.524063 29680 net.cpp:425] relu2 <- pool2
I0324 21:33:44.524070 29680 net.cpp:386] relu2 -> pool2 (in-place)
I0324 21:33:44.524075 29680 net.cpp:141] Setting up relu2
I0324 21:33:44.524080 29680 net.cpp:148] Top shape: 64 50 4 4 (51200)
I0324 21:33:44.524083 29680 net.cpp:156] Memory required for data: 12491264
I0324 21:33:44.524086 29680 layer_factory.hpp:77] Creating layer fc1
I0324 21:33:44.524101 29680 net.cpp:91] Creating Layer fc1
I0324 21:33:44.524106 29680 net.cpp:425] fc1 <- pool2
I0324 21:33:44.524111 29680 net.cpp:399] fc1 -> fc1
I0324 21:33:44.527937 29680 net.cpp:141] Setting up fc1
I0324 21:33:44.527976 29680 net.cpp:148] Top shape: 64 500 (32000)
I0324 21:33:44.527981 29680 net.cpp:156] Memory required for data: 12619264
I0324 21:33:44.528000 29680 layer_factory.hpp:77] Creating layer score
I0324 21:33:44.528017 29680 net.cpp:91] Creating Layer score
I0324 21:33:44.528023 29680 net.cpp:425] score <- fc1
I0324 21:33:44.528033 29680 net.cpp:399] score -> score
I0324 21:33:44.528916 29680 net.cpp:141] Setting up score
I0324 21:33:44.528937 29680 net.cpp:148] Top shape: 64 10 (640)
I0324 21:33:44.528941 29680 net.cpp:156] Memory required for data: 12621824
I0324 21:33:44.528951 29680 layer_factory.hpp:77] Creating layer loss
I0324 21:33:44.528969 29680 net.cpp:91] Creating Layer loss
I0324 21:33:44.528972 29680 net.cpp:425] loss <- score
I0324 21:33:44.528978 29680 net.cpp:425] loss <- label
I0324 21:33:44.528985 29680 net.cpp:399] loss -> loss
I0324 21:33:44.529037 29680 net.cpp:141] Setting up loss
…
I0324 21:33:44.529106 29680 net.cpp:261] This network produces output loss
I0324 21:33:44.529114 29680 net.cpp:274] Network initialization done.
I0324 21:33:44.529367 29680 solver.cpp:181] Creating test net (#0) specified by test_net file: prototxt/net_hdf5_test.prototxt
I0324 21:33:44.529484 29680 net.cpp:49] Initializing net from parameters: 
state {
  phase: TEST
}
layer {
  name: "data"
  type: "HDF5Data"
  top: "data"
  top: "label"
  hdf5_data_param {
    source: "/mnt/scratch/pierre/caffe_sandbox_tryouts/mnist/mnist_test_hdf5/h5list"
    batch_size: 100
  }
}
layer {
  name: "conv1"
  type: "Convolution"
  bottom: "data"
  top: "conv1"
  convolution_param {
    num_output: 50
    kernel_size: 5
    weight_filler {
      type: "xavier"
    }
  }
}
layer {
  name: "pool1"
  type: "Pooling"
  bottom: "conv1"
  top: "pool1"
  pooling_param {
    pool: MAX
    kernel_size: 2
    stride: 2
  }
}
layer {
  name: "relu1"
  type: "ReLU"
  bottom: "pool1"
  top: "pool1"
}
layer {
  name: "conv2"
  type: "Convolution"
  bottom: "pool1"
  top: "conv2"
  convolution_param {
    num_output: 50
    kernel_size: 5
    weight_filler {
      type: "xavier"
    }
  }
}
layer {
  name: "pool2"
  type: "Pooling"
  bottom: "conv2"
  top: "pool2"
  pooling_param {
    pool: MAX
    kernel_size: 2
    stride: 2
  }
}
layer {
  name: "relu2"
  type: "ReLU"
  bottom: "pool2"
  top: "pool2"
}
layer {
  name: "fc1"
  type: "InnerProduct"
  bottom: "pool2"
  top: "fc1"
  inner_product_param {
    num_output: 500
    weight_filler {
      type: "xavier"
    }
  }
}
layer {
  name: "score"
  type: "InnerProduct"
  bottom: "fc1"
  top: "score"
  inner_product_param {
    num_output: 10
    weight_filler {
      type: "xavier"
    }
  }
}
layer {
  name: "loss"
  type: "SigmoidCrossEntropyLoss"
  bottom: "score"
  bottom: "label"
  top: "loss"
}
I0324 21:33:44.529531 29680 layer_factory.hpp:77] Creating layer data
I0324 21:33:44.529541 29680 net.cpp:91] Creating Layer data
I0324 21:33:44.529544 29680 net.cpp:399] data -> data
I0324 21:33:44.529552 29680 net.cpp:399] data -> label
I0324 21:33:44.529559 29680 hdf5_data_layer.cpp:79] Loading list of HDF5 filenames from: /mnt/scratch/pierre/caffe_sandbox_tryouts/mnist/mnist_test_hdf5/h5list
I0324 21:33:44.529587 29680 hdf5_data_layer.cpp:93] Number of HDF5 files: 1
I0324 21:33:44.566817 29680 net.cpp:141] Setting up data
I0324 21:33:44.566854 29680 net.cpp:148] Top shape: 100 1 28 28 (78400)
I0324 21:33:44.566859 29680 net.cpp:148] Top shape: 100 10 (1000)
I0324 21:33:44.566862 29680 net.cpp:156] Memory required for data: 317600
I0324 21:33:44.566872 29680 layer_factory.hpp:77] Creating layer conv1
I0324 21:33:44.566896 29680 net.cpp:91] Creating Layer conv1
I0324 21:33:44.566902 29680 net.cpp:425] conv1 <- data
I0324 21:33:44.566911 29680 net.cpp:399] conv1 -> conv1
I0324 21:33:44.567195 29680 net.cpp:141] Setting up conv1
I0324 21:33:44.567206 29680 net.cpp:148] Top shape: 100 50 24 24 (2880000)
I0324 21:33:44.567209 29680 net.cpp:156] Memory required for data: 11837600
I0324 21:33:44.567224 29680 layer_factory.hpp:77] Creating layer pool1
I0324 21:33:44.567234 29680 net.cpp:91] Creating Layer pool1
I0324 21:33:44.567237 29680 net.cpp:425] pool1 <- conv1
I0324 21:33:44.567244 29680 net.cpp:399] pool1 -> pool1
I0324 21:33:44.567283 29680 net.cpp:141] Setting up pool1
I0324 21:33:44.567291 29680 net.cpp:148] Top shape: 100 50 12 12 (720000)
I0324 21:33:44.567293 29680 net.cpp:156] Memory required for data: 14717600
I0324 21:33:44.567297 29680 layer_factory.hpp:77] Creating layer relu1
I0324 21:33:44.567304 29680 net.cpp:91] Creating Layer relu1
I0324 21:33:44.567307 29680 net.cpp:425] relu1 <- pool1
I0324 21:33:44.567312 29680 net.cpp:386] relu1 -> pool1 (in-place)
I0324 21:33:44.567319 29680 net.cpp:141] Setting up relu1
I0324 21:33:44.567324 29680 net.cpp:148] Top shape: 100 50 12 12 (720000)
I0324 21:33:44.567327 29680 net.cpp:156] Memory required for data: 17597600
I0324 21:33:44.567330 29680 layer_factory.hpp:77] Creating layer conv2
I0324 21:33:44.567338 29680 net.cpp:91] Creating Layer conv2
I0324 21:33:44.567342 29680 net.cpp:425] conv2 <- pool1
I0324 21:33:44.567348 29680 net.cpp:399] conv2 -> conv2
I0324 21:33:44.568027 29680 net.cpp:141] Setting up conv2
I0324 21:33:44.568043 29680 net.cpp:148] Top shape: 100 50 8 8 (320000)
I0324 21:33:44.568048 29680 net.cpp:156] Memory required for data: 18877600
I0324 21:33:44.568059 29680 layer_factory.hpp:77] Creating layer pool2
I0324 21:33:44.568069 29680 net.cpp:91] Creating Layer pool2
I0324 21:33:44.568073 29680 net.cpp:425] pool2 <- conv2
I0324 21:33:44.568079 29680 net.cpp:399] pool2 -> pool2
I0324 21:33:44.568120 29680 net.cpp:141] Setting up pool2
I0324 21:33:44.568126 29680 net.cpp:148] Top shape: 100 50 4 4 (80000)
I0324 21:33:44.568130 29680 net.cpp:156] Memory required for data: 19197600
I0324 21:33:44.568133 29680 layer_factory.hpp:77] Creating layer relu2
I0324 21:33:44.568138 29680 net.cpp:91] Creating Layer relu2
I0324 21:33:44.568142 29680 net.cpp:425] relu2 <- pool2
I0324 21:33:44.568147 29680 net.cpp:386] relu2 -> pool2 (in-place)
I0324 21:33:44.568153 29680 net.cpp:141] Setting up relu2
I0324 21:33:44.568157 29680 net.cpp:148] Top shape: 100 50 4 4 (80000)
I0324 21:33:44.568161 29680 net.cpp:156] Memory required for data: 19517600
I0324 21:33:44.568163 29680 layer_factory.hpp:77] Creating layer fc1
I0324 21:33:44.568171 29680 net.cpp:91] Creating Layer fc1
I0324 21:33:44.568176 29680 net.cpp:425] fc1 <- pool2
I0324 21:33:44.568181 29680 net.cpp:399] fc1 -> fc1
I0324 21:33:44.572041 29680 net.cpp:141] Setting up fc1
I0324 21:33:44.572087 29680 net.cpp:148] Top shape: 100 500 (50000)
I0324 21:33:44.572090 29680 net.cpp:156] Memory required for data: 19717600
I0324 21:33:44.572111 29680 layer_factory.hpp:77] Creating layer score
I0324 21:33:44.572127 29680 net.cpp:91] Creating Layer score
I0324 21:33:44.572134 29680 net.cpp:425] score <- fc1
I0324 21:33:44.572144 29680 net.cpp:399] score -> score
I0324 21:33:44.572293 29680 net.cpp:141] Setting up score
I0324 21:33:44.572302 29680 net.cpp:148] Top shape: 100 10 (1000)
I0324 21:33:44.572305 29680 net.cpp:156] Memory required for data: 19721600
I0324 21:33:44.572312 29680 layer_factory.hpp:77] Creating layer loss
I0324 21:33:44.572321 29680 net.cpp:91] Creating Layer loss
I0324 21:33:44.572324 29680 net.cpp:425] loss <- score
I0324 21:33:44.572329 29680 net.cpp:425] loss <- label
I0324 21:33:44.572334 29680 net.cpp:399] loss -> loss
I0324 21:33:44.572376 29680 net.cpp:141] Setting up loss
…
