…
max_iter: 10000
lr_policy: "inv"
gamma: 0.0001
power: 0.75
momentum: 0.9
weight_decay: 0.0005
solver_mode: GPU
random_seed: 831486
type: "Nesterov"
I0324 21:51:10.630651 29957 solver.cpp:81] Creating training net from train_net file: prototxt/net_hdf5_train.prototxt
I0324 21:51:10.630946 29957 net.cpp:49] Initializing net from parameters: 
state {
  phase: TRAIN
}
layer {
  name: "data"
  type: "HDF5Data"
  top: "data"
  top: "label"
  hdf5_data_param {
    source: "/mnt/scratch/pierre/caffe_sandbox_tryouts/mnist/mnist_train_hdf5/h5list"
    batch_size: 64
  }
}
layer {
  name: "conv1"
  type: "Convolution"
  bottom: "data"
  top: "conv1"
  convolution_param {
    num_output: 50
    kernel_size: 5
    weight_filler {
      type: "xavier"
    }
  }
}
layer {
  name: "pool1"
  type: "Pooling"
  bottom: "conv1"
  top: "pool1"
  pooling_param {
    pool: MAX
    kernel_size: 2
    stride: 2
  }
}
layer {
  name: "relu1"
  type: "ReLU"
  bottom: "pool1"
  top: "pool1"
}
layer {
  name: "conv2"
  type: "Convolution"
  bottom: "pool1"
  top: "conv2"
  convolution_param {
    num_output: 50
    kernel_size: 5
    weight_filler {
      type: "xavier"
    }
  }
}
layer {
  name: "pool2"
  type: "Pooling"
  bottom: "conv2"
  top: "pool2"
  pooling_param {
    pool: MAX
    kernel_size: 2
    stride: 2
  }
}
layer {
  name: "relu2"
  type: "ReLU"
  bottom: "pool2"
  top: "pool2"
}
layer {
  name: "fc1"
  type: "InnerProduct"
  bottom: "pool2"
  top: "fc1"
  inner_product_param {
    num_output: 500
    weight_filler {
      type: "xavier"
    }
  }
}
layer {
  name: "score"
  type: "InnerProduct"
  bottom: "fc1"
  top: "score"
  inner_product_param {
    num_output: 10
    weight_filler {
      type: "xavier"
    }
  }
}
layer {
  name: "loss"
  type: "SigmoidCrossEntropyLoss"
  bottom: "score"
  bottom: "label"
  top: "loss"
}
I0324 21:51:10.630990 29957 layer_factory.hpp:77] Creating layer data
I0324 21:51:10.631003 29957 net.cpp:91] Creating Layer data
I0324 21:51:10.631011 29957 net.cpp:399] data -> data
I0324 21:51:10.631026 29957 net.cpp:399] data -> label
I0324 21:51:10.631037 29957 hdf5_data_layer.cpp:79] Loading list of HDF5 filenames from: /mnt/scratch/pierre/caffe_sandbox_tryouts/mnist/mnist_train_hdf5/h5list
I0324 21:51:10.631072 29957 hdf5_data_layer.cpp:93] Number of HDF5 files: 1
I0324 21:51:10.631608 29957 hdf5.cpp:32] Datatype class: H5T_FLOAT
I0324 21:51:10.798693 29957 net.cpp:141] Setting up data
I0324 21:51:10.798730 29957 net.cpp:148] Top shape: 64 1 28 28 (50176)
I0324 21:51:10.798737 29957 net.cpp:148] Top shape: 64 10 (640)
I0324 21:51:10.798739 29957 net.cpp:156] Memory required for data: 203264
I0324 21:51:10.798748 29957 layer_factory.hpp:77] Creating layer conv1
I0324 21:51:10.798768 29957 net.cpp:91] Creating Layer conv1
I0324 21:51:10.798774 29957 net.cpp:425] conv1 <- data
I0324 21:51:10.798781 29957 net.cpp:399] conv1 -> conv1
I0324 21:51:10.800050 29957 net.cpp:141] Setting up conv1
I0324 21:51:10.800061 29957 net.cpp:148] Top shape: 64 50 24 24 (1843200)
I0324 21:51:10.800065 29957 net.cpp:156] Memory required for data: 7576064
I0324 21:51:10.800083 29957 layer_factory.hpp:77] Creating layer pool1
I0324 21:51:10.800092 29957 net.cpp:91] Creating Layer pool1
I0324 21:51:10.800096 29957 net.cpp:425] pool1 <- conv1
I0324 21:51:10.800101 29957 net.cpp:399] pool1 -> pool1
I0324 21:51:10.800144 29957 net.cpp:141] Setting up pool1
I0324 21:51:10.800151 29957 net.cpp:148] Top shape: 64 50 12 12 (460800)
I0324 21:51:10.800154 29957 net.cpp:156] Memory required for data: 9419264
I0324 21:51:10.800158 29957 layer_factory.hpp:77] Creating layer relu1
I0324 21:51:10.800164 29957 net.cpp:91] Creating Layer relu1
I0324 21:51:10.800168 29957 net.cpp:425] relu1 <- pool1
I0324 21:51:10.800173 29957 net.cpp:386] relu1 -> pool1 (in-place)
I0324 21:51:10.800181 29957 net.cpp:141] Setting up relu1
I0324 21:51:10.800186 29957 net.cpp:148] Top shape: 64 50 12 12 (460800)
I0324 21:51:10.800189 29957 net.cpp:156] Memory required for data: 11262464
I0324 21:51:10.800192 29957 layer_factory.hpp:77] Creating layer conv2
I0324 21:51:10.800201 29957 net.cpp:91] Creating Layer conv2
I0324 21:51:10.800204 29957 net.cpp:425] conv2 <- pool1
I0324 21:51:10.800209 29957 net.cpp:399] conv2 -> conv2
I0324 21:51:10.801332 29957 net.cpp:141] Setting up conv2
I0324 21:51:10.801344 29957 net.cpp:148] Top shape: 64 50 8 8 (204800)
I0324 21:51:10.801347 29957 net.cpp:156] Memory required for data: 12081664
I0324 21:51:10.801357 29957 layer_factory.hpp:77] Creating layer pool2
I0324 21:51:10.801363 29957 net.cpp:91] Creating Layer pool2
I0324 21:51:10.801367 29957 net.cpp:425] pool2 <- conv2
I0324 21:51:10.801373 29957 net.cpp:399] pool2 -> pool2
I0324 21:51:10.801409 29957 net.cpp:141] Setting up pool2
I0324 21:51:10.801415 29957 net.cpp:148] Top shape: 64 50 4 4 (51200)
I0324 21:51:10.801419 29957 net.cpp:156] Memory required for data: 12286464
I0324 21:51:10.801422 29957 layer_factory.hpp:77] Creating layer relu2
I0324 21:51:10.801427 29957 net.cpp:91] Creating Layer relu2
I0324 21:51:10.801430 29957 net.cpp:425] relu2 <- pool2
I0324 21:51:10.801435 29957 net.cpp:386] relu2 -> pool2 (in-place)
I0324 21:51:10.801441 29957 net.cpp:141] Setting up relu2
I0324 21:51:10.801445 29957 net.cpp:148] Top shape: 64 50 4 4 (51200)
I0324 21:51:10.801450 29957 net.cpp:156] Memory required for data: 12491264
I0324 21:51:10.801452 29957 layer_factory.hpp:77] Creating layer fc1
I0324 21:51:10.801462 29957 net.cpp:91] Creating Layer fc1
I0324 21:51:10.801465 29957 net.cpp:425] fc1 <- pool2
I0324 21:51:10.801471 29957 net.cpp:399] fc1 -> fc1
I0324 21:51:10.804877 29957 net.cpp:141] Setting up fc1
I0324 21:51:10.804888 29957 net.cpp:148] Top shape: 64 500 (32000)
I0324 21:51:10.804893 29957 net.cpp:156] Memory required for data: 12619264
I0324 21:51:10.804903 29957 layer_factory.hpp:77] Creating layer score
I0324 21:51:10.804910 29957 net.cpp:91] Creating Layer score
I0324 21:51:10.804914 29957 net.cpp:425] score <- fc1
I0324 21:51:10.804920 29957 net.cpp:399] score -> score
I0324 21:51:10.805554 29957 net.cpp:141] Setting up score
I0324 21:51:10.805567 29957 net.cpp:148] Top shape: 64 10 (640)
I0324 21:51:10.805569 29957 net.cpp:156] Memory required for data: 12621824
I0324 21:51:10.805577 29957 layer_factory.hpp:77] Creating layer loss
I0324 21:51:10.805588 29957 net.cpp:91] Creating Layer loss
I0324 21:51:10.805593 29957 net.cpp:425] loss <- score
I0324 21:51:10.805596 29957 net.cpp:425] loss <- label
I0324 21:51:10.805603 29957 net.cpp:399] loss -> loss
I0324 21:51:10.805647 29957 net.cpp:141] Setting up loss
…
I0324 21:51:10.805716 29957 net.cpp:261] This network produces output loss
I0324 21:51:10.805724 29957 net.cpp:274] Network initialization done.
I0324 21:51:10.805951 29957 solver.cpp:181] Creating test net (#0) specified by test_net file: prototxt/net_hdf5_test.prototxt
I0324 21:51:10.806064 29957 net.cpp:49] Initializing net from parameters: 
state {
  phase: TEST
}
layer {
  name: "data"
  type: "HDF5Data"
  top: "data"
  top: "label"
  hdf5_data_param {
    source: "/mnt/scratch/pierre/caffe_sandbox_tryouts/mnist/mnist_test_hdf5/h5list"
    batch_size: 100
  }
}
layer {
  name: "conv1"
  type: "Convolution"
  bottom: "data"
  top: "conv1"
  convolution_param {
    num_output: 50
    kernel_size: 5
    weight_filler {
      type: "xavier"
    }
  }
}
layer {
  name: "pool1"
  type: "Pooling"
  bottom: "conv1"
  top: "pool1"
  pooling_param {
    pool: MAX
    kernel_size: 2
    stride: 2
  }
}
layer {
  name: "relu1"
  type: "ReLU"
  bottom: "pool1"
  top: "pool1"
}
layer {
  name: "conv2"
  type: "Convolution"
  bottom: "pool1"
  top: "conv2"
  convolution_param {
    num_output: 50
    kernel_size: 5
    weight_filler {
      type: "xavier"
    }
  }
}
layer {
  name: "pool2"
  type: "Pooling"
  bottom: "conv2"
  top: "pool2"
  pooling_param {
    pool: MAX
    kernel_size: 2
    stride: 2
  }
}
layer {
  name: "relu2"
  type: "ReLU"
  bottom: "pool2"
  top: "pool2"
}
layer {
  name: "fc1"
  type: "InnerProduct"
  bottom: "pool2"
  top: "fc1"
  inner_product_param {
    num_output: 500
    weight_filler {
      type: "xavier"
    }
  }
}
layer {
  name: "score"
  type: "InnerProduct"
  bottom: "fc1"
  top: "score"
  inner_product_param {
    num_output: 10
    weight_filler {
      type: "xavier"
    }
  }
}
layer {
  name: "loss"
  type: "SigmoidCrossEntropyLoss"
  bottom: "score"
  bottom: "label"
  top: "loss"
}
I0324 21:51:10.806105 29957 layer_factory.hpp:77] Creating layer data
I0324 21:51:10.806113 29957 net.cpp:91] Creating Layer data
I0324 21:51:10.806118 29957 net.cpp:399] data -> data
I0324 21:51:10.806124 29957 net.cpp:399] data -> label
I0324 21:51:10.806131 29957 hdf5_data_layer.cpp:79] Loading list of HDF5 filenames from: /mnt/scratch/pierre/caffe_sandbox_tryouts/mnist/mnist_test_hdf5/h5list
I0324 21:51:10.806157 29957 hdf5_data_layer.cpp:93] Number of HDF5 files: 1
I0324 21:51:10.832427 29957 net.cpp:141] Setting up data
I0324 21:51:10.832458 29957 net.cpp:148] Top shape: 100 1 28 28 (78400)
I0324 21:51:10.832464 29957 net.cpp:148] Top shape: 100 10 (1000)
I0324 21:51:10.832468 29957 net.cpp:156] Memory required for data: 317600
I0324 21:51:10.832475 29957 layer_factory.hpp:77] Creating layer conv1
I0324 21:51:10.832495 29957 net.cpp:91] Creating Layer conv1
I0324 21:51:10.832500 29957 net.cpp:425] conv1 <- data
I0324 21:51:10.832509 29957 net.cpp:399] conv1 -> conv1
I0324 21:51:10.832768 29957 net.cpp:141] Setting up conv1
I0324 21:51:10.832778 29957 net.cpp:148] Top shape: 100 50 24 24 (2880000)
I0324 21:51:10.832782 29957 net.cpp:156] Memory required for data: 11837600
I0324 21:51:10.832795 29957 layer_factory.hpp:77] Creating layer pool1
I0324 21:51:10.832804 29957 net.cpp:91] Creating Layer pool1
I0324 21:51:10.832808 29957 net.cpp:425] pool1 <- conv1
I0324 21:51:10.832813 29957 net.cpp:399] pool1 -> pool1
I0324 21:51:10.832854 29957 net.cpp:141] Setting up pool1
I0324 21:51:10.832860 29957 net.cpp:148] Top shape: 100 50 12 12 (720000)
I0324 21:51:10.832864 29957 net.cpp:156] Memory required for data: 14717600
I0324 21:51:10.832867 29957 layer_factory.hpp:77] Creating layer relu1
I0324 21:51:10.832873 29957 net.cpp:91] Creating Layer relu1
I0324 21:51:10.832876 29957 net.cpp:425] relu1 <- pool1
I0324 21:51:10.832881 29957 net.cpp:386] relu1 -> pool1 (in-place)
I0324 21:51:10.832888 29957 net.cpp:141] Setting up relu1
I0324 21:51:10.832892 29957 net.cpp:148] Top shape: 100 50 12 12 (720000)
I0324 21:51:10.832895 29957 net.cpp:156] Memory required for data: 17597600
I0324 21:51:10.832900 29957 layer_factory.hpp:77] Creating layer conv2
I0324 21:51:10.832907 29957 net.cpp:91] Creating Layer conv2
I0324 21:51:10.832911 29957 net.cpp:425] conv2 <- pool1
I0324 21:51:10.832916 29957 net.cpp:399] conv2 -> conv2
I0324 21:51:10.833566 29957 net.cpp:141] Setting up conv2
I0324 21:51:10.833576 29957 net.cpp:148] Top shape: 100 50 8 8 (320000)
I0324 21:51:10.833580 29957 net.cpp:156] Memory required for data: 18877600
I0324 21:51:10.833590 29957 layer_factory.hpp:77] Creating layer pool2
I0324 21:51:10.833596 29957 net.cpp:91] Creating Layer pool2
I0324 21:51:10.833600 29957 net.cpp:425] pool2 <- conv2
I0324 21:51:10.833606 29957 net.cpp:399] pool2 -> pool2
I0324 21:51:10.833642 29957 net.cpp:141] Setting up pool2
I0324 21:51:10.833649 29957 net.cpp:148] Top shape: 100 50 4 4 (80000)
I0324 21:51:10.833652 29957 net.cpp:156] Memory required for data: 19197600
I0324 21:51:10.833657 29957 layer_factory.hpp:77] Creating layer relu2
I0324 21:51:10.833662 29957 net.cpp:91] Creating Layer relu2
I0324 21:51:10.833664 29957 net.cpp:425] relu2 <- pool2
I0324 21:51:10.833670 29957 net.cpp:386] relu2 -> pool2 (in-place)
I0324 21:51:10.833675 29957 net.cpp:141] Setting up relu2
I0324 21:51:10.833680 29957 net.cpp:148] Top shape: 100 50 4 4 (80000)
I0324 21:51:10.833683 29957 net.cpp:156] Memory required for data: 19517600
I0324 21:51:10.833686 29957 layer_factory.hpp:77] Creating layer fc1
I0324 21:51:10.833693 29957 net.cpp:91] Creating Layer fc1
I0324 21:51:10.833696 29957 net.cpp:425] fc1 <- pool2
I0324 21:51:10.833703 29957 net.cpp:399] fc1 -> fc1
I0324 21:51:10.837116 29957 net.cpp:141] Setting up fc1
I0324 21:51:10.837127 29957 net.cpp:148] Top shape: 100 500 (50000)
I0324 21:51:10.837131 29957 net.cpp:156] Memory required for data: 19717600
I0324 21:51:10.837141 29957 layer_factory.hpp:77] Creating layer score
I0324 21:51:10.837148 29957 net.cpp:91] Creating Layer score
I0324 21:51:10.837152 29957 net.cpp:425] score <- fc1
I0324 21:51:10.837157 29957 net.cpp:399] score -> score
I0324 21:51:10.837291 29957 net.cpp:141] Setting up score
I0324 21:51:10.837301 29957 net.cpp:148] Top shape: 100 10 (1000)
I0324 21:51:10.837303 29957 net.cpp:156] Memory required for data: 19721600
I0324 21:51:10.837309 29957 layer_factory.hpp:77] Creating layer loss
I0324 21:51:10.837317 29957 net.cpp:91] Creating Layer loss
I0324 21:51:10.837321 29957 net.cpp:425] loss <- score
I0324 21:51:10.837324 29957 net.cpp:425] loss <- label
I0324 21:51:10.837329 29957 net.cpp:399] loss -> loss
I0324 21:51:10.837366 29957 net.cpp:141] Setting up loss
…
