…
max_iter: 10000
lr_policy: "inv"
gamma: 0.0001
power: 0.75
momentum: 0.9
weight_decay: 0.0005
solver_mode: GPU
random_seed: 831486
type: "Nesterov"
I0323 19:55:37.015339 18607 solver.cpp:81] Creating training net from train_net file: prototxt/net_hdf5_train.prototxt
I0323 19:55:37.015660 18607 net.cpp:49] Initializing net from parameters: 
state {
  phase: TRAIN
}
layer {
  name: "data"
  type: "HDF5Data"
  top: "data"
  top: "label"
  hdf5_data_param {
    source: "/mnt/scratch/pierre/caffe_sandbox_tryouts/mnist/mnist_train_hdf5/h5list"
    batch_size: 64
  }
}
layer {
  name: "conv1"
  type: "Convolution"
  bottom: "data"
  top: "conv1"
  convolution_param {
    num_output: 50
    kernel_size: 5
    weight_filler {
      type: "xavier"
    }
  }
}
layer {
  name: "pool1"
  type: "Pooling"
  bottom: "conv1"
  top: "pool1"
  pooling_param {
    pool: MAX
    kernel_size: 2
    stride: 2
  }
}
layer {
  name: "relu1"
  type: "ReLU"
  bottom: "pool1"
  top: "pool1"
}
layer {
  name: "conv2"
  type: "Convolution"
  bottom: "pool1"
  top: "conv2"
  convolution_param {
    num_output: 50
    kernel_size: 5
    weight_filler {
      type: "xavier"
    }
  }
}
layer {
  name: "pool2"
  type: "Pooling"
  bottom: "conv2"
  top: "pool2"
  pooling_param {
    pool: MAX
    kernel_size: 2
    stride: 2
  }
}
layer {
  name: "relu2"
  type: "ReLU"
  bottom: "pool2"
  top: "pool2"
}
layer {
  name: "fc1"
  type: "InnerProduct"
  bottom: "pool2"
  top: "fc1"
  inner_product_param {
    num_output: 500
    weight_filler {
      type: "xavier"
    }
  }
}
layer {
  name: "score"
  type: "InnerProduct"
  bottom: "fc1"
  top: "score"
  inner_product_param {
    num_output: 10
    weight_filler {
      type: "xavier"
    }
  }
}
layer {
  name: "loss"
  type: "SigmoidCrossEntropyLoss"
  bottom: "score"
  bottom: "label"
  top: "loss"
}
I0323 19:55:37.015708 18607 layer_factory.hpp:77] Creating layer data
I0323 19:55:37.015723 18607 net.cpp:91] Creating Layer data
I0323 19:55:37.015730 18607 net.cpp:399] data -> data
I0323 19:55:37.015748 18607 net.cpp:399] data -> label
I0323 19:55:37.015760 18607 hdf5_data_layer.cpp:79] Loading list of HDF5 filenames from: /mnt/scratch/pierre/caffe_sandbox_tryouts/mnist/mnist_train_hdf5/h5list
I0323 19:55:37.015792 18607 hdf5_data_layer.cpp:93] Number of HDF5 files: 1
I0323 19:55:37.016230 18607 hdf5.cpp:35] Datatype class: H5T_INTEGER
I0323 19:55:37.252483 18607 net.cpp:141] Setting up data
I0323 19:55:37.252522 18607 net.cpp:148] Top shape: 64 1 28 28 (50176)
I0323 19:55:37.252529 18607 net.cpp:148] Top shape: 64 10 (640)
I0323 19:55:37.252532 18607 net.cpp:156] Memory required for data: 203264
I0323 19:55:37.252542 18607 layer_factory.hpp:77] Creating layer conv1
I0323 19:55:37.252564 18607 net.cpp:91] Creating Layer conv1
I0323 19:55:37.252569 18607 net.cpp:425] conv1 <- data
I0323 19:55:37.252578 18607 net.cpp:399] conv1 -> conv1
I0323 19:55:37.253929 18607 net.cpp:141] Setting up conv1
I0323 19:55:37.253942 18607 net.cpp:148] Top shape: 64 50 24 24 (1843200)
I0323 19:55:37.253945 18607 net.cpp:156] Memory required for data: 7576064
I0323 19:55:37.253967 18607 layer_factory.hpp:77] Creating layer pool1
I0323 19:55:37.253976 18607 net.cpp:91] Creating Layer pool1
I0323 19:55:37.253980 18607 net.cpp:425] pool1 <- conv1
I0323 19:55:37.253986 18607 net.cpp:399] pool1 -> pool1
I0323 19:55:37.254031 18607 net.cpp:141] Setting up pool1
I0323 19:55:37.254040 18607 net.cpp:148] Top shape: 64 50 12 12 (460800)
I0323 19:55:37.254043 18607 net.cpp:156] Memory required for data: 9419264
I0323 19:55:37.254048 18607 layer_factory.hpp:77] Creating layer relu1
I0323 19:55:37.254055 18607 net.cpp:91] Creating Layer relu1
I0323 19:55:37.254058 18607 net.cpp:425] relu1 <- pool1
I0323 19:55:37.254063 18607 net.cpp:386] relu1 -> pool1 (in-place)
I0323 19:55:37.254073 18607 net.cpp:141] Setting up relu1
I0323 19:55:37.254079 18607 net.cpp:148] Top shape: 64 50 12 12 (460800)
I0323 19:55:37.254083 18607 net.cpp:156] Memory required for data: 11262464
I0323 19:55:37.254086 18607 layer_factory.hpp:77] Creating layer conv2
I0323 19:55:37.254096 18607 net.cpp:91] Creating Layer conv2
I0323 19:55:37.254101 18607 net.cpp:425] conv2 <- pool1
I0323 19:55:37.254106 18607 net.cpp:399] conv2 -> conv2
I0323 19:55:37.255332 18607 net.cpp:141] Setting up conv2
I0323 19:55:37.255345 18607 net.cpp:148] Top shape: 64 50 8 8 (204800)
I0323 19:55:37.255349 18607 net.cpp:156] Memory required for data: 12081664
I0323 19:55:37.255359 18607 layer_factory.hpp:77] Creating layer pool2
I0323 19:55:37.255367 18607 net.cpp:91] Creating Layer pool2
I0323 19:55:37.255372 18607 net.cpp:425] pool2 <- conv2
I0323 19:55:37.255378 18607 net.cpp:399] pool2 -> pool2
I0323 19:55:37.255417 18607 net.cpp:141] Setting up pool2
I0323 19:55:37.255425 18607 net.cpp:148] Top shape: 64 50 4 4 (51200)
I0323 19:55:37.255429 18607 net.cpp:156] Memory required for data: 12286464
I0323 19:55:37.255432 18607 layer_factory.hpp:77] Creating layer relu2
I0323 19:55:37.255439 18607 net.cpp:91] Creating Layer relu2
I0323 19:55:37.255442 18607 net.cpp:425] relu2 <- pool2
I0323 19:55:37.255448 18607 net.cpp:386] relu2 -> pool2 (in-place)
I0323 19:55:37.255455 18607 net.cpp:141] Setting up relu2
I0323 19:55:37.255460 18607 net.cpp:148] Top shape: 64 50 4 4 (51200)
I0323 19:55:37.255463 18607 net.cpp:156] Memory required for data: 12491264
I0323 19:55:37.255467 18607 layer_factory.hpp:77] Creating layer fc1
I0323 19:55:37.255478 18607 net.cpp:91] Creating Layer fc1
I0323 19:55:37.255482 18607 net.cpp:425] fc1 <- pool2
I0323 19:55:37.255488 18607 net.cpp:399] fc1 -> fc1
I0323 19:55:37.259204 18607 net.cpp:141] Setting up fc1
I0323 19:55:37.259217 18607 net.cpp:148] Top shape: 64 500 (32000)
I0323 19:55:37.259222 18607 net.cpp:156] Memory required for data: 12619264
I0323 19:55:37.259232 18607 layer_factory.hpp:77] Creating layer score
I0323 19:55:37.259241 18607 net.cpp:91] Creating Layer score
I0323 19:55:37.259245 18607 net.cpp:425] score <- fc1
I0323 19:55:37.259253 18607 net.cpp:399] score -> score
I0323 19:55:37.259939 18607 net.cpp:141] Setting up score
I0323 19:55:37.259951 18607 net.cpp:148] Top shape: 64 10 (640)
I0323 19:55:37.259955 18607 net.cpp:156] Memory required for data: 12621824
I0323 19:55:37.259964 18607 layer_factory.hpp:77] Creating layer loss
I0323 19:55:37.259977 18607 net.cpp:91] Creating Layer loss
I0323 19:55:37.259982 18607 net.cpp:425] loss <- score
I0323 19:55:37.259987 18607 net.cpp:425] loss <- label
I0323 19:55:37.259994 18607 net.cpp:399] loss -> loss
I0323 19:55:37.260042 18607 net.cpp:141] Setting up loss
…
I0323 19:55:37.260118 18607 net.cpp:261] This network produces output loss
I0323 19:55:37.260126 18607 net.cpp:274] Network initialization done.
I0323 19:55:37.260371 18607 solver.cpp:181] Creating test net (#0) specified by test_net file: prototxt/net_hdf5_test.prototxt
I0323 19:55:37.260493 18607 net.cpp:49] Initializing net from parameters: 
state {
  phase: TEST
}
layer {
  name: "data"
  type: "HDF5Data"
  top: "data"
  top: "label"
  hdf5_data_param {
    source: "/mnt/scratch/pierre/caffe_sandbox_tryouts/mnist/mnist_test_hdf5/h5list"
    batch_size: 100
  }
}
layer {
  name: "conv1"
  type: "Convolution"
  bottom: "data"
  top: "conv1"
  convolution_param {
    num_output: 50
    kernel_size: 5
    weight_filler {
      type: "xavier"
    }
  }
}
layer {
  name: "pool1"
  type: "Pooling"
  bottom: "conv1"
  top: "pool1"
  pooling_param {
    pool: MAX
    kernel_size: 2
    stride: 2
  }
}
layer {
  name: "relu1"
  type: "ReLU"
  bottom: "pool1"
  top: "pool1"
}
layer {
  name: "conv2"
  type: "Convolution"
  bottom: "pool1"
  top: "conv2"
  convolution_param {
    num_output: 50
    kernel_size: 5
    weight_filler {
      type: "xavier"
    }
  }
}
layer {
  name: "pool2"
  type: "Pooling"
  bottom: "conv2"
  top: "pool2"
  pooling_param {
    pool: MAX
    kernel_size: 2
    stride: 2
  }
}
layer {
  name: "relu2"
  type: "ReLU"
  bottom: "pool2"
  top: "pool2"
}
layer {
  name: "fc1"
  type: "InnerProduct"
  bottom: "pool2"
  top: "fc1"
  inner_product_param {
    num_output: 500
    weight_filler {
      type: "xavier"
    }
  }
}
layer {
  name: "score"
  type: "InnerProduct"
  bottom: "fc1"
  top: "score"
  inner_product_param {
    num_output: 10
    weight_filler {
      type: "xavier"
    }
  }
}
layer {
  name: "loss"
  type: "SigmoidCrossEntropyLoss"
  bottom: "score"
  bottom: "label"
  top: "loss"
}
I0323 19:55:37.260538 18607 layer_factory.hpp:77] Creating layer data
I0323 19:55:37.260547 18607 net.cpp:91] Creating Layer data
I0323 19:55:37.260552 18607 net.cpp:399] data -> data
I0323 19:55:37.260560 18607 net.cpp:399] data -> label
I0323 19:55:37.260567 18607 hdf5_data_layer.cpp:79] Loading list of HDF5 filenames from: /mnt/scratch/pierre/caffe_sandbox_tryouts/mnist/mnist_test_hdf5/h5list
I0323 19:55:37.260594 18607 hdf5_data_layer.cpp:93] Number of HDF5 files: 1
I0323 19:55:37.299782 18607 net.cpp:141] Setting up data
I0323 19:55:37.299813 18607 net.cpp:148] Top shape: 100 1 28 28 (78400)
I0323 19:55:37.299820 18607 net.cpp:148] Top shape: 100 10 (1000)
I0323 19:55:37.299824 18607 net.cpp:156] Memory required for data: 317600
I0323 19:55:37.299834 18607 layer_factory.hpp:77] Creating layer conv1
I0323 19:55:37.299854 18607 net.cpp:91] Creating Layer conv1
I0323 19:55:37.299860 18607 net.cpp:425] conv1 <- data
I0323 19:55:37.299867 18607 net.cpp:399] conv1 -> conv1
I0323 19:55:37.300153 18607 net.cpp:141] Setting up conv1
I0323 19:55:37.300163 18607 net.cpp:148] Top shape: 100 50 24 24 (2880000)
I0323 19:55:37.300166 18607 net.cpp:156] Memory required for data: 11837600
I0323 19:55:37.300181 18607 layer_factory.hpp:77] Creating layer pool1
I0323 19:55:37.300190 18607 net.cpp:91] Creating Layer pool1
I0323 19:55:37.300195 18607 net.cpp:425] pool1 <- conv1
I0323 19:55:37.300201 18607 net.cpp:399] pool1 -> pool1
I0323 19:55:37.300243 18607 net.cpp:141] Setting up pool1
I0323 19:55:37.300251 18607 net.cpp:148] Top shape: 100 50 12 12 (720000)
I0323 19:55:37.300254 18607 net.cpp:156] Memory required for data: 14717600
I0323 19:55:37.300258 18607 layer_factory.hpp:77] Creating layer relu1
I0323 19:55:37.300266 18607 net.cpp:91] Creating Layer relu1
I0323 19:55:37.300269 18607 net.cpp:425] relu1 <- pool1
I0323 19:55:37.300276 18607 net.cpp:386] relu1 -> pool1 (in-place)
I0323 19:55:37.300283 18607 net.cpp:141] Setting up relu1
I0323 19:55:37.300288 18607 net.cpp:148] Top shape: 100 50 12 12 (720000)
I0323 19:55:37.300292 18607 net.cpp:156] Memory required for data: 17597600
I0323 19:55:37.300295 18607 layer_factory.hpp:77] Creating layer conv2
I0323 19:55:37.300304 18607 net.cpp:91] Creating Layer conv2
I0323 19:55:37.300308 18607 net.cpp:425] conv2 <- pool1
I0323 19:55:37.300314 18607 net.cpp:399] conv2 -> conv2
I0323 19:55:37.301026 18607 net.cpp:141] Setting up conv2
I0323 19:55:37.301038 18607 net.cpp:148] Top shape: 100 50 8 8 (320000)
I0323 19:55:37.301041 18607 net.cpp:156] Memory required for data: 18877600
I0323 19:55:37.301053 18607 layer_factory.hpp:77] Creating layer pool2
I0323 19:55:37.301059 18607 net.cpp:91] Creating Layer pool2
I0323 19:55:37.301064 18607 net.cpp:425] pool2 <- conv2
I0323 19:55:37.301070 18607 net.cpp:399] pool2 -> pool2
I0323 19:55:37.301110 18607 net.cpp:141] Setting up pool2
I0323 19:55:37.301117 18607 net.cpp:148] Top shape: 100 50 4 4 (80000)
I0323 19:55:37.301121 18607 net.cpp:156] Memory required for data: 19197600
I0323 19:55:37.301126 18607 layer_factory.hpp:77] Creating layer relu2
I0323 19:55:37.301131 18607 net.cpp:91] Creating Layer relu2
I0323 19:55:37.301136 18607 net.cpp:425] relu2 <- pool2
I0323 19:55:37.301141 18607 net.cpp:386] relu2 -> pool2 (in-place)
I0323 19:55:37.301147 18607 net.cpp:141] Setting up relu2
I0323 19:55:37.301152 18607 net.cpp:148] Top shape: 100 50 4 4 (80000)
I0323 19:55:37.301156 18607 net.cpp:156] Memory required for data: 19517600
I0323 19:55:37.301159 18607 layer_factory.hpp:77] Creating layer fc1
I0323 19:55:37.301167 18607 net.cpp:91] Creating Layer fc1
I0323 19:55:37.301172 18607 net.cpp:425] fc1 <- pool2
I0323 19:55:37.301177 18607 net.cpp:399] fc1 -> fc1
I0323 19:55:37.304903 18607 net.cpp:141] Setting up fc1
I0323 19:55:37.304915 18607 net.cpp:148] Top shape: 100 500 (50000)
I0323 19:55:37.304919 18607 net.cpp:156] Memory required for data: 19717600
I0323 19:55:37.304929 18607 layer_factory.hpp:77] Creating layer score
I0323 19:55:37.304939 18607 net.cpp:91] Creating Layer score
I0323 19:55:37.304942 18607 net.cpp:425] score <- fc1
I0323 19:55:37.304949 18607 net.cpp:399] score -> score
I0323 19:55:37.305096 18607 net.cpp:141] Setting up score
I0323 19:55:37.305105 18607 net.cpp:148] Top shape: 100 10 (1000)
I0323 19:55:37.305109 18607 net.cpp:156] Memory required for data: 19721600
I0323 19:55:37.305116 18607 layer_factory.hpp:77] Creating layer loss
I0323 19:55:37.305125 18607 net.cpp:91] Creating Layer loss
I0323 19:55:37.305130 18607 net.cpp:425] loss <- score
I0323 19:55:37.305133 18607 net.cpp:425] loss <- label
I0323 19:55:37.305140 18607 net.cpp:399] loss -> loss
I0323 19:55:37.305179 18607 net.cpp:141] Setting up loss
…
